Snake_DQN/snake_dqn_ep500.pth (torch, 75829 bytes, 6 tensors)

fc1.weight f4 [128, 8]
0	0xbef00937	-0.4688203
1	0x3e8cfbe8	0.2753594
2	0xbf18879a	-0.5958191
3	0xbd2ba784	-0.041907802
4	0x3f322e4c	0.69601893
5	0x3dffe299	0.12494392
6	0x3e7ec3a2	0.24879315
7	0x3e790090	0.24316621
8	0xbfad022f	-1.3516291
9	0x3e964c63	0.29355153
10	0x3e78874c	0.24270362
11	0x3ef4ec77	0.47836658
12	0xbed0e9d8	-0.4080341
13	0x3f7fe19e	0.9995364
14	0xbf8bff71	-1.093733
15	0x3e9a86a3	0.30180845
16	0x3d702de3	0.05863751
17	0x3e8b9edc	0.27269638
18	0xbe0bba2c	-0.13645238
19	0xbdb2e1c9	-0.08734471
20	0xbed1ee12	-0.41001946
21	0x3ecb9293	0.39760265
22	0x3d760549	0.060063634
23	0x3f0e855d	0.55672246
24	0xbf87cd10	-1.0609455
25	0xbf7016a4	-0.93784547
26	0x3e242bcc	0.16032332
27	0xbf0147b2	-0.50500023
28	0x3f4fe0d5	0.8120244
29	0x3f0caf31	0.5495482
30	0x3e296bd4	0.1654504
31	0xbfa691e1	-1.3013269
32	0x3e727a7e	0.2367954
33	0xbfecd5fc	-1.8502803
34	0x3db3ac0e	0.08773051
35	0x3e207bcc	0.15672225
36	0x3efc5434	0.49282992
37	0x3eda2c97	0.42612144
38	0x3f68631d	0.90776235
39	0x3e70cf44	0.23516566
40	0xbd067540	-0.032826662
41	0xbf4028ce	-0.75062263
42	0xbe91083f	-0.28326604
43	0xbeb88e02	-0.36045843
44	0x3f9fd66c	1.2487311
45	0x3f3717bd	0.71520597
46	0xbfaf499c	-1.3694339
47	0x3f759e07	0.95944256
48	0x3cceb9dc	0.025235109
49	0xbe85f45d	-0.26162997
50	0xbd2d6fcf	-0.042342957
51	0x3ea48295	0.32130876
52	0x3f01ef56	0.5075582
53	0x3f209b11	0.6273661
54	0xbffc872d	-1.9728752
55	0x3f073b14	0.5282452
56	0xbcfc7d15	-0.030821363
57	0x3e284c83	0.16435437
58	0xbf2167b8	-0.6304889
59	0x3eabf091	0.33581975
60	0xbeb3d4d4	-0.35123312
61	0x3e472b5c	0.19450134
62	0xbdb10002	-0.086425796
63	0x3fa3bc0b	1.2791761
64	0x3e24a8e7	0.16080056
65	0xbe041f88	-0.12902653
66	0x3d8e9a56	0.06963031
67	0x3df1c018	0.11804217
68	0x3ef38866	0.47565
69	0x3f60fb3b	0.8788335
70	0x3f384ba2	0.71990407
71	0x3e5f6d63	0.21819071
72	0xbdba526b	-0.09097751
73	0x3e24e137	0.16101538
74	0xbca758cf	-0.02042809
75	0xbe997724	-0.2997371
76	0xbf1db449	-0.6160322
77	0xbd7e41ce	-0.062074475
78	0xbe35db28	-0.17759383
79	0xb9fd089b	-0.00048262332
80	0x3c8145a1	0.015780272
81	0xc013df5c	-2.3105078
82	0x3e697ca9	0.2280146
83	0x3da6cac9	0.08144147
84	0xbfc152cd	-1.5103394
85	0xbfd0ef60	-1.6323051
86	0x3f51a04c	0.8188522
87	0x3f50ad6e	0.8151463
88	0x3dea6bc5	0.11446337
89	0xbe8b4ed9	-0.27208593
90	0x3ec44c6f	0.38339564
91	0xbcde808c	-0.027160905
92	0x3d187a97	0.037226286
93	0xbf38cd38	-0.7218814
94	0x3ed4596e	0.4147448
95	0x3f83d101	1.0298158
96	0xbf8b17c7	-1.0866631
97	0xbf0b53f1	-0.5442496
98	0x3e25ef80	0.16204643
99	0xbe26d832	-0.1629341
100	0x3f9827a6	1.18871
101	0xbe8736ef	-0.26409099
102	0xbf5638c8	-0.8368039
103	0xbf962351	-1.1729528
104	0x3cf1a646	0.02949823
105	0x3d496de1	0.049177054
106	0x3fba9a3c	1.4578319
107	0xbdc097e7	-0.09403973
108	0x3e99cf6f	0.30041072
109	0x3d5de23c	0.054170832
110	0x3f16cbf0	0.58904934
111	0x3e40a233	0.18811874
112	0x3d313b55	0.043269474
113	0x3af78aad	0.0018885933
114	0x3f46aa71	0.7760382
115	0xbf0e40ff	-0.55567926
116	0x3f1105f5	0.56649715
117	0xbf41c084	-0.7568438
118	0x3e02dc12	0.12779263
119	0xbf8b37dc	-1.0876422
120	0x3d09b03b	0.033615332
121	0x3d9c136f	0.07620894
122	0x3eb4704a	0.3524192
123	0x3ec97637	0.39348003
124	0xbdfa5a84	-0.12224296
125	0x3d565e5d	0.052336086
126	0x3df22f7f	0.118254654
127	0x3c2bf2e2	0.0104949195
128	0x3e9009af	0.28132388
129	0xbde41982	-0.11137678
130	0x3eb3eb5d	0.35140505
131	0x3f067338	0.5251956
132	0xbf25357f	-0.64534754
133	0xbfd2e810	-1.647707
134	0xbe7dec45	-0.24797161
135	0xbd583717	-0.052786913
136	0x3ded97b2	0.11601199
137	0xbe9e2a32	-0.30891567
138	0x3f022068	0.508307
139	0xbee7bb54	-0.45260108
140	0x3f1d8615	0.6153272
141	0x3f0d3053	0.5515186
142	0x3f23f144	0.6404002
143	0x3f98c416	1.1934841
144	0xc01699fe	-2.353149
145	0xbd2f6def	-0.04282945
146	0x3e90dbcf	0.282927
147	0xbe25a7dd	-0.16177316
148	0x3f6e7074	0.9314034
149	0x3e9c8fb0	0.30578375
150	0xbfb8f5db	-1.4450029
151	0xbf68e085	-0.9096759
152	0xbe577221	-0.2103963
153	0x3e1a53c5	0.15071018
154	0xbee8f6e4	-0.45500863
155	0x3df7d499	0.12101097
156	0xbee46dbc	-0.4461497
157	0xbf89a346	-1.0752952
158	0xb9433c36	-0.0001861908
159	0x3ed11b25	0.40841022
160	0xbee5c852	-0.44879395
161	0x3e79bfda	0.24389592
162	0x3ea1b934	0.3158661
163	0x3d026630	0.031835735
164	0xbe989c10	-0.29806566
165	0xbf70785b	-0.9393365
166	0x3e4d1358	0.2002691
167	0xbf016e6b	-0.5055911
168	0x3ec65368	0.3873551
169	0xbf05ada4	-0.5221808
170	0xbc27d820	-0.010244399
171	0x3da6acfb	0.08138462
172	0x3f32d048	0.6984906
173	0xbf226dab	-0.6344859
174	0x3f37f6b0	0.7186079
175	0x3e26457b	0.16237442
176	0xbdc380d6	-0.09546058
177	0x37d45c20	2.5315268e-05
178	0xbf3a4520	-0.72761726
179	0x3e3d1d08	0.18468106
180	0x3f6ad4e2	0.91731083
181	0x3efe284f	0.49640128
182	0xbe8c8ed5	-0.27452722
183	0xbddb7979	-0.107165284
184	0xbfea5838	-1.8308172
185	0xbe3ea510	-0.18617654
186	0x3e9a1de3	0.30100927
187	0x3e1d75bc	0.15376943
188	0x3ec96929	0.39338043
189	0xbf708343	-0.9395029
190	0x3e5e899f	0.21732186
191	0x3e3bab82	0.18327144
192	0x3c472fd6	0.012157401
193	0xbe7df42a	-0.24800172
194	0xbe96ecc2	-0.29477507
195	0xbebb5e52	-0.36595398
196	0x3fa0dbb5	1.2567049
197	0xbdacbdba	-0.08434625
198	0xbdf85759	-0.12126035
199	0x3cbf4d65	0.023352334
200	0xbf475b75	-0.7787393
201	0xbedc9c26	-0.43087882
202	0x3e3bd316	0.18342242
203	0x3eb4a5be	0.352827
204	0x3f63313b	0.88746995
205	0x3efe59e1	0.49677947
206	0x3f16123c	0.58621573
207	0x3e8a94f9	0.27066782
208	0x3cdb87d1	0.02679816
209	0x3dbd8338	0.092535436
210	0x3f4732a5	0.7781165
211	0xbe2c1166	-0.16803512
212	0xbdd92be2	-0.10604073
213	0x3f55d3ff	0.83526605
214	0x3d839009	0.06423957
215	0xbddfe85d	-0.10932992
216	0x3cf82021	0.030288758
217	0xbdae17ba	-0.08500619
218	0xbdc22f5f	-0.094816916
219	0xbddb4641	-0.10706759
220	0x3fc171ab	1.5112814
221	0x3f82a154	1.0205483
222	0xbfc73077	-1.5561665
223	0x3fbcb43e	1.4742506
224	0x3d32ca91	0.043650214
225	0xbf2a8d04	-0.6662142
226	0x3e199c93	0.15001135
227	0x3e517598	0.20455015
228	0x3dd9186e	0.10600363
229	0x3e85e7b7	0.26153347
230	0x3edaa13a	0.4270113
231	0x3f85f4a0	1.0465279
232	0xbe8dd4a3	-0.2770129
233	0x3eae7c65	0.3407928
234	0x3dcbd6e4	0.099530965
235	0x3e3160f5	0.17322142
236	0x3f4b3e9a	0.793924
237	0x3f35d72b	0.71031445
238	0x3c87a26f	0.016556947
239	0x3f1c6581	0.6109238
240	0x3a6b5116	0.00089766213
241	0x3c5f134e	0.013615442
242	0xbdf0beb9	-0.117551275
243	0x3dd786ef	0.105237834
244	0xbfdc743d	-1.7222973
245	0x3f79ccfc	0.97578406
246	0x3e59f7ae	0.21285889
247	0x3ef9379a	0.48675233
248	0xbf94010b	-1.1562818
249	0xbee5f680	-0.44914627
250	0x3e941eb0	0.28929663
251	0x3d0b9dba	0.034085967
252	0x3f15b2df	0.5847606
253	0x3f2a83ad	0.6660717
254	0xbe99bfb7	-0.3002908
255	0xc010220a	-2.2520776

fc1.bias f4 [128]
0	0xbdc3b969	-0.095568486
1	0x3eea0038	0.45703292
2	0xbf860d9b	-1.0472902
3	0xbdac78c2	-0.0842147
4	0x3ed99465	0.4249603
5	0xbcbdf06e	-0.023185935
6	0x3e9f2789	0.3108485
7	0xbf845821	-1.0339395
8	0xbf86c934	-1.0530152
9	0x3f801179	1.0005332
10	0x3df70ba8	0.1206277
11	0x3f1ab03c	0.6042516
12	0x3f068bb8	0.52556944
13	0xbf459dad	-0.7719372
14	0xbf308d59	-0.6896568
15	0x3faf48bb	1.369407
16	0xbf7e6551	-0.99373347
17	0xbe521504	-0.2051583
18	0x3ed2993c	0.41132534
19	0x3f84d420	1.0377235
20	0x3f828a3c	1.0198436
21	0x3f6ffc14	0.93744016
22	0x3ef1188d	0.47089043
23	0x3f336701	0.70079046
24	0xbf0657bd	-0.5247763
25	0x3f1597bf	0.5843467
26	0xbf2d1474	-0.67609334
27	0xbd7861f7	-0.0606403
28	0xbe49f6ff	-0.19723128
29	0x3fb1c33d	1.3887707
30	0x3d2fbbbb	0.042903643
31	0x3e0c3e83	0.13695721
32	0x3f94286d	1.1574837
33	0xbeb72c1a	-0.35775834
34	0xc0033ab6	-2.0504584
35	0x3fb2f9b5	1.3982455
36	0xbe17b7e9	-0.1481625
37	0xbf1b63a4	-0.60698915
38	0xbf116122	-0.5678884
39	0xbfc18680	-1.5119171
40	0x3dbb01d2	0.091312066
41	0x3f20dfc6	0.6284145
42	0x3eb53e78	0.35399222
43	0x3f7c2a9b	0.9850251
44	0xbf1467ec	-0.5797107
45	0xbe2b2c55	-0.1671613
46	0x3f2ff71f	0.6873645
47	0x3ef704aa	0.48245746
48	0xbf12105e	-0.57056224
49	0x3ed7c20e	0.4214024
50	0xbf708e04	-0.939667
51	0xbf6094f1	-0.87727267
52	0x3f1f795f	0.6229457
53	0xbf08d468	-0.53449106
54	0xbf678b06	-0.9044651
55	0xbf42c738	-0.76085234
56	0x3f220031	0.6328154
57	0xbfd97c8c	-1.6991134
58	0xbdf6c6eb	-0.12049659
59	0xbefb5ada	-0.49092752
60	0xbeb8c208	-0.36085534
61	0xbf46b4a6	-0.776194
62	0xbdc8cf88	-0.098052084
63	0x3e1dbe19	0.15404548
64	0xbf2171fa	-0.6306454
65	0x3f2a80c1	0.6660271
66	0x3f100f30	0.56273174
67	0xbe0cc951	-0.13748671
68	0xbeed6b2d	-0.4637083
69	0x3f47fd0c	0.78120494
70	0x3f6e863c	0.93173575
71	0xbe4fe56b	-0.2030236
72	0x3f7a8de8	0.9787278
73	0xbf25a6fc	-0.6470792
74	0xbf0a3864	-0.53992295
75	0x3e045edf	0.12926815
76	0xbf8f26db	-1.1183733
77	0xbfd7c8e0	-1.6858177
78	0x3f9cfb0c	1.2264113
79	0x3d260e9a	0.04054127
80	0xbe9d44d7	-0.30716583
81	0xbe9be52b	-0.3044828
82	0xbec913ce	-0.39272922
83	0x3e6142d0	0.21998143
84	0xbf3ba17e	-0.7329329
85	0xbf26f9b3	-0.6522476
86	0x3cd366ad	0.025805796
87	0xbf135563	-0.57552165
88	0x3f9e49df	1.2366294
89	0xbe6fe412	-0.23426846
90	0xbe26a261	-0.1627288
91	0x3ed43ce3	0.41452703
92	0xbc1d17f5	-0.009588231
93	0x3f0e86dd	0.55674535
94	0x3e90d23b	0.28285393
95	0xbf23da75	-0.64005214
96	0x3ed13683	0.40861902
97	0xbe31ff2d	-0.17382498
98	0xbf60cf05	-0.87815887
99	0x3f03f5d8	0.51547
100	0x3ee1263c	0.43974483
101	0xbf83141d	-1.0240513
102	0xbff4b3a2	-1.911732
103	0x3fa4ed3b	1.2884897
104	0xbf5ca1b8	-0.86184263
105	0x3dabbf06	0.08386044
106	0xbf9c0ab5	-1.2190768
107	0x3f0574fc	0.5213163
108	0x3f929162	1.1450617
109	0xbed70a5f	-0.420001
110	0xbf62bdf2	-0.88571084
111	0x3f77aa3b	0.96744126
112	0xbec7a4eb	-0.3899301
113	0x3f02223f	0.50833505
114	0xbf7ab4d5	-0.9793218
115	0xbf1ef1f3	-0.62087935
116	0xbf4785f0	-0.7793875
117	0x3ebe1ca0	0.37131214
118	0x3e6a4cbf	0.22880839
119	0xbedfb8af	-0.4369559
120	0xbebb7b08	-0.36617303
121	0xbf9a84a4	-1.2071729
122	0xbec4d004	-0.38439953
123	0xbedb551d	-0.42838374
124	0xbf5b1a50	-0.85587025
125	0x3e2f54cf	0.17122196
126	0xbf3f0e46	-0.74631155
127	0xbfac99bb	-1.3484415

fc2.weight f4 [128, 128]
0	0x3f065d82	0.5248643
1	0xbcb7b960	-0.02242726
2	0x3e04a219	0.1295246
3	0x3f392adb	0.7233102
4	0x3e4065c0	0.18788815
5	0x3f4845bd	0.7823141
6	0x3df1aa91	0.11800111
7	0x3d7f6a5b	0.062357288
8	0x3e27bfba	0.16381732
9	0xbdd2d3e8	-0.10294324
10	0xbe8483f5	-0.25881925
11	0xbdb3dc9e	-0.08782314
12	0x3dcdfc3d	0.10057876
13	0xbd836570	-0.06415832
14	0xbe149f64	-0.14513928
15	0x3e0c85d7	0.13722931
16	0xbe35247c	-0.17689699
17	0xbc9743e3	-0.018464988
18	0x3de5b6cd	0.11216507
19	0xbe016ae1	-0.12638427
20	0xbd1ed21e	-0.038774602
21	0x3e99d40b	0.30044588
22	0x3d6dc988	0.058053523
23	0x3da2db7b	0.07952019
24	0x3f005f4b	0.50145406
25	0x3f02067d	0.5079115
26	0x3da9e8fb	0.082963906
27	0xbe63fa21	-0.22263385
28	0x3dab88a0	0.083756685
29	0x3e79387b	0.24337952
30	0xbebf1389	-0.37319592
31	0x3e903d35	0.28171697
32	0xbe234fc8	-0.15948403
33	0x3ec16448	0.3777182
34	0xbe406c0e	-0.1879122
35	0xbe736719	-0.23769797
36	0x3f771ee9	0.9653154
37	0xbe9e1e9a	-0.30882722
38	0x3d5ddff6	0.054168664
39	0xbe650d6c	-0.22368401
40	0x3d9e8b8b	0.077414595
41	0xbe8fc5e2	-0.2808066
42	0xbe12044c	-0.14259452
43	0x3df9eb2b	0.12203058
44	0xbe0d4ffb	-0.13800041
45	0x3f38fbb9	0.722591
46	0xbeee552d	-0.4654936
47	0x3b482020	0.0030536726
48	0x3eb118b1	0.3458915
49	0x3f40225a	0.75052416
50	0x3d4263f8	0.04745862
51	0x3e4cb0a0	0.19989252
52	0x3db37333	0.08762207
53	0x3e8473bb	0.25869545
54	0xbded44b0	-0.11585367
55	0x3ec968b7	0.39337704
56	0x3e38d82a	0.1805121
57	0xbe769367	-0.24079667
58	0x3df55027	0.119781785
59	0x3de6d4f2	0.11271085
60	0xbb3cf81b	-0.0028834406
61	0x3c4b2b45	0.012400453
62	0x3e641e3d	0.2227716
63	0x3e78aafb	0.24283974
64	0x3e8f237f	0.2795677
65	0x3f45d718	0.7728133
66	0x3d125f9f	0.035735723
67	0xbebec96c	-0.37263048
68	0x3ea779ed	0.3271021
69	0xbd894773	-0.06703081
70	0xbe3cef77	-0.18450724
71	0xbcab6b79	-0.02092527
72	0x3e629b8f	0.22129653
73	0xbeb608ef	-0.3555369
74	0xba88129d	-0.0010381524
75	0x3e0b7667	0.13619386
76	0xbd9727f2	-0.07380666
77	0x3e9d8433	0.30764922
78	0xbdbab332	-0.0911621
79	0x3d958549	0.07300813
80	0x3ea4e2d8	0.32204318
81	0xbe6770fb	-0.22601692
82	0x3d27dff0	0.040985048
83	0x3dc89635	0.09794275
84	0x3f1b90c3	0.60767764
85	0x3d930721	0.07179094
86	0xbe4f9dfb	-0.20275109
87	0x3c1482e3	0.009064409
88	0x3c43d21a	0.011951948
89	0xbf22c45a	-0.6358086
90	0xbdb83674	-0.08994761
91	0x3e8a80f9	0.27051523
92	0x3ee8f338	0.4549806
93	0xbe8b4483	-0.27200708
94	0x3bc12b77	0.005895074
95	0xbe7ff08e	-0.24994108
96	0xbeb97dc9	-0.3622878
97	0xbd9ed537	-0.07755511
98	0xbd716a83	-0.058939468
99	0xbf296c2d	-0.6618069
100	0xbdd223aa	-0.10260709
101	0x3c74eb76	0.014948716
102	0xbbff0521	-0.007782594
103	0x3c2ad3ef	0.0104265055
104	0xbe32b47f	-0.17451666
105	0x3d9a7a41	0.07542849
106	0x3d3a7d21	0.04552949
107	0x3e9bac55	0.30404916
108	0xbe39e24e	-0.18152735
109	0x3f099851	0.5374804
110	0xbd1f2103	-0.03884984
111	0xbe95d3bc	-0.29263103
112	0x3d809f92	0.062804356
113	0xbe95c70b	-0.2925342
114	0x3dab1fde	0.083556876
115	0xbd5738d6	-0.052544437
116	0xbe49437d	-0.19654651
117	0xbf2edb89	-0.68303734
118	0x3dd80c97	0.10549276
119	0x3e8ce073	0.2751499
120	0x3e83c6dd	0.25737658
121	0xbdcf734b	-0.10129412
122	0x3ec9d409	0.39419582
123	0x3c3be47a	0.011468047
124	0x3e892cf1	0.267921
125	0x3e4a1299	0.19733657
126	0x3c1b0cf6	0.009463539
127	0x3e8aa8ac	0.2708181
128	0xbee391a9	-0.44447067
129	0x3ed4b071	0.41540864
130	0xbe94eda9	-0.2908757
131	0xbef5f2e7	-0.48036882
132	0xbf09a6c1	-0.5377007
133	0x3e255b25	0.1614805
134	0x3f09da99	0.5384918
135	0xbf36f3cb	-0.7146575
136	0x3e1ff686	0.15621385
137	0x3d507c84	0.050899997
138	0xbf15c514	-0.5850384
139	0x3ead0ed9	0.3380039
140	0x3ed3635a	0.41286737
141	0xbdc07c75	-0.09398738
142	0x3da5de8b	0.08099087
143	0xbefb9cb8	-0.49143004
144	0xbf5f4458	-0.8721366
145	0x3e12ad85	0.14324005
146	0x3f756b0c	0.95866466
147	0xbf56bfda	-0.8388649
148	0xbe83b3ef	-0.25723216
149	0x3ea5513a	0.32288533
150	0xbf62d8e5	-0.88612205
151	0x3ea9e673	0.3318363
152	0xbcac60b1	-0.0210422
153	0x3e105649	0.14095415
154	0x3c222c26	0.009898221
155	0x3d236c26	0.03989806
156	0x3eb9d869	0.3629792
157	0x3d275adf	0.040858146
158	0x3e6e0c0e	0.23246786
159	0x3e80084f	0.2500634
160	0x3e80efb7	0.25182888
161	0x3e4176cf	0.18892978
162	0xbf125769	-0.5716463
163	0x3ed180da	0.40918618
164	0x3ea121e9	0.31471184
165	0xbe296cbe	-0.16545388
166	0x3e651da7	0.22374593
167	0x3db6e71f	0.089308016
168	0xbce2cc95	-0.027685443
169	0x3e9d9159	0.30774954
170	0xbde1296d	-0.109942295
171	0x3d6cbd5e	0.057797782
172	0x3e40954d	0.18806954
173	0xbe85fa8f	-0.26167724
174	0x3e473310	0.19453073
175	0x3e1341cc	0.14380568
176	0xbe49e433	-0.19715957
177	0xbd9027ba	-0.07038827
178	0xbeadc745	-0.33941093
179	0xbf2c8d21	-0.67402846
180	0xbe0617fe	-0.1309509
181	0x3f1e57d7	0.6185278
182	0x3dcde689	0.10053737
183	0x3d90feac	0.07079825
184	0xbe34d822	-0.17660573
185	0xbf9dc659	-1.2326156
186	0x3f0064a9	0.50153595
187	0xbf25d4b5	-0.6477769
188	0x3d904de2	0.07046105
189	0xbd1d1212	-0.03834731
190	0xbe90a9ad	-0.28254452
191	0xbfa45943	-1.283974
192	0xbe4ab1e8	-0.19794428
193	0xbf35c9af	-0.7101087
194	0x3cc5bd3c	0.024138086
195	0xbea22c96	-0.3167464
196	0x3dc499c7	0.09599643
197	0xbe9528f7	-0.29132816
198	0xbed373be	-0.41299242
199	0xbe83f0f4	-0.2576977
200	0xbfd0f6df	-1.6325339
201	0xbe4eb8f0	-0.20187736
202	0x3e4fa812	0.20278957
203	0x3e00e0f6	0.12585816
204	0xbf01b16a	-0.5066134
205	0xbe41e070	-0.18933272
206	0x3e8d24ed	0.27567235
207	0x3f4484d9	0.7676521
208	0x3e13b2ef	0.14423726
209	0x3b5dea5c	0.0033861613
210	0xbf52da64	-0.8236449
211	0xbe67bbf4	-0.22630292
212	0xbf14b15a	-0.58083117
213	0x3eb51574	0.3536793
214	0xbe1c2792	-0.1524947
215	0xbebe62bb	-0.371847
216	0xbdd19099	-0.10232658
217	0x3db96fac	0.09054503
218	0xbc365bf1	-0.011130319
219	0x3ed4e90f	0.4158406
220	0x3f2cf22a	0.67557013
221	0xbede233f	-0.43386266
222	0x3ea176f0	0.31536055
223	0x3f4838b3	0.78211516
224	0x3e6b9eb2	0.23009756
225	0xbc96ba3e	-0.018399354
226	0x3eb0d94e	0.3454079
227	0xbd8d970e	-0.06913577
228	0x3e1642f6	0.14673981
229	0xbf2b4042	-0.66894925
230	0xbe80c2ff	-0.2514877
231	0xbe423ffd	-0.18969722
232	0xbea4730c	-0.32119024
233	0xbf0c2fe8	-0.547606
234	0xbddae606	-0.10688405
235	0x3ea8f974	0.33002818
236	0x3ed9fc00	0.42575073
237	0x3db559a4	0.08854988
238	0xbe5ccd8b	-0.21562783
239	0xbe75f5ea	-0.2401959
240	0xbdd9295d	-0.106035925
241	0x3e9a5539	0.30143145
242	0x3e02e53b	0.12782757
243	0xbde98422	-0.114021555
244	0x3e35feaa	0.17772928
245	0xbda2a2a6	-0.07941179
246	0x3e8ba605	0.272751
247	0xbe6e4332	-0.2326782
248	0x3d8b410c	0.06799516
249	0x3e484b4a	0.1955997
250	0x3e6e5112	0.23273113
251	0x3d4915a3	0.0490929
252	0xbee90f91	-0.4551969
253	0xbf265ad6	-0.64982355
254	0xbf559c69	-0.8344179
255	0xbd6e6e32	-0.05821056

fc2.bias f4 [128]
0	0xbe232d23	-0.15935187
1	0xbe277b16	-0.16355547
2	0x3c2a6dfc	0.010402199
3	0xbe9d8733	-0.3076721
4	0xbdda7341	-0.10666514
5	0xbdc9d900	-0.098558426
6	0xbf072875	-0.5279611
7	0xbd6a95c0	-0.05727172
8	0xbe1db6d1	-0.1540177
9	0xbc813bdf	-0.01577562
10	0x3f172c11	0.59051615
11	0x3b782474	0.0037863525
12	0xbe18c0bd	-0.14917274
13	0xbe050875	-0.12991507
14	0xbe0e3a5a	-0.13889447
15	0x3f06f25d	0.52713567
16	0xbf726026	-0.9467796
17	0xbe0cb9a9	-0.13742699
18	0xbf4e8e06	-0.8068546
19	0xbd63d1bc	-0.05561994
20	0xbd2e922b	-0.042619865
21	0x3e0951f4	0.13410169
22	0xbcd554fb	-0.026041498
23	0xbdda5bb0	-0.10662019
24	0x3f06acba	0.5260731
25	0x3f1b635a	0.60698473
26	0x3f53c372	0.827201
27	0x3e82f690	0.25578737
28	0x3e4633ca	0.19355693
29	0xbe9200cc	-0.28516233
30	0x3e3ceb8c	0.18449229
31	0xbe53f9dc	-0.20700783
32	0x3dffe137	0.12494128
33	0xbd5216cf	-0.051291283
34	0x3e699f28	0.2281462
35	0xbdd1a706	-0.10236935
36	0xbdd33528	-0.10312873
37	0xbd2bb9bd	-0.04192518
38	0xbe91ce49	-0.28477696
39	0x3df9a942	0.121904865
40	0x3f519aca	0.81876814
41	0xbd65e97f	-0.056130882
42	0x3ef83a91	0.48482183
43	0x3e83a0dc	0.25708663
44	0x3f0a7a42	0.540928
45	0x3dd69c7d	0.104790665
46	0xbcac8b6e	-0.021062579
47	0x3e1b8d1e	0.1519055
48	0xbcedcd78	-0.02902864
49	0x3ecc96d4	0.39958823
50	0xbcef8420	-0.029237807
51	0x3f285852	0.65759766
52	0xbea9589d	-0.3307542
53	0xbea961e5	-0.330825
54	0xbe25cae7	-0.16190682
55	0xbe5191ca	-0.2046577
56	0x3c017743	0.007901969
57	0x3f6fefa8	0.9372506
58	0x3e0fd6b8	0.14046752
59	0x3ecbe981	0.39826587
60	0x3f09bac9	0.53800637
61	0xbdca2d7b	-0.09871956
62	0x3ed53abd	0.41646376
63	0x3e51ea05	0.20499428
64	0x3c0ae13a	0.00847655
65	0xbe4b0870	-0.19827437
66	0x3f01b34f	0.5066423
67	0xbd5cf45d	-0.05394398
68	0x3f0fca07	0.56167644
69	0xbe92fb5e	-0.28707403
70	0x3f5fbcde	0.87397563
71	0xbd57e3e4	-0.052707568
72	0xbe249b5a	-0.16074887
73	0x3cc600c4	0.024170287
74	0xbdd35b59	-0.103201576
75	0xbe49ca7c	-0.19706148
76	0xbe015626	-0.1263052
77	0xbf4a1516	-0.78938425
78	0xbed301f8	-0.4121244
79	0x3ec3b682	0.3822518
80	0x3c2a940c	0.010411274
81	0x3d3b771e	0.045767896
82	0xbda4ec2f	-0.08052861
83	0xbe9abca8	-0.30222058
84	0x3eb5d92c	0.35517251
85	0xbeaef7e7	-0.3417351
86	0xbe7caa4c	-0.24674338
87	0xbc250d93	-0.010074037
88	0xbe8090c7	-0.25110456
89	0xbea9c387	-0.33156988
90	0xbf1ce46b	-0.6128604
91	0xba6e9338	-0.0009100917
92	0x3e335634	0.17513353
93	0x3ddc7947	0.10765319
94	0x3eef660f	0.46757552
95	0xbeecf7e6	-0.46282881
96	0x3cb16bf8	0.021657929
97	0x3e6f7eb3	0.23388176
98	0xbd8d3f9a	-0.06896897
99	0xbeb845a5	-0.35990635
100	0xbe8b19e4	-0.2716819
101	0x3e6e5ff6	0.23278794
102	0xbca945ca	-0.02066316
103	0x3d40c1b9	0.04705975
104	0xbea0a315	-0.31374422
105	0xbd2297b0	-0.03969544
106	0x3ea785bd	0.32719222
107	0x3e8b4a12	0.2720495
108	0x3e224b82	0.15849116
109	0xbce0408f	-0.027374534
110	0xbed42e6a	-0.4144166
111	0xbdda1cc0	-0.10650015
112	0xbeab9061	-0.3350859
113	0xbd2adabf	-0.04171252
114	0xbda59b57	-0.08086269
115	0x3f3401bc	0.70315146
116	0x3e1ccda4	0.1531282
117	0xbea6cead	-0.32579556
118	0xbda0a474	-0.07843867
119	0x3f04e09a	0.51905215
120	0xbe9f943a	-0.31167775
121	0xbdb90d86	-0.090357825
122	0xbc06629a	-0.008202219
123	0xbd6ed2c5	-0.058306474
124	0x3e61986a	0.22030798
125	0xbe799f4e	-0.24377176
126	0xbec81ad5	-0.3908297
127	0x3e51de7f	0.20495032

fc3.weight f4 [4, 128]
0	0xbae92f97	-0.0017790672
1	0x3dde0815	0.10841385
2	0x3ccc42c0	0.024934173
3	0xba4028ac	-0.00073302793
4	0x3c395ea4	0.011314068
5	0x3d859e77	0.065243654
6	0xbe93e1f0	-0.28883314
7	0xbf39f2a5	-0.7263587
8	0xbe53fd59	-0.20702113
9	0x3f27f493	0.65607566
10	0x3e3ea83c	0.18618864
11	0x3f0b60d5	0.5444463
12	0x3e3b3ecd	0.18285675
13	0xbd437cc6	-0.047726415
14	0xbe1d4c2a	-0.15361086
15	0x3eca9b8d	0.395718
16	0xbedfd823	-0.43719587
17	0xbf51cfd9	-0.81957775
18	0xbe5e2c2a	-0.21696535
19	0xbf22243d	-0.63336545
20	0x3d53de11	0.05172545
21	0xc0147c0b	-2.320071
22	0x3d2eca2f	0.042673286
23	0xbcf12f21	-0.029441418
24	0x3e54915a	0.20758572
25	0x3ec4f5d0	0.3846879
26	0xbf5f3c5d	-0.8720148
27	0xbf6cad3a	-0.9245182
28	0x3e808116	0.25098485
29	0xbd82f8be	-0.063951
30	0x3ef80046	0.4843771
31	0xbe6a72a4	-0.22895294
32	0xbe62a97b	-0.22134964
33	0xbe9c182a	-0.30487186
34	0xbf55137d	-0.8323286
35	0x3d54e7d6	0.05197891
36	0xbe53f016	-0.20697054
37	0x3d4021eb	0.046907347
38	0x3d8c8e0c	0.06863031
39	0xbf541a14	-0.8285229
40	0xbe0e0f1c	-0.13872951
41	0xbcb19cd6	-0.02168123
42	0x3f2174ca	0.6306883
43	0xbf481545	-0.78157455
44	0x3f2914b6	0.6604723
45	0xbdb3d190	-0.08780205
46	0x3e9e5aad	0.30928555
47	0x3f9a7600	1.2067261
48	0xbc18ace8	-0.009318568
49	0x3c0d1b84	0.008612517
50	0xbe854c81	-0.2603493
51	0x3f87bb29	1.0603992
52	0x3e7e7486	0.24849138
53	0x3e1aefca	0.15130535
54	0xbc032aae	-0.008005781
55	0xbee96d8b	-0.45591387
56	0xbf650346	-0.8945812
57	0xbfd67350	-1.675394
58	0xbfaa2389	-1.3292094
59	0xbdca5f70	-0.098814845
60	0xbf519703	-0.8187105
61	0x3cfa6bdd	0.030569011
62	0xbf15d846	-0.5853313
63	0x3f2b48f8	0.66908216
64	0x3f715f04	0.9428561
65	0x3f46df19	0.7768417
66	0x3f6c2cea	0.92256033
67	0xbe1ea71b	-0.15493433
68	0x3ed6bdf7	0.41941807
69	0x3e95a7c6	0.29229563
70	0x4021576a	2.5209603
71	0xbcc8b711	-0.024501355
72	0x3e095bd8	0.13413942
73	0x3d120cbc	0.035656676
74	0xb95ce3bc	-0.00021065673
75	0x3c63f8e4	0.013914321
76	0xbfbabb47	-1.4588403
77	0xc008b05e	-2.1357646
78	0xbe6a5534	-0.22884065
79	0xbe411501	-0.18855669
80	0x3d8793b9	0.06619973
81	0xbb98617e	-0.004650294
82	0x3cf5a2c7	0.029984845
83	0x3e299f79	0.1656474
84	0x3eb64e1a	0.35606462
85	0xbd1038eb	-0.03521053
86	0xbe51ca91	-0.20487429
87	0x3dbdc4df	0.09266066
88	0xbf25d05c	-0.64771056
89	0xbf0f26e1	-0.559187
90	0xbd83f222	-0.064426675
91	0x3bfd14f1	0.0077234437
92	0xbd873837	-0.06602519
93	0x3fb73b2f	1.4314936
94	0x3e8bd993	0.27314433
95	0xbe6ba1a0	-0.23010874
96	0x3d5be588	0.053685695
97	0x3e101e6d	0.14074107
98	0xbd9240e5	-0.07141284
99	0xbe31e4f9	-0.17372502
100	0xbce6aa46	-0.028157365
101	0x3efb0be7	0.49032518
102	0xbd995f1d	-0.074888445
103	0x3d938e47	0.072048716
104	0xbe92ef7a	-0.2869833
105	0x3da5b4fa	0.08091159
106	0xbfa2a3db	-1.2706255
107	0x3ea6d75d	0.32586184
108	0x3e2c7273	0.16840534
109	0xbc53f732	-0.012937354
110	0xbe893d4a	-0.26804572
111	0x3cea9d5d	0.02863949
112	0xbf35e601	-0.71054083
113	0x3d97e53b	0.07416769
114	0x3cd9fc6d	0.026609624
115	0xbf3e439c	-0.74321914
116	0xbec0aae0	-0.37630367
117	0xbe080e4c	-0.13286704
118	0x3d232951	0.039834324
119	0x3fc01b24	1.5008283
120	0x3ed3dfcb	0.41381678
121	0x3a911602	0.0011069181
122	0xbee5c422	-0.448762
123	0x3d948687	0.072522216
124	0xbfafd852	-1.3737891
125	0xbd5e2838	-0.054237574
126	0xbf765f38	-0.9623904
127	0x3e208aef	0.15677999
128	0xbe397753	-0.18111925
129	0x3e80262c	0.25029123
130	0xbd75bf91	-0.059997145
131	0xbfa50dfc	-1.2894893
132	0xbc92be74	-0.01791308
133	0xbd48ded5	-0.049040634
134	0xbeb7bfd2	-0.35888535
135	0xbc51b379	-0.012799137
136	0xbdd1b250	-0.102390885
137	0x3f3b3eae	0.73142517
138	0x3e98a1d8	0.29810977
139	0xbeb614b7	-0.3556268
140	0xbdae0d7a	-0.08498664
141	0x3ca1234f	0.019670157
142	0x3de94ed7	0.11391991
143	0xbeb1d06e	-0.34729332
144	0xbfdc99f0	-1.7234478
145	0x3eac9198	0.3370483
146	0x3e2a89a2	0.16654065
147	0xbd8bbac4	-0.06822732
148	0xbce47c67	-0.02789135
149	0x3ef7e6a3	0.4841815
150	0x3d3c7cce	0.04601746
151	0x3f902d61	1.1263849
152	0x3def748e	0.11692153
153	0x3e64d476	0.22346672
154	0xbfc8f709	-1.5700389
155	0x3f5b3130	0.8562193
156	0x3fc2acf4	1.5209031
157	0xbf32214b	-0.6958205
158	0x3d5e261e	0.05423557
159	0xbd60cd5c	-0.054883346
160	0x3ea0ed45	0.31431022
161	0xbe80e998	-0.25178218
162	0xbb7133ce	-0.003680456
163	0x3d6cba66	0.05779495
164	0xbe3dc51e	-0.18532225
165	0xbd1c9f91	-0.038238112
166	0x3ea3d26e	0.31996483
167	0x3f416ff0	0.7556143
168	0x3f03a15c	0.5141809
169	0x3cdcfc87	0.026975883
170	0x3bdf544d	0.0068154694
171	0xbfa738c4	-1.3064198
172	0xbcc21155	-0.023689905
173	0xbcb33061	-0.021873655
174	0xbe3c58c0	-0.1839323
175	0x3e5a81ea	0.21338621
176	0x3da88e33	0.08230247
177	0x3eba5361	0.36391738
178	0x3e43e4ee	0.19130298
179	0x40182fdd	2.3779213
180	0xbeb0bf17	-0.3452079
181	0xbe1fefa9	-0.15618767
182	0xbe2e09a2	-0.16995862
183	0xbf74f9d4	-0.9569371
184	0x3ddd0e0b	0.10793694
185	0xbf889458	-1.0670271
186	0xbf12543c	-0.5715978
187	0xbf107456	-0.56427515
188	0x3f2cc410	0.6748667
189	0xbfb0e9ae	-1.3821313
190	0x3d3e8eaa	0.046522774
191	0xbf40b641	-0.752781
192	0xbe9afb79	-0.30269983
193	0xbfa7af50	-1.3100376
194	0x3f4ee92d	0.8082455
195	0xbe12896e	-0.14310238
196	0xbfa6fa5f	-1.3045157
197	0xbed03639	-0.4066637
198	0x3efd3fe2	0.494628
199	0x39d29fb8	0.0004017332
200	0x3d897bb1	0.067130454
201	0x3c870eaf	0.016486494
202	0xbcdca7da	-0.026935507
203	0x3d168c0b	0.03675465
204	0x3eab6daa	0.33482105
205	0xbff40c46	-1.9066246
206	0xbe602158	-0.2188772
207	0x3e0a81b5	0.13526042
208	0xbc407148	-0.011745758
209	0xbb6e2539	-0.0036338104
210	0xbcb4d1d6	-0.022072714
211	0xbdc99faa	-0.09844907
212	0x3e2b606c	0.16736001
213	0xbfccd013	-1.6000999
214	0xbd862dfe	-0.06551741
215	0xbe2e3a96	-0.17014536
216	0xbd6cdd25	-0.057828087
217	0xbd0fffe5	-0.03515615
218	0xbe9fd643	-0.31218156
219	0xbcc0a064	-0.02351398
220	0x3eb87b50	0.3603158
221	0xbfc99632	-1.5748961
222	0xbee0015d	-0.4375104
223	0xbf8e4cea	-1.1117222
224	0x3a5d51c0	0.00084426627
225	0x3ec08765	0.37603298
226	0x3d48481b	0.04889689
227	0xbe9c3e48	-0.30516267
228	0xbe7e6250	-0.2484219
229	0xbe8a7514	-0.2704245
230	0xbd04b167	-0.032395747
231	0x3ba112d6	0.0049155755
232	0x3c8d7401	0.017267229
233	0x3eb027a5	0.34405246
234	0x3e859893	0.26092967
235	0xbe1e6b67	-0.15470658
236	0x4020af8f	2.5107152
237	0x3ccfe183	0.025376087
238	0x3e00ef3b	0.12591259
239	0x3ba309eb	0.0049755475
240	0x3e37054d	0.17873116
241	0x3d562af4	0.052287057
242	0xbbbcca3b	-0.0057614124
243	0x3fb4018b	1.4062971
244	0xbf7e47ac	-0.9932811
245	0x3d83fd57	0.06444805
246	0xbc524b29	-0.012835302
247	0x3fc3bf6e	1.5292795
248	0xbe6c7185	-0.2309018
249	0xbc7b3547	-0.0153325265
250	0xbf89cf3f	-1.0766371
251	0x3c44bb57	0.012007556
252	0xbf7322d7	-0.94975036
253	0xbf0e430f	-0.55571073
254	0xbf0bcf31	-0.54613024
255	0x3dd70945	0.10499815

fc3.bias f4 [4]
0	0x3ea9cc2f	0.33163592
1	0x3ea2eac0	0.31819725
2	0x3f0bee15	0.5466016
3	0x3dd97b28	0.10619193
