Snake_DQN/snake_dqn_ep1000.pth (torch, 75841 bytes, 6 tensors)

fc1.weight f4 [128, 8]
00000000: edbb 01bf b89b 603e d8da 10bf 64ac d7bd
00000010: d7e7 4a3f 684f 2e3f 7952 ff3e 9327 2ebf
00000020: 6a59 e1bf 6445 863e 1da6 aeba ae15 16bc
00000030: e2dd 3cbf 45a4 353f 6395 dfbf ce1e fa3e
00000040: 503a 373d 3671 4e3e 9e02 113e 50bd 3dbd
00000050: a224 4bbf 7403 243f b905 d53e 667c c43e
00000060: cab5 0bc0 6ce5 82bf 028f 753e 6eae 46bf
00000070: ff9c 763f 8e3e 39bf 5076 5bbf f938 0ac0
00000080: 77d3 d63e fc02 01c0 c4e8 233e 42c9 e0bd
00000090: 1b76 0c3f 7168 143f cb9c 883e 953a 323f
000000a0: 4c2c 4ebe 21aa f8be 5323 fbbe 766d 18be
000000b0: 3890 be3f e68d f33e 5b51 2dc0 29eb b83f
000000c0: 6b7d 8abd be11 92be bc9f 463e edbe 1f3f
000000d0: 6bad 803f efaa 863f 1b38 51c0 8a62 323e
000000e0: b29f 3cbe be8c 583e 0073 c4be 313d e43e
000000f0: 9350 16be 0563 33be d0a3 0abe f0a1 b13f
00000100: 0be5 2a3e a902 e43c f081 d43d a163 653e
00000110: e97f 343f 1cb1 7f3f b15c 4c3f 301c dd3e
00000120: c799 9fbe e593 d33d 59b9 eebd 8d09 babe
00000130: aea3 f1be 158c c83d fd07 06bf 10fd 0ebe
00000140: b6fb dd3d fa1b 83c0 065e 873e 64ab 5f3e
00000150: f52e 98bf 6c7b cebf 3123 9b3f 9c3d 5f3f
00000160: beb0 db3d 600c fcbd cad4 c53e 353b e2bd
00000170: a568 54be 63d4 06c0 3ac6 fb3e fe1d 9c3f
00000180: eba7 0bc0 5748 a2be 697c 20be 0f27 2bbd
00000190: c9b7 ae3f 2f01 b9be 26ab c7bf 0598 11c0
000001a0: e807 f03d 2766 613b 6546 9a3f 5c48 85bc
000001b0: 359a afbc 3393 b2bd 07ec 143f f6ee 60bc
000001c0: 2d6a 2a3b 24b4 87be 1a5d 2a3f 18dc 12bf
000001d0: 4874 353f bcb7 29bd c852 343f c06e c2bf
000001e0: a129 f23d fc03 ec3d 8af1 903e 87f5 a23e
000001f0: 8fe1 01be 1453 db3d b7dc 9c3d 6953 3b3e
00000200: db0a 6f3e c4e6 97bd 60dd 0e3f 4307 123f
00000210: e63e a53e 98cf bbbf efd7 4cbf 1676 b4be
00000220: 5df6 e23d 917b b6be 00f7 033f 182c 1abf
00000230: 4628 343f 0ecc 2c3f 4eb8 f93e 0a90 813f
00000240: 0ffd 2fc0 37c7 2a3e 25bf e93e fe4e ecbe
00000250: d41d 633f 2db5 80bf 3143 0ec0 6a8f 65bf
00000260: f45e 80be 2baa 0d3d c0f6 e4be 4fa7 153d
00000270: e162 69bf 662d c0bf 4ada bd3d ae46 8a3f
00000280: d5be fabe 7da4 883e 9223 4c3f 5c50 41bd
00000290: 4ac5 29bf 38c2 ffbe f41c d43e e220 cebe
000002a0: 7057 b93e 8ece cbbe 6e92 e1bd ba43 253e
000002b0: 5a9e 563f f066 6cbf 6c45 d53e 509c cd3d
000002c0: c2ed 03be 0493 c2bd 044d 4fbf c536 4c3d
000002d0: 4bdd 933f 90a4 0e3e 0f9c 06be 3b11 94bd
000002e0: 9de5 01c0 b414 09be 4a9f f93e 716e 313e
000002f0: 3dbe 973e 284d a2bf a4fa 8a3e b92c 763f
00000300: 27b1 0a3e e9a7 a7be 1641 17bf e814 07bf
00000310: 6df6 b83f 45ef 13bf 032d 15bf f6ca 2fbe
00000320: b043 8ebf 3166 fabe 2282 38be 0c5d 9f3e
00000330: bd17 353f 3ceb 1f3f a66c dfbc 243a 9b3f
00000340: 0664 cbbc b0b2 7d3b 71b9 6f3f 697c 28bd
00000350: 5d4a 14be 9269 b83f e64b d63d 4808 0fbd
00000360: 9c96 4cbe c793 b2bc 0244 d4bd c11d bebe
00000370: 3251 e53f 2b62 a73f 70bc edbf 1c65 d33f
00000380: a6c4 423d ed27 16bf 38aa 303e eac9 48bd
00000390: 94af 70be 0aa2 e33e 4f9f 8f3e b5d5 e63f
000003a0: b4fb 89be b1ee 3d3e cd94 9fbd 1253 5b3e
000003b0: c654 5f3f c4d1 0a3f 0b97 c8bd 7227 b03e
000003c0: 3295 813d cb67 f83a 2e4f babe d3cc 563e
000003d0: 1aed eabf d816 823f ec00 a73d 330c f13e
000003e0: ba5f 42bf eb2a a9be 4e01 203f 3f94 02bf
000003f0: 8a96 33bf d8c7 423f 6546 ddbc f75e 53c0
-0.50677377 0.21934402 -0.5658393 -0.10530928 0.7926001 0.68089914 0.4986761 -0.68029135
-1.7605412 0.26224816 -0.0013324652 -0.009160442 -0.73776066 0.7095378 -1.7467464 0.48851627
0.044733346 0.20160374 0.14161155 -0.04632312 -0.7935277 0.6406777 0.4160593 0.38376158
-2.1829705 -1.0226264 0.23980334 -0.7760991 0.9633331 -0.72361076 -0.85727406 -2.1597273
0.4195821 -2.0158072 0.16006762 -0.10975887 0.54867715 0.57971865 0.26682124 0.6962064
-0.20134085 -0.48567298 -0.49050388 -0.14885506 1.4887762 0.47569197 -2.7080905 1.4446765
-0.06762203 -0.2852916 0.19396871 0.62400705 1.0052923 1.0520915 -3.2690494 0.17420402
-0.18420294 0.21147439 -0.38368988 0.44577935 -0.14679174 -0.17518242 -0.13539052 1.3877544
0.16688935 0.0278333 0.10376346 0.22401287 0.70507675 0.9987962 0.79828936 0.43185568
-0.3117201 0.10330943 -0.11656446 -0.36335412 -0.4719519 0.097923435 -0.5235594 -0.13963723
0.10839026 -4.097165 0.26438922 0.21842724 -1.188933 -1.6131415 1.2120115 0.87203383
0.1072707 -0.12307048 0.38638908 -0.11046449 -0.20743044 -2.106713 0.49174672 1.2196653
-2.182124 -0.31695816 -0.15672459 -0.041785296 1.3649837 -0.36133716 -1.5599105 -2.2749035
0.11720258 0.0034393163 1.2052733 -0.016269855 -0.021435836 -0.08719482 0.5817265 -0.013728848
0.0026003227 -0.26504624 0.6654831 -0.57367086 0.70880556 -0.04143499 0.70438814 -1.5190048
0.11824346 0.115241975 0.2830928 0.31827947 -0.126837 0.10709205 0.076592855 0.18293537
0.23343985 -0.07417062 0.5580654 0.5704233 0.3227455 -1.4672728 -0.8001699 -0.35246342
0.11082146 -0.3564115 0.5154877 -0.6022353 0.7037395 0.6749886 0.48773426 1.0122082
-2.7498205 0.16677557 0.45653644 -0.46154016 0.8871739 -1.005529 -2.222851 -0.8967196
-0.25072443 0.034586113 -0.44719505 0.03653651 -0.911665 -1.5013855 0.09270151 1.080282
-0.48973718 0.26687995 0.79741776 -0.047195777 -0.66316664 -0.49952865 0.4142834 -0.40259463
0.36199522 -0.39806026 -0.11014257 0.16139117 0.83835375 -0.9234457 0.41654527 0.1003958
-0.12883666 -0.09500697 -0.8097689 0.04985692 1.1551908 0.13929963 -0.13145469 -0.07229849
-2.0296395 -0.13386804 0.4875434 0.17327286 0.29637328 -1.2679796 0.2714435 0.9616199
0.13544141 -0.32745293 -0.5908369 -0.52766275 1.4450203 -0.5778697 -0.5827181 -0.17167267
-1.1114407 -0.4890609 -0.18018392 0.31125677 0.70739347 0.62468314 -0.027273487 1.2127118
-0.024827968 0.0038711242 0.93642336 -0.04113427 -0.14481492 1.4407218 0.10463695 -0.034920007
-0.19979328 -0.021798981 -0.10364534 -0.37132075 1.7915404 1.3076833 -1.8573132 1.6515231
0.04755082 -0.5865467 0.17252433 -0.049020685 -0.23504478 0.44459563 0.2805123 1.8033968
-0.26949847 0.18548085 -0.07792053 0.21418408 0.8723873 0.54226327 -0.09794434 0.34405094
0.06327285 0.0018951831 -0.36388534 0.20976572 -1.8353608 1.0163221 0.08154473 0.4707962
-0.7592732 -0.33040556 0.6250199 -0.51007456 -0.7015158 0.7608619 -0.027011106 -3.3026712

fc1.bias f4 [128]
00000000: b9a7 fcbd c225 563f c7c3 b4bf c0ff d6bb
00000010: 6069 393f 0954 443e d8c2 b73e dae0 aabf
00000020: 5095 ccbf 2e6e 8d3f d488 fb3e 1a5b cd3e
00000030: f5a9 333f f386 49bf f04a 96bf 6691 cb3f
00000040: 3e37 c4bf 93cc 9dbe 8ec7 313f cb01 7b3f
00000050: e18b 863f d49b 6e3f 941a 453f d8aa 683f
00000060: a2b4 7fbf d0c5 f93e fd40 36bf f33c 443e
00000070: cc17 39bd 5163 bc3f 094f 0d3e d75f 203f
00000080: d061 b73f 1ab1 ebbe 4875 3cc0 bb3f d13f
00000090: 1028 f3be c63c 8bbe 95e6 25bf 27b7 edbf
000000a0: c5f5 093e d530 503f 25cd a33e d44e 843f
000000b0: c422 22bf c9f9 93be e838 823f 3067 b23e
000000c0: 2da6 05bf 3e96 143f 930d 98bf 0c75 b1bf
000000d0: c887 443f fecc 1fbf 1cd8 96bf aaa2 8ebf
000000e0: 7d62 b73e a8f8 3ec0 5d75 34bd 6eb3 17bf
000000f0: 08c2 b8be 7d8c 5dbf 4a55 19bd 6b51 68be
00000100: eea6 78bf 8a86 863f e527 2b3f 02eb 0cbe
00000110: d553 26bf bbc4 803f ae79 7c3f 9865 06bf
00000120: bd35 853f 4dfe 41bf c2af 9fbe c613 353e
00000130: 1095 c3bf 3416 29c0 7684 a63f 89dc 443d
00000140: b16a e6be 8fc4 b7bf 83c8 5bbf cba7 7e3e
00000150: 2819 05bf 09d5 5fbf 05cb 7cbd af94 71bf
00000160: 14a4 b03f 6fe3 05bf 61a2 26be 77e8 5c3e
00000170: 099d dbbe e006 6f3f a8af 523f 162e 35bf
00000180: c26b 133f 2dff 31be 93e8 47bf 6c0a d63e
00000190: 4900 0f3f b3f7 a9bf 1ee9 5cc0 af96 df3f
000001a0: d7cb a9bf 5985 abbc b748 c2bf 0c18 143f
000001b0: 4965 993f c5eb f3be 70e2 a6bf 5512 8c3f
000001c0: ce3e 34bf 0db3 d23e 3735 9dbf b542 1ebf
000001d0: c137 37be 593c 433f e35d a73e 1d64 42bf
000001e0: d3b8 67bf 4856 d1bf 5110 e2be f835 e7be
000001f0: e36a 71bf f984 54bc b2ba 85bf 294e 2bc0
-0.12336678 0.83651364 -1.4122247 -0.0065612495 0.72426414 0.19172682 0.3589084 -1.3349869
-1.5983067 1.1049249 0.4912783 0.40108567 0.7018121 -0.7872154 -1.1741619 1.5903747
-1.5329359 -0.3082014 0.6944512 0.9804961 1.0511438 0.93206525 0.7699368 0.90885687
-0.99885 0.4878373 -0.71192914 0.19163875 -0.04518871 1.4717809 0.13799681 0.6264624
1.4326725 -0.46033555 -2.9446583 1.6347574 -0.47491503 -0.27194804 -0.64804965 -1.8571519
0.1347266 0.8132451 0.3199245 1.0336556 -0.633343 -0.28901508 1.0173616 0.3484435
-0.5220669 0.5804175 -1.1879143 -1.3863845 0.76769686 -0.6242217 -1.1784701 -1.1143391
0.35817328 -2.9839268 -0.04405724 -0.5925816 -0.36085534 -0.86542493 -0.037434854 -0.22687308
-0.97129714 1.0509808 0.6685775 -0.13761523 -0.6497167 1.0060037 0.9862317 -0.5249877
1.0407025 -0.7577866 -0.3118878 0.17683324 -1.5279865 -2.6419802 1.3009174 0.04806188
-0.45003274 -1.435686 -0.8585283 0.24868695 -0.5199151 -0.8743444 -0.061717052 -0.943675
1.3800073 -0.5230016 -0.1627288 0.21573053 -0.42893246 0.93369865 0.8229928 -0.70773447
0.575863 -0.17382498 -0.78089255 0.41804826 0.5585981 -1.3278717 -3.4517283 1.746786
-1.3265332 -0.020937609 -1.5178441 0.5784919 1.1984035 -0.47640815 -1.3037853 1.0943094
-0.7040833 0.4115223 -1.2281865 -0.61820537 -0.17892362 0.7626396 0.32688817 -0.7593401
-0.90516394 -1.6354456 -0.44153073 -0.45158362 -0.9430372 -0.012971156 -1.04476 -2.6766455

fc2.weight f4 [128, 128]
00000000: 6e79 a03e b9f0 da3e 4a95 373f 33cc 7b3e
00000010: a724 823e d4d3 8f3f 432a b83d 52c4 ecbd
00000020: 85ba 4f3f 53e6 8ebe 17d2 eb3e d83e 7abe
00000030: 3b65 193f 009a 70be defa a2bf ccfd f83d
00000040: bdf5 91be 70fa dabe f5a6 d53e cf02 afbe
00000050: ce44 fc3b bf2e 133e c332 f3bd c45a c23e
00000060: 06e0 ff3d 9952 2d3f 0992 2b3e 3a46 88be
00000070: fb0e 803e e138 063e cd29 8dbd 80b4 353e
00000080: 7c51 b6be b1a6 ac3e 866b babe 2e7a 27bf
00000090: 2266 5a3f a8c4 bbbf 5f56 3e3e 70f7 28bf
000000a0: 430c 383f bd7b b8be f050 f6be a153 bebe
000000b0: 5afc 723e 0e8b 663f 50af 2ebf c86f e93c
000000c0: a7ea 2d3f fd6b 813f bd2d 4e3f 84d6 e63e
000000d0: 04af fc3e 0513 d63e d988 18bf 4b0f 5f3e
000000e0: 6ec1 9b3e dc10 fcbe 4ce6 aabe 4d7c 1e3c
000000f0: 1bf8 3cbb 94ee 713e de71 0f3f 954e 103f
00000100: cbc0 c43e b163 4d3e 26cb 393e 7ed9 24bf
00000110: 91ab 723c 0e69 8e3d b2dd 2bbe f7f2 aa3e
00000120: 1b26 693e 3140 3abe 52d7 ab3d d8f4 163e
00000130: ad96 933e 276a 143f 29f9 e8bd 7c2f c1bf
00000140: 6115 c33e 52eb e0bf 0cd1 1d3f 2ed2 f1bd
00000150: 33d4 723e 0bfb 10bf e1ff 8cbe 00fa 913e
00000160: 7b37 b3bd d05f 84bf 7436 b8bd 98d9 f6bb
00000170: 08ab 473e 45a6 fbbe d76e ab3d 18ae 66be
00000180: 2912 a3be 37d5 9ebd 562d 69be 463a 2fbf
00000190: db9e d6be 24f6 1cbe aa6d ac3e b878 ebbe
000001a0: 3ac4 65bf 53df 433e fff0 b03e 85d5 8a3c
000001b0: e132 00bf bfeb af3e 0668 4f3e 3d8f 0cbe
000001c0: 7d33 023f 2e2a 93bf 1dfd 7cbd abcf 29bd
000001d0: a260 f1be 106c e0bf 61d6 d6be cac3 583e
000001e0: 71c0 d13e 21b3 09bd a538 0b3d b77c 15bf
000001f0: c0a4 543e 0d63 1f3d 2d1f cd3d 2797 91be
00000200: a940 58bf 261c 133f d105 f2be 4405 09be
00000210: f930 e1bf ac96 883f 3134 81bd c9fb d1bf
00000220: 9f2c 063e 8039 95be 475a 72bf 8bd8 123f
00000230: 05a9 663e d2df 223d 5cbc e83e 956d 39bf
00000240: da2d d9bf fe89 ba3d 9523 813f aadf 78bf
00000250: f33f 50bf 0995 cd3e c380 15bf dcc5 8c3f
00000260: 8771 6b3d 7c7e 903c 71aa cebe 80d2 8c3d
00000270: af84 2dbe e2d0 18bd 5ad6 893e 2df5 1abe
00000280: fb51 e53e c2d4 cabd 7d97 85bf b5ef 033f
00000290: 6e0d a6be 55f8 3dbf f04b c93d a397 98bd
000002a0: 2606 df3d 2fb0 d13e ef02 26be a1dd 42be
000002b0: d125 e63e c551 2cbf 9a2f 613e 6401 0f3e
000002c0: 69c2 2cbf b6b5 3fbf 79f1 a1be 2f70 e7be
000002d0: 85c9 423e 5d3b 3f3f a643 813e 4914 1cbd
000002e0: 9d17 9dbe 93da b1bf 169f b2be 1e46 eabe
000002f0: e24d 903d 8f45 183e 0e09 30be ce99 e6bf
00000300: 1404 3dbe d785 1bbb fdf2 f73d a3c1 c5be
00000310: 1df7 1d3f c38b c1bd e508 91bd 627b a8be
00000320: 4d52 f7bf 30c3 3d3e bca8 873e 27dc 31be
00000330: acb9 82bf 578b aabf f4ea cb3d 2867 f53f
00000340: 8997 703d 4149 b4be 5c08 9abf 46d1 a6bf
00000350: 9fab 38be 756d 0b3f 15e4 173c 7f2f 6fbe
00000360: 9621 d5be fa30 0fbf f15b 36bc 17af 103e
00000370: 7b93 3d3f b6be 30be f411 893e dfaf 4e3d
00000380: a2a3 073e 3eba 96bc 9778 8b3d 16c2 033e
00000390: d8d7 e73d 6df7 83bf 1e3b 5cbf 935f 8c3e
000003a0: a715 8dbe 1f4b a9be 810f 4f3e c3d4 493e
000003b0: 14cd 073f 8c0c 44be 82ac 83be 2be4 043e
000003c0: 2f91 8abf 9120 8b3e 427e 28be 409d 4dbc
000003d0: f5c6 193d 15d0 d4be 2e86 ca3e 0c29 7abe
000003e0: c418 383e 7382 373f e987 a23e 5003 fb3e
000003f0: 7d85 c0bf cd06 93bf 81d4 82bf e157 8a3c
0.31342643 0.42761782 0.7171217 0.24589615 0.2541859 1.123652 0.08992436 -0.11560883
0.8114398 -0.27910098 0.46058723 -0.24438035 0.5992009 -0.23496246 -1.2732809 0.12157783
-0.28507796 -0.42769194 0.4172894 -0.3418183 0.007698632 0.14373301 -0.118749164 0.37959874
0.12493901 0.6770416 0.16754927 -0.2661608 0.2501143 0.13107635 -0.068927385 0.17744637
-0.35609043 0.33720925 -0.3641016 -0.65420806 0.8531209 -1.466939 0.18587635 -0.6600256
0.7189371 -0.36031905 -0.48108625 -0.3717318 0.23729077 0.9005593 -0.68236256 0.028495684
0.67936176 1.011108 0.8053854 0.45085537 0.49352276 0.41811386 -0.5958381 0.21783178
0.30421013 -0.49231613 -0.33378828 0.00967319 -0.0028834406 0.23626167 0.5603312 0.56369907
0.3842834 0.2005756 0.18143901 -0.64394367 0.014811412 0.06953631 -0.16783789 0.33388492
0.22768442 -0.1818855 0.083906785 0.14741838 0.28825894 0.57974476 -0.113756485 -1.5092616
0.38102248 -1.7571814 0.61647105 -0.11807667 0.2371376 -0.5663306 -0.2753897 0.28511047
-0.087508164 -1.034174 -0.08994761 -0.0075332634 0.19498837 -0.4915029 0.083707504 -0.22527349
-0.31849793 -0.07755511 -0.227712 -0.68448293 -0.41918072 -0.1532827 0.33677417 -0.4599054
-0.8975254 0.1912816 0.34558865 0.016947517 -0.50077635 0.34359547 0.20254526 -0.13726516
0.50859815 -1.1497247 -0.061764825 -0.041457813 -0.47144037 -1.7532978 -0.41960433 0.21168438
0.40967134 -0.033618096 0.033989567 -0.58393425 0.20765972 0.03891282 0.10015712 -0.28435633
-0.84473664 0.57464826 -0.47270063 -0.13380915 -1.759307 1.0670981 -0.06308783 -1.6404964
0.13102959 -0.29145432 -0.94669 0.5736167 0.22525413 0.039764233 0.45456207 -0.72432834
-1.6967118 0.09108351 1.0088984 -0.97216284 -0.8134758 0.40152767 -0.583996 1.0997882
0.057481315 0.017638437 -0.4036441 0.06876087 -0.16945146 -0.03730858 0.2692135 -0.1513259
0.4478911 -0.099038616 -1.0436856 0.5153764 -0.3243212 -0.7420705 0.09828937 -0.074507974
0.108898446 0.4095473 -0.16212057 -0.19029857 0.44950727 -0.6731227 0.21990815 0.13965374
-0.67484146 -0.74886644 -0.31629542 -0.45202777 0.19022186 0.74699956 0.25246924 -0.038105283
-0.30682078 -1.3894829 -0.34886998 -0.4575662 0.07046105 0.14870284 -0.17190954 -1.8015687
-0.18458587 -0.0023730898 0.12106893 -0.38624296 0.6170519 -0.094504856 -0.070817746 -0.32906634
-1.9321991 0.1853149 0.26495922 -0.17369138 -1.0212913 -1.3323773 0.09956923 1.9172106
0.058738265 -0.35212138 -1.2033801 -1.3032615 -0.18034218 0.54463893 0.009270688 -0.23357962
-0.41627187 -0.5593411 -0.011130319 0.14129291 0.7405316 -0.1726025 0.2677151 0.050460692
0.13246015 -0.018399354 0.0681011 0.12867007 0.11320466 -1.0309883 -0.86027706 0.27416667
-0.27555582 -0.33065125 0.20220758 0.19710068 0.530473 -0.19145411 -0.2571755 0.12977664
-1.0825557 0.27173284 -0.16454414 -0.012549698 0.037543256 -0.41565004 0.39555496 -0.2442972
0.17978197 0.71683425 0.31744316 0.49025965 -1.5040737 -1.148645 -1.0221101 0.016887607

fc2.bias f4 [128]
00000000: 76e1 d3be 0b17 20bd 86ee afbb 8129 96be
00000010: d1c0 0dbe 00d9 c9bd ecad 36bf 5f20 68be
00000020: 6f0f a1be 5d43 d23c 75e4 4e3f 232e 97bd
00000030: 0b7d b5bd 7508 05be b488 06be 150f 3e3f
00000040: 81f7 a6bf 5e35 50be 938d 41bf a021 bebd
00000050: 2b92 2ebd 0113 353e fb54 d5bc 5897 3dbe
00000060: 01d0 633f aa98 5c3f 2740 673f 3752 813e
00000070: 44e6 b33e e408 01bf ca73 9d3e d3a7 1abe
00000080: 0471 923e 72d7 48be fdb2 9e3d 06a7 d1bd
00000090: fc3f 96be bdb9 2bbd a631 a7be 0f12 2d3e
000000a0: 4739 863f 7fe9 65bd 7aba 4d3f 1e34 8f3e
000000b0: 5f3e f93e 46a6 543d 455f 6c3e 54d0 f63d
000000c0: d682 9ebd caf6 fe3e 4108 943d 298d 313f
000000d0: b097 82be e257 d0be fd51 efbd d25e 79be
000000e0: d793 7bbd b4bf 843f 3104 223e 8dca 9a3e
000000f0: 375e 2f3f 74bf 78bd 0238 013f d21a 913e
00000100: d4fd 0c3e 5db2 89bd 700d 673f 8561 25be
00000110: d977 203f 9e87 80be 480e 863f e4e3 57bd
00000120: 651e 98bc c400 c63c 595b d3bd 7cca 49be
00000130: fb55 38be f85d 37bf ef42 9dbe 51f9 283f
00000140: 0c94 2a3c 1e77 3b3d 2fec a4bd eb34 fcbe
00000150: 8922 333f e6e7 9dbe fa3e 97be aed8 ec3c
00000160: a2c1 a0be d2a5 41be b198 2bbf 3893 6eba
00000170: 4ee8 993e f0ec ce3d dbc2 e63e 11a0 9dbe
00000180: 6481 25bc d6cd 093f 9a3f 8dbd 99de ffbe
00000190: 432a 10bf d656 083f ca45 a9bc b9c1 403d
000001a0: 0411 a0be 04fc 1d3c 22bb 673e bbdf a93e
000001b0: 5826 d83e 8f40 e0bc e271 c2be c01c dabd
000001c0: d0e0 efbe bfda 2abd 579b a5bd 8484 4d3f
000001d0: 50c7 3d3e 6334 b2be 74a4 a0bd 6d3d 463f
000001e0: af63 a8be 860d b9bd 2ea7 31bd c5d2 6ebd
000001f0: 075b 0c3e 29e6 9dbe bcdb 37be 761b 233e
-0.4138295 -0.039084475 -0.0053690104 -0.2932854 -0.13843085 -0.098558426 -0.71359134 -0.22668599
-0.31457087 0.025666887 0.8081735 -0.07381847 -0.08861741 -0.12991507 -0.13138086 0.74241763
-1.3044282 -0.20332858 -0.7560665 -0.09283757 -0.042619865 0.1768303 -0.026041498 -0.18514764
0.88989264 0.86170447 0.90332264 0.25258037 0.35136616 -0.5040419 0.30752403 -0.15103082
0.2860185 -0.19613436 0.07748983 -0.10236935 -0.2934569 -0.04192518 -0.32655066 0.1690142
1.048623 -0.056130882 0.80362666 0.2796945 0.48680398 0.051916383 0.23083217 0.12051454
-0.07739799 0.4979766 0.07228137 0.6935602 -0.25506353 -0.4069205 -0.1168556 -0.24352577
-0.061420288 1.0371003 0.15821911 0.3023266 0.68503135 -0.06072946 0.50476086 0.28340775
0.13768703 -0.06723473 0.9025488 -0.16150482 0.62682873 -0.25103468 1.0473108 -0.052707568
-0.01856918 0.024170287 -0.103201576 -0.19706148 -0.18001549 -0.7162776 -0.3071513 0.66005427
0.010411274 0.045767896 -0.08052861 -0.49259123 0.6997457 -0.30840987 -0.29540235 0.028911915
-0.3139773 -0.18910912 -0.67029864 -0.0009100917 0.30060047 0.10103786 0.45070538 -0.30786183
-0.01010165 0.53829706 -0.06896897 -0.49974516 -0.56314486 0.532575 -0.02066316 0.04705975
-0.31262982 0.009642605 0.22629979 0.33178505 0.42216754 -0.027374534 -0.3797751 -0.10650015
-0.46851206 -0.04171252 -0.08086269 0.8028033 0.18533063 -0.34805593 -0.07843867 0.7743748
-0.32888553 -0.090357825 -0.043372326 -0.058306474 0.13706599 -0.3083966 -0.17954916 0.15928444

fc3.weight f4 [4, 128]
00000000: fac2 debd 3d6b 9fbe c042 cc3c 0f94 563f
00000010: a45e 393c 779e 853d 4cba 6dbf 9737 d8bf
00000020: f63a 09bf 8581 dbbe 4d95 cc3e d208 ef3e
00000030: ff94 863e c67c 43bd 7f02 87bf 0fb8 f23e
00000040: 5183 2fbf e5a6 bebf 2da0 e8be c289 33bf
00000050: 11de 533d e101 e1bf 2fca 2e3d 242a f7bf
00000060: 7b8c 343f 110e 083f 8742 60bf 9a92 a03d
00000070: b419 e03e dbed d5be 1d9f 1d3f c20c 33bf
00000080: 5313 98be f6d2 77bf b131 bdbf d6e7 543d
00000090: 852e 67bf eb21 403d 832b 0abe e16f a1bf
000000a0: cb3f 20be d69c b1bc 5361 283f 317c 8fbf
000000b0: 2a6d 143f 28b9 4ebf 3796 4f3e 9796 9a3f
000000c0: 10a8 823c 080c 0dbf 5a44 ebbd 2e43 673f
000000d0: 512a 8a3e b948 873f 19d7 91be 7def 07c0
000000e0: ff6a b9bf fadf 9abf 7aaf f0bf b390 27bf
000000f0: 031f 47bf 93b4 38bf 73ee aabf 7803 9b3f
00000100: 5318 cf3f 4e6c 553f 1b0d 793f f2f5 a93e
00000110: 2e0f 1e3f 1e04 383f 3080 1540 11b7 c8bc
00000120: 4033 243e bc0c 123d bce3 5cb9 e4f8 633c
00000130: 97c7 99bf b9e1 f6bf 423e 24bf 396d 3bbe
00000140: b993 873d 7e61 98bb c7a2 f53c 4f56 903f
00000150: 0b58 1c3f a557 26be 4adc 46bf 434e 2c3e
00000160: fe07 a4bf ca90 c3bf 838e 98bd f114 fd3b
00000170: f460 713d fd32 e53f 8b00 a03e ffe3 e1be
00000180: 88e5 5b3d 4557 2f3f e540 92bd b084 bdbf
00000190: 9f17 143d 7f62 093f 1d5f 99bd 478e 933d
000001a0: 1d67 f1bf 5a1c 6cbe 1334 75bf 2699 e93e
000001b0: 1373 6fbe 32f7 53bc 884c f2bf 5d9d ea3c
000001c0: 50ce 02c0 3be5 973d 6dfc d93c d5ef 50bf
000001d0: 345f 33bf 26a0 893e 5129 233d 986d c33f
000001e0: f4b1 b53f 0216 913a 3d44 b2bf 8786 943d
000001f0: 78d0 dabf 02ae 9fbf 2de5 04c0 079b 2a3f
00000200: f35d cbbd f1a5 21bf ba04 cbbc 7776 3dc0
00000210: 74be 92bc d5de 48bd f78f c6be 9284 35be
00000220: b244 1d3e 9b32 7f3f 7f1d f33e e466 5ebf
00000230: a26e 04be 4f23 a13c 3c28 70be 9fdc dbbe
00000240: 1432 26c0 0b8e 8c3f 6fd9 953d be4d eebd
00000250: 677c e4bc 6dd6 c13e ce7c 3c3d 2fda 2d3f
00000260: 1e04 143f 1a07 383e c413 b6bf 4021 833f
00000270: 82f8 1140 7538 a6bf c148 813e 7a36 ac3f
00000280: 1d98 833e 14c8 64bf 5b23 55be 66ba 6c3d
00000290: 29c9 11be 919f 1cbd 7246 433f 37b1 903f
000002a0: ed90 043f 87fc dc3c e308 3c3e 79b4 2dc0
000002b0: e592 473d fb5f f2bc f784 90bd 3be0 cf3e
000002c0: 4309 4a3d 408e 1a3f 34e3 0f3e 9835 0840
000002d0: 4842 e8be d42d 50bf 0650 fdbd f823 86bf
000002e0: ae53 e9bd c4ce 82bf 80fa 67bf 95f1 9dbf
000002f0: 26a4 343f 4ff5 00c0 ff40 663e e84d 48c0
00000300: 9f0a fdbe 18a0 efbf d839 553f c9fa 9abf
00000310: 0a17 cdbf 4d3c babf 103d bf3e b89f d239
00000320: 0abd 443e af0e 873c daa7 dcbc 0b8c 163d
00000330: 8164 893f 15a9 e6bf e679 b9be c238 6e3e
00000340: 4871 40bc 3925 6ebb d6d1 b4bc 03ca 14be
00000350: f4dd 923e b2be 38c0 0fae 0cbe 427e acbe
00000360: 17d9 8cbf 1d17 8e3e 523e ce3e 64a0 c0bc
00000370: aebe 0a3f 2526 fbbf dd6c fdbe d661 b8bf
00000380: c051 5d3a 49eb 1a3f 1b48 483d f2c6 8abe
00000390: b2ae 07bf facd 87bf 67b1 04bd d612 a13b
000003a0: b50a 4fbe 8a42 313f 9191 fe3e 3b1e 04bf
000003b0: fbb2 dd3f 83e1 cf3c 98f5 1b3f eb09 a33b
000003c0: 6e58 78bd f42a 563d 3bca bcbb 2c2c aa3f
000003d0: 223c b2bf f6c3 ed3d 294b 52bc ae1b c83f
000003e0: b033 78bf 4735 7bbc b483 e9bf 57bb 443c
000003f0: e5bb c1bf fce2 71bf 0056 5abf 4dff 563e
-0.108770326 -0.31136504 0.024934173 0.8381967 0.011314068 0.065243654 -0.9286239 -1.6891965
-0.5360559 -0.42872253 0.39957657 0.46686417 0.2628555 -0.047726415 -1.0547637 0.4740605
-0.6855975 -1.4894682 -0.45434704 -0.70132077 0.05172545 -1.7578698 0.042673286 -1.9309735
0.70526856 0.53146464 -0.8760151 0.07840462 0.4376961 -0.41783032 0.6157091 -0.6994134
-0.29702243 -0.96806276 -1.478079 0.05197891 -0.9030536 0.046907347 -0.13493161 -1.2612268
-0.15649335 -0.02168123 0.65773505 -1.1209775 0.5797907 -0.80751276 0.20272146 1.2077206
0.01594928 -0.55096483 -0.114876464 0.90336883 0.2698541 1.0569068 -0.2848442 -2.1239922
-1.4485778 -1.2099602 -1.8803551 -0.6545517 -0.77781695 -0.72150534 -1.3354019 1.2110434
1.6179298 0.83368385 0.9728562 0.33195454 0.6174191 0.7188128 2.335949 -0.024501355
0.16035175 0.035656676 -0.00021065673 0.013914321 -1.2014035 -1.9287635 -0.641575 -0.18303384
0.06619973 -0.004650294 0.029984845 1.1276339 0.6107184 -0.16244371 -0.77679884 0.1682673
-1.2814939 -1.5278561 -0.07449057 0.0077234437 0.058930352 1.7906185 0.31250414 -0.4411926
0.053685695 0.6849254 -0.07141284 -1.4806118 0.03615534 0.5366592 -0.074888445 0.072048716
-1.8859593 -0.2305769 -0.95782584 0.45624655 -0.23383741 -0.012937354 -1.8929605 0.02863949
-2.0438423 0.07416769 0.026609624 -0.81615955 -0.70067143 0.26879996 0.039834324 1.526782
1.4194932 0.0011069181 -1.3927075 0.072522216 -1.709487 -1.2474978 -2.0764878 0.666428
-0.09930029 -0.6314383 -0.024782527 -2.9603555 -0.01791308 -0.049040634 -0.3878171 -0.17726353
0.15358236 0.9968659 0.4748344 -0.8687575 -0.12932828 0.019670157 -0.23452848 -0.42941758
-2.5968065 1.0980848 0.07316863 -0.11635922 -0.02789135 0.37858906 0.04601746 0.67911047
0.5781878 0.17971459 -1.4224782 1.0244522 2.2807927 -1.2985979 0.2525082 1.3454125
0.2570199 -0.89367795 -0.20814268 0.05779495 -0.14236893 -0.038238112 0.76279366 1.1304082
0.5178364 0.026975883 0.18362765 -2.7141402 0.048724074 -0.029586783 -0.07056611 0.40600762
0.04932524 0.60373306 0.14051515 2.128271 -0.4536307 -0.8131993 -0.12368779 -1.0479727
-0.11392914 -1.021935 -0.9061661 -1.233935 0.7056297 -2.0149724 0.22485732 -3.129755
-0.49422166 -1.8720732 0.8329139 -1.2107784 -1.6022656 -1.4549652 0.37351274 0.0004017332
0.19212738 0.016486494 -0.026935507 0.03675465 1.0733796 -1.802035 -0.36225814 0.23263839
-0.011745758 -0.0036338104 -0.022072714 -0.14530186 0.28684962 -2.886639 -0.13738273 -0.33690077
-1.100375 0.2775201 0.40281922 -0.02351398 0.54197204 -1.9621016 -0.4949712 -1.4404857
0.00084426627 0.60515267 0.04889689 -0.27104908 -0.5300094 -1.0609734 -0.032395747 0.0049155755
-0.20218928 0.69242156 0.49720433 -0.5160863 1.7320246 0.025376087 0.6092162 0.0049755475
-0.060631208 0.052287057 -0.0057614124 1.329473 -1.3924601 0.11609642 -0.012835302 1.5633447
-0.9695387 -0.0153325265 -1.8243318 0.012007556 -1.5135466 -0.94486976 -0.85287476 0.20995827

fc3.bias f4 [4]
00000000: 4668 173f ffe4 043f e39a 4a3f 1078 c83e
0.59143484 0.5191192 0.7914259 0.391541
