Snake_DQN/snake_dqn_19.pth (torch, 75841 bytes, 6 tensors)

fc1.weight f4 [128, 8]
00000000: a172 18bf b19b 3cbf cabb 2abf d150 123f
00000010: 86cc 2bbd c75e 3d3f 14cd 26bd 0ef6 3b3f
00000020: 14b4 d4bf 4369 b13e f8c5 0d3e a683 013f
00000030: 5306 073d 27ff 90be 0e30 d93f 0d0a 523f
00000040: bfe4 96bd 82f7 3b3e 3beb 84be f164 2ebd
00000050: e652 953f cc36 45be d3a6 4c3f d0c7 efbf
00000060: e777 2c3d 6777 703e 2df9 5a3d 90ae 09bf
00000070: a73e 7e3f d23f 14bd 0c57 e53e e812 95bd
00000080: f32f 87c0 43d8 37be 8737 da3d 97b2 2a3e
00000090: af35 903f 7922 9bbe dfd9 dd3f 6308 a13f
000000a0: 7e8a 423d d466 e9be 21eb 05bf d2f1 65bf
000000b0: 3bce 75be d65d 683f b8f0 8e3f 7e8c 023f
000000c0: c633 e83d 93ae 2cbd 0a44 f83d c3bc 2c3e
000000d0: cd93 8cbe a315 0abf 2483 33c0 7a9c d13f
000000e0: 3292 26bd 2b88 a93c 580b 4d3e af38 673d
000000f0: 5f3e b43d d2d2 b83e 4646 1bc0 d54b ec3e
00000100: e296 2d3e 0a89 86be bc05 8a3d 2ea4 bebe
00000110: e63e cdbf 1d3c acbf 17cd dabf f91c aabf
00000120: bd13 ea3c 4661 00be 701e f63d 8595 7a3f
00000130: e24f e83c bb1c 313f 2eb5 09bf 4b91 023f
00000140: 9e10 12bd 592f ecbd ca19 19bf 1d30 51bf
00000150: 926c 2c3f 6bc8 c6bf 6984 b03c 6f20 92bf
00000160: 9cb2 a2bd f401 97bc 1ec9 d8bd d53e 89bd
00000170: 8fa5 533f e8a3 9f3d 80a7 b33e f2b5 f7be
00000180: 7610 a8bb 78f1 cc3d 3c1f d6bc 0115 963f
00000190: d12e fa3e d1a9 073f 26a4 16bf 1313 6b3e
000001a0: 5941 743c 4149 db3b 00a1 95bd 6cc1 92bd
000001b0: fa64 b1be a1e7 c4be 97d6 1c3f 00a0 2fbf
000001c0: 5906 763b da97 56c0 aa83 95bd 9266 22be
000001d0: 0e57 a93e 09d9 65bf 75ba f93f f797 edbe
000001e0: 3d35 673e eb03 90bd d265 f33e 3a60 01be
000001f0: 901e 4f3f 8997 88c0 43d5 c43e 853d 823f
00000200: a53a 433d 6df8 48bd e861 6e3f cb4e e9bd
00000210: e691 f6bd c0e3 b33f cdee 053e 3951 09bd
00000220: c682 04bc ade3 f73b 3896 b6be cf36 733f
00000230: 3076 f7be 5eb3 293e 37c9 313f 212b 893f
00000240: 4186 903d a13a e1bd 30f1 103e c7c2 463e
00000250: 74cd bebf b50d 8c3f 9b7f 10bf ac0f d43e
00000260: d7bb a5be 984e ab3d 9933 09bf fd19 903f
00000270: ab69 433f 5e35 d63e 96df 473d fe62 2e3f
00000280: be1d 8d3e bad7 8bbe bf15 d33e 39a1 1ebf
00000290: d0ee 2a3f 2e0c 213f 8107 08bf af60 6f3f
000002a0: 0efc 57bf 9ce0 3fbe bb13 3b3e f3e2 47be
000002b0: 93fa 903f c4f7 a93f 2f79 d93e acf9 9b3f
000002c0: bb4b e3be f60c 0a3e 85fe 3abf c588 21bf
000002d0: 4cab debe 6a54 b1be c20c f73d c965 693f
000002e0: bff1 efbd 60c7 923e b259 6c3e 6fc7 383e
000002f0: 6cd3 7fbe e015 d43e 7796 183e ca11 5abe
00000300: 4ab5 8dc0 3ae5 7bbd 96a0 053f 4ab1 bcbe
00000310: af0e 1e3f 8880 c23d ca9f 9b3f 53a3 68bf
00000320: 7cd3 d0be d15c e53d 199c 4d3d f858 873c
00000330: 4b40 aa3f 5063 8d3f 57de 3e3f 5544 d2be
00000340: 2b65 85bf 1ab6 23be d592 963e 78ca 79bf
00000350: 882b 983f bf14 05bf 158c 523f d18f f03e
00000360: 5c53 c2bf fac7 173d ae68 5fbf e94c 23bf
00000370: 2071 a4bf 7d8b 08bf 8d6e 02be a368 453f
00000380: d89b 0fc0 3432 24bd 2879 81be 0555 2c3e
00000390: 2134 e83f 9ea1 393f 9ec0 27bf 4b5d a4be
000003a0: 6542 cb3d ef48 93bc 05a5 633f 3d50 d13e
000003b0: 99fb 263f aaa8 a23e 3d84 6bbf 46ec f33e
000003c0: 57f1 8a3e fc06 29be eb12 fabe 3e99 8dbd
000003d0: ba09 a63e 7e2a 6ebd c494 49be b5b6 8ebf
000003e0: 95ce 343e 053f fcbe 4969 a83d 1d2f 5dbf
000003f0: ddbf 42be 4b1b 17bf 73c8 9fbf 2460 d73f
-0.5954991 -0.73675066 -0.66692793 0.57154566 -0.041943096 0.73972744 -0.04072292 0.73422325
-1.6617455 0.3465062 0.1384505 0.50591505 0.032965016 -0.28319666 1.696779 0.82046586
-0.073678486 0.18356135 -0.25960717 -0.042576734 1.1665924 -0.19259185 0.79942054 -1.8732853
0.042106535 0.23483048 0.05346029 -0.53781986 0.9931435 -0.036193676 0.44792974 -0.07278997
-4.224603 -0.17953591 0.10655122 0.16669689 1.1266383 -0.30299738 1.7332114 1.2580684
0.047495358 -0.45586264 -0.52311903 -0.89822114 -0.24004452 0.9076818 1.1167212 0.50995624
0.11338 -0.042158674 0.121223524 0.16868882 -0.27456513 -0.53939265 -2.8048792 1.6375878
-0.040666766 0.020694813 0.20023859 0.056450542 0.08800959 0.36098343 -2.4261642 0.46151605
0.16952088 -0.26276428 0.06739375 -0.37234634 -1.603482 -1.3455845 -1.7093838 -1.3290092
0.028573865 -0.12537107 0.12017524 0.978844 0.028358404 0.69184464 -0.53792083 0.5100295
-0.03566038 -0.11532468 -0.59804976 -0.8171404 0.67353165 -1.5529913 0.021547513 -1.1416148
-0.07944223 -0.018433549 -0.10585235 -0.067014374 0.826745 0.077949345 0.3508873 -0.48381
-0.0051289154 0.10006994 -0.02613794 1.172516 0.48863843 0.52993494 -0.5884422 0.22956495
0.014908158 0.006692082 -0.07306099 -0.071657985 -0.34647352 -0.3845797 0.6126494 -0.68603516
0.0037540405 -3.3530183 -0.073005036 -0.1585944 0.3307423 -0.89784294 1.9510027 -0.46405002
0.22578903 -0.07031997 0.4753862 -0.12634364 0.8090601 -4.268498 0.38443956 1.0175024
0.04766335 -0.049065042 0.93118143 -0.11391982 -0.12039547 1.4053879 0.13079377 -0.033524726
-0.008087819 0.007564983 -0.35661483 0.95005506 -0.48332357 0.1657233 0.69447654 1.0716287
0.07056857 -0.10997511 0.14154506 0.19410239 -1.4906449 1.0941683 -0.5644471 0.41418207
-0.32369873 0.083646 -0.53594357 1.1257931 0.7633311 0.4183759 0.048797213 0.681198
0.27561754 -0.27313024 0.41227528 -0.61964756 0.6677065 0.6290921 -0.5313645 0.935069
-0.8436898 -0.18738025 0.18269245 -0.19520168 1.1326469 1.3278737 0.42475268 1.2185569
-0.44393715 0.13481507 -0.73044616 -0.6309932 -0.43490064 -0.34634715 0.1206298 0.91170937
-0.11716031 0.28667736 0.23081091 0.18044828 -0.24982995 0.4142294 0.14901148 -0.21295848
-4.42838 -0.061497904 0.5219816 -0.3685401 0.61741155 0.09497172 1.2158139 -0.90874213
-0.4078635 0.11199344 0.050197694 0.016521916 1.3300871 1.1045933 0.74558014 -0.41067758
-1.0421499 -0.15987435 0.294089 -0.9757457 1.1888285 -0.5198478 0.82245 0.46984723
-1.5181689 0.037055947 -0.87269104 -0.6378923 -1.2847023 -0.5333784 -0.12737484 0.7711279
-2.243887 -0.04008694 -0.25287747 0.16829307 1.8140908 0.72512233 -0.65528286 -0.32102427
0.09924773 -0.017979113 0.88923675 0.4088153 0.6522766 0.31769305 -0.91998655 0.476412
0.27137253 -0.1650657 -0.48842558 -0.06913994 0.32429296 -0.058145992 -0.19685656 -1.1149508
0.1765693 -0.4926683 0.082232065 -0.86400014 -0.19018503 -0.5902602 -1.2483047 1.6826215

fc1.bias f4 [128]
00000000: 4a7f 15be 6b67 1cbe 46e3 c23e 5e7d c4bf
00000010: 455e df3e 0e12 0abf 115a 943f 35e4 c23f
00000020: e13c 90be c50e 783f b829 8cbd 6b8a 8f3f
00000030: b11f eebe 5937 aa3f cd5d 853f ed80 ad3e
00000040: 89df 3abf c45a 8bbf f77e 913f 847e 3bbf
00000050: 4fd7 30be a097 79bf e86b fcbd 5a8d c93f
00000060: a35a cebe c3f8 b83f b466 023d 939c 693e
00000070: 2f63 263f d591 edbe 8639 a13f e124 d73e
00000080: 2ea0 573f 47a1 533f 666d c53f 7502 663f
00000090: b25b 99bf 8b8d 2ebf 4b84 573e c96d 823f
000000a0: df1a 153d 9483 9cbf 0f41 20be 53ec 30bf
000000b0: 0173 bc3f 106d 6fbe ec62 a1bf e233 693e
000000c0: efbe bdbe feb4 8a3f 255b ccbf 56b1 863e
000000d0: a2e5 6cbf 312f a9bd 5282 9fbf 29c5 c63e
000000e0: b625 5a3f 344b 453f 804e 5cbf ef78 063f
000000f0: a4a0 81be ea9b 823f 3d3e 123f 24f5 143e
00000100: d99a a63f 7dda eb3f 9328 a2bf 59ea 783f
00000110: f35e 7cbf 27fa 913e 5848 773f 7c13 5dbf
00000120: 888e 5f3f 48c8 e43e 95e5 d0bf f5d7 cb3b
00000130: 99a8 a6bf beb4 193f 4481 ba3f e90f c1bf
00000140: 5d46 9fbe e33d 4c3f dbde 103f 0dda c3be
00000150: 8341 cfbd 70fd 24c0 7daf ae3f c179 81be
00000160: a8ce 903e 7999 793f 8e89 de3f 2c2a 053f
00000170: 900c dabf dfcb 07bf b021 a53f 2814 8e3f
00000180: 248f e93d def5 d03f 6ba3 243e e673 1cbf
00000190: 00fa aa3e 27a3 9d3e b903 86bf 6940 c33d
000001a0: 0bab b13f d563 593f db8d aabf 28e0 b8bf
000001b0: 04e4 373f ee5d 823f b986 933f 89cf 6abf
000001c0: 4d79 9b3f 9239 aa3f 767b 1ec0 9471 fb3f
000001d0: 05bc 703f ca02 4e3e a6f7 b5bf 83e4 88bf
000001e0: 091a 0e3f f9dc 9cbf 9277 8a3f 54d4 edbf
000001f0: 0d69 b5be 8baa 34bf 1786 1fbf b39d 99be
-0.14599338 -0.15273826 0.3806402 -1.5350759 0.4362661 -0.539338 1.1589986 1.5225893
-0.28171447 0.96897537 -0.06843895 1.1214117 -0.46508554 1.3298141 1.0419251 0.33887425
-0.7299734 -1.0887074 1.1366872 -0.7323992 -0.17269634 -0.97496986 -0.12325269 1.5746262
-0.40303525 1.4450916 0.031836227 0.22813635 0.6499509 -0.46400324 1.259568 0.42020324
0.8422879 0.82667965 1.5424011 0.898475 -1.1981108 -0.6818473 0.2104656 1.0189754
0.03640258 -1.2227654 -0.15649818 -0.691106 1.4722596 -0.23381448 -1.2608314 0.22773698
-0.37059733 1.0836484 -1.5965315 0.26307172 -0.9253789 -0.08260954 -1.2461646 0.38822296
0.8521379 0.77067876 -0.8605728 0.5252828 -0.25317872 1.0203831 0.5712622 0.14546639
1.3016006 1.8426052 -1.2668632 0.97232586 -0.9858238 0.28511164 0.9659476 -0.86357856
0.8732686 0.44684052 -1.6320063 0.0062208124 -1.3020202 0.60041416 1.4570699 -1.508298
-0.3110837 0.7978193 0.5659005 -0.38252297 -0.10119917 -2.5779686 1.3647305 -0.25288203
0.28282666 0.97499806 1.7385728 0.52017474 -1.7035084 -0.5304546 1.2900906 1.1099901
0.11404255 1.6325033 0.16077964 -0.61114347 0.3339386 0.30788538 -1.0469886 0.0953377
1.3880323 0.84917957 -1.3324541 -1.4443407 0.718323 1.0184915 1.1525489 -0.91722924
1.2146393 1.3298819 -2.4762855 1.9644036 0.94036895 0.20118251 -1.4216201 -1.0694736
0.55508476 -1.2254936 1.081774 -1.8580422 -0.3543171 -0.7057273 -0.6231398 -0.30003127

fc2.weight f4 [128, 128]
00000000: b766 09be afdf 48be 44ab ed3d 0a35 6dbd
00000010: 14cf 87be 6ffe 943b 9e06 c83e 98d4 28be
00000020: a291 7f3f 3173 643e 17c6 51be fa21 463e
00000030: 4f57 fa3d 9a14 2c3e aca9 563f e9d7 db3e
00000040: 664c e6be d8bc 283c cf3b da3d 66c2 02be
00000050: 49e9 7fbd b3f0 afbd 8fc4 bdbe 2f1f f43d
00000060: 730f e0bf 59ff 1bb9 826a 8dbe b4a3 a5bf
00000070: e565 19bf 4023 66be 9ee4 9ebe 3609 53be
00000080: b51b 00be e827 2b3a c880 b8be 1e35 00be
00000090: 7cf6 ce3e ecd8 163d c15c 0a3e e2a4 073e
000000a0: ec01 e3be 4745 01bd 2324 2ebf e387 1fbf
000000b0: 95ca 8ebe 2a7a 9c3d e6af a03e 93e1 21be
000000c0: da4f c4be 43ae 36bd a36d 4e3e c9f4 3c3e
000000d0: 1874 f5bd a1a9 3cbe ab80 423e 724a 993e
000000e0: 6903 e6be 7c87 023e 8580 eebd 80ee 18be
000000f0: fb1a 65ba acd9 503e 4191 923e 638d 043d
00000100: 9507 0e3d 3bf1 963d b184 a23e 35d1 cf3e
00000110: 69a6 06bd c1f3 2f3e 97c9 a93e e9ee 0e3d
00000120: e11f 1ebc 5995 c8be 0ac6 b93d e31a 383e
00000130: 4b79 2f3e 3643 0ebe 26dd b53d 9240 983d
00000140: 48f6 003d 445f 56be 1d19 3d3f 381b bcbd
00000150: d8f1 a6bc bcc3 f83d cd17 aebd 0806 1b3e
00000160: 4ab7 9c3e 522e ee3e c14a 2d3e 25e8 8fbd
00000170: e2d2 043d 09e8 c43e 2df5 303d 9876 193e
00000180: 4706 203d 0597 f23d 7b94 093e 331e ca3e
00000190: 46a8 afbe 9b52 573d b392 bdbd 795a ba3d
000001a0: f762 97be 37f7 d83d 6922 7dbe 7808 f0bd
000001b0: 335e b8bd 59b0 b43d 5e55 793e b819 2ebe
000001c0: 0cd7 4c3c e5ce 893c 24ba cd3e b5d8 21bc
000001d0: a44b 00bd f827 2c3f e36d 75be 366d 85be
000001e0: 90c2 da3e b2a5 923e cc95 96be 305b 163d
000001f0: 0b4c 58bf cd2e 57be 6b1c aebc 9206 17bf
00000200: 6656 83bd a626 8bbc eaab a8bd 3a49 fa3b
00000210: 0e55 41bc 29bd c9bd abb4 08be ed3f 9dbd
00000220: ff5d 13bc 38f1 a4bd a306 6b3c 7d45 fabd
00000230: 1104 be3a c7c8 5bbd 22dc 89bd dae2 883c
00000240: 710e e5bc c2b1 d9bd b729 b8bd c97d 0c3c
00000250: bd7f 69bd b6cc 4d3d 2724 0e3c 1d43 84bd
00000260: 5c9e 9fbd f521 79bd 539f 45bd 1f05 94bc
00000270: ba74 033d 6569 f2bc 5aad 253d 360b a33c
00000280: e01b 9cbd 3746 83bc 8f69 833d fd47 82bd
00000290: fda3 b93c 6bee 273d 5f22 803c 7aa4 d1bd
000002a0: 5812 d6bd 35c0 d9bd 205d 90bd db13 ecbd
000002b0: eabd f2bc 9d37 babd 2d42 6dbd 50e6 0c3d
000002c0: 662f 46bc 43fd 40bd a21a bcbc 29fa ef3c
000002d0: 674e 943d 3596 803c 4cfd e63b 96de e13c
000002e0: 06eb 183d dc6d 74bb cf97 923d 62eb c03c
000002f0: 866f 0fbd 36e2 2bbd 2c18 fabc 7f06 0bbd
00000300: 835d 78bd e01b 883c 296d e4bc ef97 52bd
00000310: 0c91 683c a0e3 b63c 2c6c 5d3d db7a 823d
00000320: 9917 0d3d da3c cdbd a198 8bbd aa80 0b3d
00000330: 4405 95bc 83f7 e2bd 538d aabd 0374 d63c
00000340: 7647 183c 790f 9a3d cea4 a2bd aa1b 8dbd
00000350: 6d64 013d 7701 c03a 7ae0 c2bd 808c 3e3d
00000360: cbe4 74bd f6d2 f5bd e3a9 533c 5450 d6bd
00000370: 21b5 ae3c e14b 3dbd a142 99bd 29b3 51bd
00000380: 0f7d 763d cf3c debd fadc 91bd 96ae 173d
00000390: 24ec 72bb 9999 b9bc d199 59bc 83b8 b5bc
000003a0: 6f1e 46bd cff5 07be 9c34 3f3d ebfb 9dbc
000003b0: 9847 bbbd c210 44bc e98e 26bb 1d96 83bd
000003c0: 550a 1c3d 373d ed3c 35cc 493d 2024 963c
000003d0: 4817 4a3d dc73 3dbd 623f 6ebd 8921 683b
000003e0: f41d f3bd ae4b d7bd 1ea8 c23c f2c3 093d
000003f0: f736 d9bc c6f2 633c 9fe1 ddbb c209 323c
-0.13418089 -0.19616579 0.11604932 -0.05791191 -0.26525176 0.0045469324 0.3906755 -0.16487348
0.99831593 0.22309567 -0.20485722 0.19348899 0.12223684 0.16804734 0.8385265 0.42938164
-0.44980162 0.01029893 0.10655939 -0.1276947 -0.062478337 -0.085908316 -0.37064025 0.1192001
-1.7504715 -0.00014877076 -0.27620322 -1.2940583 -0.59921104 -0.22474384 -0.31033796 -0.20608982
-0.1251057 0.0006529079 -0.36035752 -0.12520263 0.40422428 0.036827967 0.13511945 0.13246492
-0.44337404 -0.03156021 -0.6802389 -0.6231672 -0.27888933 0.076404884 0.313842 -0.15808706
-0.38342172 -0.044599783 0.2015901 0.18452753 -0.11985034 -0.18424083 0.18994395 0.2993961
-0.44924477 0.12746996 -0.11645607 -0.1493473 -0.0008739677 0.20395535 0.28626445 0.0323614
0.0346752 0.0737023 0.3174186 0.405893 -0.032873545 0.17182828 0.33161613 0.03489581
-0.009651155 -0.39176443 0.09070976 0.17979006 0.17136113 -0.13892826 0.08880071 0.07434191
0.031484872 -0.20934778 0.73866445 -0.09184879 -0.020378992 0.12146708 -0.085006334 0.1513902
0.30608588 0.46519715 0.16923048 -0.070267 0.032427676 0.3845828 0.043202568 0.14986646
0.039068487 0.11845211 0.13435547 0.39476165 -0.3430807 0.052569013 -0.09256496 0.090992875
-0.29567692 0.105940275 -0.24720158 -0.11720365 -0.09002342 0.08822698 0.24348971 -0.17001998
0.012502443 0.016822288 0.40181077 -0.009878327 -0.031322137 0.6724849 -0.239677 -0.26059884
0.42726564 0.2864204 -0.2941116 0.036708057 -0.8449103 -0.21013947 -0.021253785 -0.589944
-0.064129636 -0.016986202 -0.08235915 0.007638124 -0.011800064 -0.098505326 -0.1335017 -0.076782085
-0.008994578 -0.08053821 0.014344844 -0.12220285 0.0014497061 -0.053658273 -0.0673144 0.016709734
-0.027960988 -0.10629608 -0.089923315 0.008574911 -0.057006586 0.050244056 0.008675612 -0.06458113
-0.077938765 -0.0608234 -0.048247647 -0.018068848 0.03209374 -0.029591272 0.040448524 0.019902807
-0.07622504 -0.016024692 0.06416618 -0.06361387 0.022661204 0.040998857 0.01564139 -0.102364495
-0.104527175 -0.10632364 -0.07049012 -0.11527225 -0.029631574 -0.09092639 -0.05792444 0.03439933
-0.012096262 -0.04711653 -0.022961918 0.02929409 0.072415166 0.015696624 0.0070492383 0.027571958
0.03733351 -0.0037296927 0.071578614 0.02354974 -0.035018466 -0.04196378 -0.030529104 -0.033941742
-0.060636055 0.016614854 -0.027884083 -0.051414426 0.014194738 0.022325337 0.05405824 0.06371089
0.034446333 -0.10021372 -0.06816221 0.03405825 -0.018190987 -0.11082365 -0.08327737 0.026178366
0.009294381 0.075224824 -0.0794159 -0.06890042 0.031589914 0.0014648874 -0.09515472 0.04652071
-0.059788506 -0.12003128 0.012918922 -0.1046454 0.021326603 -0.046214942 -0.074834116 -0.05119625
0.06017786 -0.10851442 -0.07122226 0.037031732 -0.003706702 -0.022656249 -0.013281302 -0.022182709
-0.048368867 -0.13277362 0.04668103 -0.019285163 -0.09144515 -0.011966886 -0.002541477 -0.06425116
0.03809579 0.028959854 0.049267013 0.018327773 0.04933861 -0.04625307 -0.058165915 0.003542038
-0.118709475 -0.10512482 0.023761805 0.033634134 -0.026515467 0.013912862 -0.006771281 0.010866584

fc2.bias f4 [128]
00000000: ee87 d33e bca1 083d 73f1 123f de5d cc3f
00000010: fa5f 8f3e 7b30 66be fb9f 173f b100 debd
00000020: 0476 643e 1d38 bcbc d583 8d3d 077f 5d3e
00000030: b490 e2be 4307 47be 80c0 42bd 70f5 b6bd
00000040: 34a4 1a3d ebe3 7bbc d37a 393e 0417 1a3e
00000050: bdda 2c3f 5122 623f f14a 26be 43e6 36bd
00000060: 5082 223c a7b2 223d fb88 5b3e e013 d93a
00000070: 4270 1a3f 9224 0ebe 3e24 c2bd c555 c0bd
00000080: 16b8 b63d 142c b33d 3c21 afbd 6c82 b53c
00000090: d0f6 81be 35cb be3e 0cd4 143e 792e 623f
000000a0: 5750 14bd 4eac 53bd 9a59 0fbd ab06 df3e
000000b0: 7550 4a3f d9cd 123f cbbe d93c 8706 d13e
000000c0: e787 323e 34db 0a3f c104 65bc e7fb c93e
000000d0: 3104 f83e 9a87 6dbd 5aba b83e 344e 0b3f
000000e0: 5607 063e 1d2c 35bd e997 b6bc 25fc 0d3e
000000f0: 2f45 6f3e e8c2 5c3d d1a4 94bd adac 3abe
00000100: 4fe4 253f 4678 243f 7907 153f 780f 7abe
00000110: fb3b 0ebf e95b 2cbd d7c4 b93e 57a9 8d3e
00000120: b2f2 08bc fb5b e1bc 80e2 68bf c649 8e3e
00000130: d81b f8be 095a d93e 8ef4 6f3d 9a82 44be
00000140: a02c a53e a9f0 eb3e 3b10 e4be ad06 8f3e
00000150: 2bdd 9a3f f7c7 fc3e c8fc 0dbd 3df3 5fbe
00000160: a300 0ebe b4e1 643f 49b4 8e3d fda2 043d
00000170: 7138 abbe 9308 35bd 3606 a43d 9feb b73e
00000180: 227a 96be 3969 203f 5d7d 1abe 4394 adbe
00000190: f5e8 48bd e49e 5f3f 58f6 933f 74be 993e
000001a0: 6efa 323f 5c92 123d e5bb 233e a766 00be
000001b0: ffd5 6a3e 8b1a 00bf 277a 59bd 4411 d6bd
000001c0: b17a c1bd 4d47 073f 1ce9 dd3e 273e 733f
000001d0: 5e96 00bf 9dd8 c6bc adf0 28bd 2836 473f
000001e0: d7f1 d3bd 12fd f43e bf4f 493f 13e3 a5be
000001f0: e890 0e3f f3d2 fbbd 99a1 173f 70bc 82bc
0.41314644 0.033357367 0.5739967 1.5966146 0.28002912 -0.22479431 0.59228486 -0.108399756
0.22310644 -0.022975976 0.069099106 0.21630488 -0.44251025 -0.19436364 -0.047546864 -0.08933532
0.037754253 -0.015374164 0.1811326 0.15047842 0.6752127 0.8833361 -0.16239525 -0.04465319
0.009918764 0.039721157 0.21438973 0.0016561709 0.6032754 -0.13881138 -0.09479569 -0.09391359
0.0892183 0.087486416 -0.08551261 0.022156917 -0.25383615 0.3726441 0.14534014 0.8835216
-0.03620943 -0.051677994 -0.03499756 0.43559775 0.7902902 0.5734535 0.026580235 0.40825292
0.17434655 0.5424073 -0.013978184 0.3945 0.48440698 -0.057990648 0.36079675 0.54416203
0.13088736 -0.044231523 -0.022289233 0.13865717 0.23366235 0.053896815 -0.07257999 -0.18229933
0.64801496 0.6424602 0.5821453 -0.24419963 -0.5556027 -0.04207984 0.3628299 0.2766826
-0.008358644 -0.02750968 -0.9097061 0.2779066 -0.48458743 0.42451504 0.058582835 -0.19190446
0.3226061 0.46082047 -0.44543633 0.2793478 1.2098745 0.4937131 -0.0346649 -0.21870132
-0.1386743 0.89406896 0.069679804 0.032382 -0.334415 -0.04419763 0.08008997 0.35921952
-0.29390055 0.6266056 -0.15086885 -0.33902177 -0.04905029 0.8735182 1.1559553 0.30028117
0.69913375 0.03578411 0.15989645 -0.12539159 0.22933196 -0.500405 -0.05309501 -0.10452512
-0.0944723 0.5284317 0.4334191 0.9501671 -0.5022944 -0.024273211 -0.04124515 0.7781701
-0.10348862 0.47849327 0.7863731 -0.32399806 0.5568986 -0.12296095 0.59230953 -0.015958995

fc3.weight f4 [4, 128]
00000000: 3cd5 413e ee6d 75bc 1a24 0b3f 8709 883f
00000010: 4013 743f 79e1 383f 7f0e 3b3e 8992 ab3d
00000020: 72fd 4f3e d093 22be 9c43 9fbf e27f 613e
00000030: c3bb 40bf 0285 0ebf a61b 3dbc 94c4 503e
00000040: c767 483e a963 863d bb1c 2d3f 1a2c e53d
00000050: 74bd 033f b1f1 e73e d5c5 01bf e89d f2ba
00000060: 38fc a6bc 5d10 313d 786f 04bf b9d8 50bd
00000070: 7cf1 3c3e 3b91 cabf 8ef3 713f cfef ea3c
00000080: 19e1 3abe 817f bd3e 2e15 48bc ea41 813c
00000090: a85a 81bf 1aad 67bf 1abe 64be 09ff cc3e
000000a0: fb4d 8abc f3cc 373d cb11 443d 67f5 88bf
000000b0: 16b8 3c3e 63ed 053f 029e 4ebd f81a dabe
000000c0: 097b e63c f183 6b3f 8b9d a83d 62a3 b7be
000000d0: 1c35 b0bf d49c 8abf 3f77 83bf afc1 58bf
000000e0: 8d4f b13e 988e 35bf e4b6 423d 7a6c 1bbe
000000f0: cfe9 1e3f 916b 303e e876 f0bf d48c 7cbf
00000100: 5807 1e3f eed8 153f b25f 11c0 2e06 abbf
00000110: 1833 bd3f 0a64 a1bc 4050 4bbf 6764 c7be
00000120: 8a09 b0bc 8494 ab3c 6a8c babf 3834 233e
00000130: 4f8f 843e aee3 303f d11f 1cbf e5cd 09bf
00000140: 7091 3b3e d4f6 a33e 13cd a33d e78f a23c
00000150: 6108 0f3f 4f64 6a3f e667 fbbb db15 233f
00000160: 744a 903e 58e5 c73e 3103 4ebd b60f 203d
00000170: 8c6f 64bf 00df 22bd 4cba 39c0 5ddc 39bd
00000180: 181c 8c3f ef9c 3b3f 9d6f a9bd bac4 763e
00000190: 06bd a03f 22f2 3f3e 6c8b cf3e 8992 1abf
000001a0: a4de 4f3e 1c64 4abf 511f f6bf e468 2bbb
000001b0: ef9b 883f 8ae7 31bf 337e b5bf e830 9f3b
000001c0: 4b4c 17c0 9639 923b c964 c1be 19b9 dd3e
000001d0: 8268 173f 4b32 65bc f21f ca3c 9318 a33d
000001e0: e1b5 c2bc f79a 8e3b 7807 dd3e d8fe 8f3d
000001f0: 7f35 29bc 9d29 61bb b8a3 733e 1ccd aebc
00000200: 1e45 863e 7770 bc3b c1f8 043c 02ef 5d3f
00000210: d609 c93e 0fe2 e13e e139 c13e cc36 0dbd
00000220: fff9 8ebf d413 bf3e b26e 9ebe 7f64 bbbf
00000230: 1b21 98be 9489 b93e f147 023c f214 22bf
00000240: a22c d63e 2400 093d 2fcf 02bf 1330 56be
00000250: b2fa 75bf 7614 ca3e b516 76bf 0d47 243d
00000260: 4846 b6bd a239 183b 16f2 193e 0364 d7bc
00000270: 785f d03e 5031 f3bf 31a4 aabf fe4c a3bc
00000280: 1605 253f 65c9 273f 0965 123d 3aee 6dbc
00000290: 4c17 9cbf 1acc fc3e e3a1 393e 5cc2 3d3f
000002a0: 91d5 ecbc 2115 da3c d8a2 0abd 57e6 e83e
000002b0: 9087 3d3e 289f d33e 916c cc3c 60ab 0dbe
000002c0: d23b 003f 1975 123d 6acf 4dbd 38a3 4bbf
000002d0: a264 dd3d 1925 843e 6d95 5abb 1649 5dbf
000002e0: ba6f 533f 0e2a b0bd 8fc4 9b3d 6939 573f
000002f0: 9564 193f 950b a5be b26c 553f 27e0 6abf
00000300: dbff ea3c 7954 0b3e 1ff6 3ebe be9d 5dbf
00000310: 1b62 843e 2af2 e33b 2460 873e a388 e53e
00000320: 80ac ef3d 6612 03bd df1c 0cc0 f062 eebd
00000330: 7ead 09be 2f7f 593e da62 693f 25a0 09bf
00000340: a9b2 003f 47d9 913f 2f17 ee3e 869e efbe
00000350: 776c 8f3e 6b70 793d eb94 de3c 9dc4 90bf
00000360: 4a6b 05be 0c34 e73e 075d 2cbf 0e2e 5fbd
00000370: f88c 60bf d948 653d 7220 293f 47f4 823d
00000380: 3081 41bf e12d 563e 27ec 6dc0 1d80 1d3f
00000390: a428 36c0 46ae a33d 42e2 303f cbf5 1f3e
000003a0: b1f9 e33e 3660 9fbe 33c7 d9bf 5090 453d
000003b0: f0b6 11bf 0cbb 19bf 4514 81be 387e 9f3c
000003c0: bdce 6b3d 07e2 4b3e f9d9 093f 672b f53e
000003d0: 02ce 0abf 1a26 94bd eb96 76bd b2c6 223e
000003e0: a9fa c7bc 6d10 143f ff6f 1c3f d225 3ec0
000003f0: 1e60 8d3c 6804 563d 67be a3be 7a3c 92bc
0.18928999 -0.014979823 0.5435196 1.0627908 0.95341873 0.72219044 0.18267249 0.08377559
0.20311525 -0.15876698 -1.2442508 0.2202144 -0.752865 -0.55671704 -0.011542236 0.20387489
0.19570838 0.065619774 0.67621964 0.11190052 0.5146096 0.45301583 -0.5069249 -0.0018510194
-0.02038394 0.043228496 -0.5173259 -0.050987933 0.18451494 -1.5825571 0.9451226 0.028678803
-0.1824993 0.3701134 -0.012212081 0.0157785 -1.0105791 -0.9049851 -0.22338143 0.40038326
-0.016882887 0.04487319 0.04786853 -1.0699891 0.18429598 0.5231535 -0.050443657 -0.425987
0.02813484 0.919982 0.08233174 -0.3586684 -1.3766208 -1.082911 -1.0270766 -0.8467054
0.34631005 -0.70920706 0.0475377 -0.151781 0.62075514 0.17228533 -1.8786287 -0.98652387
0.61729956 0.58534133 -2.2714658 -1.3361261 1.4781218 -0.019701023 -0.79419327 -0.38943788
-0.021488924 0.020944841 -1.4574101 0.15937889 0.25890586 0.6909741 -0.6098605 -0.53829795
0.18317199 0.32024252 0.07998099 0.019844009 0.5587216 0.9155931 -0.007672298 0.63705224
0.28181803 0.39042163 -0.050296012 0.039077483 -0.8923271 -0.03976345 -2.9019957 -0.04537617
1.0946074 0.73286337 -0.08273242 0.24098483 1.2557685 0.1874471 0.40536058 -0.60379845
0.20299774 -0.79059005 -1.9228307 -0.002615505 1.0672587 -0.69493926 -1.4179138 0.004858125
-2.3640316 0.004462431 -0.37772205 0.4330528 0.5914384 -0.013989042 0.024673436 0.079636715
-0.023768367 0.0043519693 0.4316976 0.070310295 -0.010327696 -0.003435708 0.23792922 -0.021338038
0.26224607 0.0057507115 0.008115948 0.8669282 0.39265317 0.44117782 0.3773947 -0.034476086
-1.1170043 0.37319815 -0.3094383 -1.4640044 -0.29712757 0.36237776 0.0079517225 -0.6331321
0.41830927 0.0334474 -0.5109739 -0.20916776 -0.96085656 0.39468735 -0.961284 0.04010682
-0.08900124 0.0023227711 0.15033755 -0.026292806 0.40697837 -1.8999424 -1.3331357 -0.019934174
0.64460886 0.6554168 0.035740886 -0.01452213 -1.219461 0.49374467 0.18128161 0.74124694
-0.02891043 0.026621403 -0.033846706 0.45488235 0.18508744 0.41332364 0.024954112 -0.13834906
0.5009128 0.035756204 -0.050246634 -0.7954593 0.1081021 0.25809553 -0.0033353225 -0.86439645
0.82592356 -0.08601771 0.0760585 0.84071976 0.599191 -0.322354 0.8336898 -0.9174828
0.028686455 0.13606443 -0.18648575 -0.8656882 0.258561 0.0069563584 0.26440537 0.44830808
0.11702824 -0.031999968 -2.1892622 -0.116399646 -0.13445088 0.21239923 0.9116646 -0.53759986
0.50272614 1.1394433 0.46502063 -0.4680063 0.2801244 0.060898226 0.027170619 -1.1310002
-0.13029209 0.45156896 -0.6732945 -0.05448728 -0.877151 0.055977676 0.6606513 0.063942485
-0.7558775 0.20915939 -3.7175386 0.6152361 -2.8462305 0.079922244 0.6909524 0.15621106
0.44526437 -0.3112809 -1.7013916 0.04823333 -0.56919765 -0.60051036 -0.25210777 0.019469365
0.057570208 0.19910441 0.53848225 0.47884676 -0.5422059 -0.0723383 -0.06020252 0.15896109
-0.024411516 0.57837564 0.6110839 -2.9710584 0.017257746 0.052250296 -0.31981203 -0.017851103

fc3.bias f4 [4]
00000000: c5f4 223f 264d 373f 95a9 183f 5c9f 363f
0.6365474 0.71602094 0.5963376 0.71336913
