Snake_DQN/snake_dqn_ep2000.pth (torch, 75841 bytes, 6 tensors)

fc1.weight f4 [128, 8]
0	0xbee0fefe	-0.43944544
1	0x3dd3d66c	0.10343632
2	0xbf66470a	-0.89952147
3	0xbe850e51	-0.25987485
4	0x3d62392a	0.055230297
5	0x3f37e328	0.7183099
6	0xbe2e68ef	-0.17032216
7	0xbdfc897e	-0.12330912
8	0xc00d8a8d	-2.2115815
9	0x3ee19f61	0.4406691
10	0xbe6fa2ea	-0.2340199
11	0xbe9d154f	-0.3068032
12	0xbf85b466	-1.0445678
13	0x3f73176c	0.94957614
14	0xbf5327f5	-0.82482845
15	0x3e47f5a4	0.19527298
16	0xbd6156fa	-0.055014588
17	0x3edcde31	0.4313827
18	0x3e937ad4	0.28804648
19	0x3decb2d5	0.11557547
20	0xbee9ee21	-0.4568949
21	0x3eec11d2	0.46107346
22	0x3f8c925a	1.0982163
23	0x3ef710b4	0.4825493
24	0xc044ce95	-3.0751088
25	0xc04e4b8a	-3.2233605
26	0x3eec2eb2	0.46129376
27	0xbf2dbac3	-0.678631
28	0x3f93d942	1.1550677
29	0x3f18b511	0.59651285
30	0xbe0d3da5	-0.13793047
31	0xc0895ca6	-4.2925596
32	0x3e79c7cb	0.24392621
33	0xbfda5ade	-1.705898
34	0x3d9b4fe6	0.07583599
35	0xbe49590c	-0.19662875
36	0x3e8e15b7	0.27750942
37	0x3ecf9179	0.40540674
38	0x3e8f022a	0.2793134
39	0x3ea75810	0.32684374
40	0xbeb792a0	-0.35854053
41	0xbfae0b21	-1.3597146
42	0xbf4573f2	-0.77130044
43	0xbea99ceb	-0.3312753
44	0x400c87c7	2.1957872
45	0x3f149607	0.58041424
46	0xc04681da	-3.1016755
47	0x3f434c45	0.76288253
48	0xbecfddcb	-0.40598902
49	0x3df0f9f9	0.117664285
50	0xbdeab028	-0.114593804
51	0x3f24c9ef	0.64370626
52	0x3fa3c231	1.2793638
53	0x3fb726d4	1.4308724
54	0xc08949bc	-4.290251
55	0xbd1d65c4	-0.03842713
56	0xbd0bb9d0	-0.03411275
57	0x3d9164f1	0.07099331
58	0x3d991f5e	0.07476686
59	0x3f07518b	0.528588
60	0xbe0386ff	-0.12844466
61	0xbe9f37dc	-0.31097305
62	0xbf0312df	-0.5120067
63	0x4021d26c	2.5284681
64	0x3e1faeff	0.155941
65	0x3c2c0102	0.010498287
66	0x3e457be0	0.19285536
67	0x3e5ac8be	0.2136564
68	0x3f2253bb	0.6340901
69	0x3faedafa	1.3660576
70	0x3ed8a012	0.42309624
71	0x3f0e7505	0.5564731
72	0xbf0ecebb	-0.55784196
73	0xbddfdc5f	-0.10930704
74	0xbf1dd588	-0.6165395
75	0xbf1122a7	-0.566935
76	0xbfa87d54	-1.3163247
77	0x3e3e8ab2	0.18607596
78	0xbe8b1f56	-0.27172345
79	0xbd25f50c	-0.040516898
80	0x3db6cbea	0.08925612
81	0xc09bbf8d	-4.8671327
82	0x3ef37a37	0.4755418
83	0x3df8331d	0.12119124
84	0xbfca8911	-1.5823079
85	0xc012c3da	-2.2932038
86	0x3fe0bba7	1.7557267
87	0x3fb99196	1.4497554
88	0x3e2c4d79	0.16826428
89	0xbe56df73	-0.20983677
90	0x3effd435	0.4996659
91	0xbd1de886	-0.03855183
92	0xbf1a2869	-0.6021791
93	0xbfc15ac1	-1.5105821
94	0x3e373f72	0.17895296
95	0x3ff369ad	1.9016625
96	0xc090273d	-4.50479
97	0xbda82529	-0.08210213
98	0x3d5b7658	0.05357966
99	0xbd448bc6	-0.04798486
100	0x3fce4dcc	1.6117492
101	0xbf256c45	-0.6461833
102	0xc0004902	-2.004456
103	0xc08217d6	-4.0654097
104	0x3dd2abb5	0.10286657
105	0x3dcd19cc	0.10014686
106	0x3f8e2b9b	1.1107057
107	0x3df2158d	0.11820517
108	0x3e04ca95	0.12967904
109	0xbebdf813	-0.37103328
110	0x3eb92481	0.36160663
111	0xbe44332e	-0.19160149
112	0xbda3cbe2	-0.07997872
113	0xbf45e2c3	-0.77299136
114	0x3f42e6fe	0.76133716
115	0xbeb6ab0e	-0.3567738
116	0x3f109962	0.56484044
117	0x3ea314ab	0.31851706
118	0x3f93177f	1.1491545
119	0xc0496f16	-3.1474051
120	0x3e790f09	0.24322142
121	0x3e4cb441	0.19990636
122	0x3e811563	0.2521163
123	0x3ea25baa	0.3171056
124	0xbe545cbd	-0.20738502
125	0x3e032f63	0.12811045
126	0x3e9234c7	0.2855589
127	0x3e97a6ab	0.29619345
128	0x3ec88efa	0.39171582
129	0xbe5e9a77	-0.21738611
130	0x3f46941a	0.77569735
131	0x3ec09a27	0.3761761
132	0xbf49f72f	-0.788928
133	0xbf96d78c	-1.178453
134	0xbf27e353	-0.65581244
135	0x3f12c38f	0.5732965
136	0x3e1f3681	0.15548135
137	0xbf35bc83	-0.7099077
138	0x3e92beab	0.28661093
139	0xbef61117	-0.48059914
140	0x3f106920	0.5641041
141	0x3f809ca2	1.00478
142	0x3fa9c194	1.32622
143	0x3f907b4d	1.1287628
144	0xc09c614a	-4.886876
145	0x3eb60f2c	0.3555845
146	0x3e4aaabd	0.19791694
147	0x3f1f8435	0.62311107
148	0x3ec3bcf2	0.3823009
149	0xbfb2ada1	-1.3959237
150	0xc008f5ae	-2.139995
151	0xbfaacf79	-1.3344566
152	0xbe338fea	-0.17535368
153	0xbe39f627	-0.18160306
154	0xbe8ff95a	-0.28119928
155	0x3d6e98f4	0.058251336
156	0xbf24f5c6	-0.6443752
157	0xc02b2d54	-2.6746416
158	0x3f0e140e	0.5549935
159	0x3fbaf635	1.4606386
160	0xbef3c4df	-0.47611138
161	0xbe252e94	-0.1613105
162	0x3f25e885	0.6480792
163	0x39ca373e	0.000385696
164	0xbf417186	-0.7556385
165	0xbff86358	-1.9405317
166	0x3f3a9ee8	0.7289872
167	0xbf787abd	-0.97062284
168	0x3ea4d021	0.3219004
169	0xbf0e4695	-0.5557645
170	0xbe565bd0	-0.20933461
171	0x3c1c9416	0.009556791
172	0x3ee8bee3	0.45458135
173	0xbfa26fad	-1.2690331
174	0x3ea97319	0.33095625
175	0xbd184d42	-0.037183054
176	0xbebeadf3	-0.37242088
177	0x3ce14c62	0.027502242
178	0xbf731c53	-0.94965094
179	0x3e3c119c	0.18366092
180	0x3f302eeb	0.6882159
181	0x3f66c762	0.90147984
182	0xbf964381	-1.173935
183	0x3e48b9e0	0.19602156
184	0xc009c1bc	-2.1524496
185	0xbca3ca4c	-0.019993924
186	0x3e7b0980	0.24515343
187	0x3e751675	0.23934348
188	0x3f39e25f	0.7261104
189	0xbf41af23	-0.7565786
190	0x3f3c2f58	0.7350974
191	0x3fcd79e2	1.6052821
192	0xbc88f598	-0.01671867
193	0xbe98c73c	-0.29839504
194	0xbf5ee80e	-0.8707284
195	0xbf1b5179	-0.6067119
196	0x3fefee0b	1.874452
197	0xbfbea665	-1.489453
198	0xbf955547	-1.166665
199	0xbeb6de81	-0.35716632
200	0xbfc0bc1f	-1.505741
201	0xbee539a6	-0.44770545
202	0x3d6d4a73	0.05793233
203	0x3df80494	0.12110248
204	0xbdddf7a5	-0.1083825
205	0x3f0a86e3	0.5411207
206	0xbf0cb0c9	-0.5495725
207	0x400ea2e7	2.2286928
208	0x3c3b66f8	0.011438124
209	0xbdc2b923	-0.09507968
210	0x3fa78c33	1.308966
211	0x3d77a59e	0.06046068
212	0xbeb2f05f	-0.34949014
213	0x3fd7a1c6	1.6846244
214	0xbd40673b	-0.04697345
215	0x3dde3f85	0.10851959
216	0xbecd7a11	-0.40132192
217	0xbe2d2b30	-0.16911006
218	0x3cfe5718	0.031047389
219	0xbeda0757	-0.42583725
220	0x4002b558	2.0423183
221	0x3fff7335	1.9957033
222	0xbffcf94f	-1.9763583
223	0x3ff1d414	1.8892846
224	0x3ce358ac	0.027752243
225	0xbf4265a9	-0.7593637
226	0x3de9718d	0.11398611
227	0xbe84680d	-0.25860634
228	0xbf0d3730	-0.55162334
229	0x3f532210	0.8247385
230	0x3e5e6808	0.21719372
231	0x402676e2	2.601006
232	0xbe69ed15	-0.22844346
233	0x3d34c2b1	0.044130985
234	0xbdeeed34	-0.11666337
235	0x3e10d423	0.14143424
236	0x3f0ba8fe	0.54554737
237	0x3e08b7cb	0.13351361
238	0xbc3a81fc	-0.01138353
239	0x3e8e687a	0.27814084
240	0x3d8ccaae	0.068745956
241	0xbd3ea40a	-0.04654316
242	0xbe9b79e6	-0.3036644
243	0x3e09d957	0.13461815
244	0xc04dfc3c	-3.2185202
245	0x3f952836	1.1652896
246	0x3c70842c	0.01467995
247	0x3ea0fecf	0.31444404
248	0xbfacc643	-1.3498005
249	0xbf17028b	-0.58988255
250	0x3eb0996c	0.34492052
251	0xbedd504c	-0.43225324
252	0xbecffe3a	-0.40623647
253	0x3fca08b1	1.5783902
254	0x3ed43d1a	0.41452867
255	0xc035dcd1	-2.8416026

fc1.bias f4 [128]
0	0xbe6d15e5	-0.23152883
1	0x3fa2660a	1.268739
2	0xbfff9b47	-1.9969262
3	0x3e80b552	0.25138336
4	0x3fdeb193	1.7397941
5	0xbf640ac4	-0.8907893
6	0x3f09a8b4	0.53773046
7	0xbfdada0b	-1.7097791
8	0xc01fb470	-2.495388
9	0x3fbee767	1.4914368
10	0x3f867d75	1.0507036
11	0x3e341291	0.17585208
12	0x3f7307a8	0.9493356
13	0xbf57f4ea	-0.84358084
14	0xbf987e5c	-1.1913562
15	0x3ffbf206	1.9683235
16	0xc004dd76	-2.076017
17	0xbec60a8d	-0.38679925
18	0x3e887d78	0.26658225
19	0x3fe50104	1.7890935
20	0x3f8e7a31	1.113104
21	0x3f817fbf	1.011711
22	0x3ed2c9f6	0.4116971
23	0x3f955760	1.166729
24	0xbf9e6db0	-1.2377224
25	0x3f01eb71	0.5074988
26	0xbf50b0a6	-0.81519544
27	0x3e7c7fb3	0.24658088
28	0x3ebca30b	0.36843142
29	0x3fe3117a	1.7739708
30	0x3d8a3f78	0.06750387
31	0x3fa680c9	1.3008052
32	0x3fec2770	1.8449535
33	0xbdbbc97d	-0.0916929
34	0xc05d8022	-3.4609456
35	0x3fe42f57	1.7826947
36	0xbf7dea3b	-0.9918553
37	0xbe2a936c	-0.166578
38	0xbf344318	-0.70414877
39	0xbffc9eb9	-1.9735938
40	0x3daaf3c0	0.08347273
41	0x3fa557f2	1.2917464
42	0x3f2f3094	0.684335
43	0x3fa50dc7	1.289483
44	0xbf63f503	-0.89045733
45	0xbe38a0a7	-0.18030034
46	0x3f73a5f3	0.95175093
47	0xbdcb9a3e	-0.09941529
48	0xbf7bb75c	-0.9832666
49	0x3ed7f412	0.42178398
50	0xbfdb7d0d	-1.7147537
51	0xbfecf2ff	-1.8511657
52	0x3f7ff053	0.9997608
53	0xbf0cf5a1	-0.550623
54	0xbfce35c9	-1.6110164
55	0xbfc0b5ad	-1.5055443
56	0x3f10ee5d	0.56613714
57	0xc04cd193	-3.2002914
58	0x3dbae5b0	0.09125841
59	0xbf2677d0	-0.6502657
60	0xbeb8c208	-0.36085534
61	0xbf941d2e	-1.1571405
62	0xbf3f0d32	-0.7462951
63	0xbdb30f9c	-0.087432116
64	0xbfa40eec	-1.2817054
65	0x3fca4bf1	1.5804425
66	0x3f160868	0.58606577
67	0xbde3a221	-0.11114908
68	0xbf7a1144	-0.97682595
69	0x3f82c4c6	1.02163
70	0x3fcb783a	1.5896065
71	0xbf58408b	-0.84473485
72	0x3f9875d3	1.1910957
73	0xbf70c8fa	-0.94056666
74	0xbeae1c3c	-0.34005916
75	0x3eec18bf	0.4611263
76	0xc008c337	-2.136915
77	0xc03a869c	-2.914466
78	0x3fe0071e	1.7502172
79	0x3ecf9a97	0.4054763
80	0xbe190068	-0.14941561
81	0xc004584e	-2.0678897
82	0xbfaf7960	-1.3708916
83	0x3eed4fba	0.4634989
84	0xbf8714cc	-1.0553222
85	0xbf4cb0a8	-0.79957056
86	0xbdc05490	-0.09391129
87	0xbfad60a6	-1.354512
88	0x3fbc0d70	1.4691601
89	0xbe5ad7c7	-0.21371375
90	0xbe26a261	-0.1627288
91	0x3edbb4f4	0.42911494
92	0xbe6a5a45	-0.22885998
93	0x3f0bb240	0.5456886
94	0x3f517d5d	0.81831914
95	0xbf70dc66	-0.940863
96	0x3f8e472d	1.1115471
97	0xbe31ff2d	-0.17382498
98	0xbf8d8d24	-1.1058698
99	0x3f369553	0.713216
100	0x3f0b37dd	0.54382116
101	0xbf99bf19	-1.2011443
102	0xc082a50a	-4.0826464
103	0x3ff524de	1.9151876
104	0xbfbb2724	-1.462132
105	0x3bcd8ed0	0.006273128
106	0xc00cf820	-2.2026443
107	0x3ebd3ec8	0.3696196
108	0x3fcb1830	1.5866756
109	0xbf78badd	-0.9716013
110	0xbfcc1fe6	-1.5947235
111	0x3fa0f2c2	1.2574084
112	0xbf35bd11	-0.7099162
113	0x3f2c02f5	0.6719201
114	0xbfc19da8	-1.5126238
115	0xbf34afb2	-0.7058059
116	0xbd30b3ca	-0.04314021
117	0x3f583e4a	0.84470046
118	0x3f2d3dc3	0.67672366
119	0xbfa6c2b0	-1.3028164
120	0xbff5cf19	-1.9203826
121	0xc007fb32	-2.1247067
122	0xbf5ace59	-0.8547111
123	0xbf0dbf4e	-0.5537003
124	0xbfe85fb9	-1.8154212
125	0xbe04a99c	-0.12955326
126	0xbfc55df7	-1.5419301
127	0xc042cc8f	-3.0437353

fc2.weight f4 [128, 128]
0	0xbeac9af5	-0.33711973
1	0x3f3afeb3	0.7304489
2	0x3ed33a27	0.41255304
3	0xbfa47667	-1.2848634
4	0x3e8d4fa7	0.27599832
5	0x3ec79177	0.38978168
6	0xbf0ac187	-0.5420155
7	0xbf034934	-0.51283574
8	0x3f97117d	1.1802212
9	0xbe730624	-0.23732811
10	0xbf418ce7	-0.75605625
11	0xbe27de78	-0.16393459
12	0xbf74498b	-0.9542472
13	0x3e0115ab	0.12605922
14	0xbf3c4002	-0.7353517
15	0x3e255c8d	0.16148587
16	0xbf16fede	-0.58982646
17	0xbfbcb7ea	-1.4743626
18	0xbf71c87c	-0.9444654
19	0xbf2174f2	-0.6306907
20	0x3f1977f0	0.59948635
21	0xbd4d14b2	-0.050068565
22	0xbe6f6884	-0.23379713
23	0x3f0e874d	0.556752
24	0x3fd7f5a1	1.6871835
25	0x3fa5db88	1.2957621
26	0xbde165e4	-0.11005762
27	0xbeb95402	-0.36196905
28	0x3dd26ac1	0.10274268
29	0xbb428ca9	-0.002968589
30	0xbd230273	-0.039797258
31	0xbdf1dcd1	-0.118096955
32	0xbf5d0872	-0.8634101
33	0xbf77c898	-0.96790457
34	0xbfc43a50	-1.5330296
35	0xbfa559d4	-1.2918038
36	0x3f79c809	0.97570854
37	0xbfd004ee	-1.6251504
38	0x3985dc58	0.00025531906
39	0xbe93fe19	-0.289048
40	0x3f20573a	0.626331
41	0x3e34f0af	0.17669939
42	0xbfadf181	-1.3589326
43	0xbedebe63	-0.4350463
44	0xbdff2179	-0.12457556
45	0x40077ff4	2.1171846
46	0xbfcae7bd	-1.5851971
47	0x3f437109	0.7634435
48	0x3f503700	0.81333923
49	0x3f8fc588	1.1232157
50	0x3f5ccb0b	0.8624732
51	0x3f787d3f	0.9706611
52	0xbddcfa6c	-0.10789952
53	0xbf2fb4cf	-0.68635267
54	0xbe2dcf92	-0.16973713
55	0x3edcc974	0.43122447
56	0x3cdb5e7f	0.026778458
57	0xbfdb673b	-1.7140878
58	0xbebcd0a3	-0.36877927
59	0xbf467082	-0.77515423
60	0xbb3cf81b	-0.0028834406
61	0xbf3bd171	-0.7336646
62	0xbda58b25	-0.0808318
63	0x3ef4fafc	0.47847736
64	0x3f473ba1	0.7782536
65	0xbeb2c09f	-0.34912583
66	0x3dada387	0.08478456
67	0x3e36232f	0.17786859
68	0x3ea15c77	0.31515858
69	0x3e6d4051	0.23169066
70	0xbda9e832	-0.08296241
71	0x3f11add5	0.5690587
72	0x3e583d61	0.21117164
73	0xbfa4b3da	-1.2867386
74	0xbe2d1252	-0.1690152
75	0x3da90f2c	0.08254847
76	0x3fb70ff9	1.430175
77	0x3d278e0f	0.040906962
78	0x3d4d30a7	0.050095227
79	0xbfc8e81f	-1.5695838
80	0x3eebc20e	0.4604649
81	0xc022369b	-2.5345829
82	0x3db8ac51	0.09017242
83	0xbdf920ff	-0.12164497
84	0xbe36880a	-0.17825332
85	0xbdc67141	-0.0968957
86	0xbee5e0d8	-0.44898105
87	0x3f0d2590	0.5513544
88	0xbe05eb07	-0.13077937
89	0xbf8df6f4	-1.1090989
90	0xbdb83674	-0.08994761
91	0xbf23668f	-0.63828367
92	0xbe5f1798	-0.21786344
93	0xbdc06fbf	-0.09396314
94	0x3d175a1d	0.036951173
95	0xbe87daf4	-0.26534235
96	0xbe0fb980	-0.14035606
97	0xbd9ed537	-0.07755511
98	0xbd5d43c9	-0.054019723
99	0xbf98ce49	-1.1937953
100	0xbee7e289	-0.4529002
101	0xbe3ede6c	-0.18639535
102	0x3f9fc2ae	1.2481287
103	0xbfdac854	-1.7092385
104	0xbf2fd1e5	-0.6867965
105	0x3f3b9b4a	0.7328383
106	0x3f4d544d	0.8020676
107	0xbe61ee76	-0.22063622
108	0xbf29d2cc	-0.66337276
109	0xbe53e161	-0.20691444
110	0x3db41c29	0.087944336
111	0x3ee3085d	0.44342318
112	0x3f084b88	0.5324025
113	0xbf830ece	-1.0238893
114	0xbe0ebdb4	-0.13939553
115	0xbd6bf689	-0.05760816
116	0xbda6d282	-0.0814562
117	0xbffe8190	-1.9883289
118	0xbfdc3a64	-1.720532
119	0x3caa62db	0.020799091
120	0x3fbed40c	1.4908462
121	0xbe2bff5a	-0.16796628
122	0x3d1e96d8	0.038718075
123	0xbf0d62d2	-0.5522891
124	0xbf2abde9	-0.6669603
125	0x3ea3beaf	0.31981418
126	0x3ef9a671	0.48759797
127	0xbed53bc2	-0.41647154
128	0xbf254ab0	-0.6456709
129	0x3f781add	0.9691599
130	0xbf3e41c1	-0.7431908
131	0x3d266be0	0.04063022
132	0xc0202046	-2.5019698
133	0x3f8d56c5	1.1042105
134	0xbe8f304e	-0.2796654
135	0xc02087dc	-2.5082922
136	0xbf034f37	-0.5129275
137	0xbf19d336	-0.6008791
138	0xbf1249b3	-0.57143706
139	0xbcb1cbe5	-0.02170367
140	0xbf8e432c	-1.1114249
141	0xbd148c68	-0.036266714
142	0x3da5ef1d	0.08102248
143	0xbf3e0b6c	-0.7423618
144	0xbf8acbe7	-1.0843476
145	0xbe116af6	-0.14200959
146	0x3f2dcaa0	0.67887306
147	0xbf3d55ba	-0.73958933
148	0xbece5149	-0.4029639
149	0x3ef17ad3	0.4716402
150	0x3bc2dcd7	0.0059467363
151	0x3fb0fd07	1.3827218
152	0x3ec6a653	0.3879877
153	0xbd9e516a	-0.07730372
154	0x3ef72622	0.4827128
155	0x3ed40833	0.41412506
156	0xbfcdcb6a	-1.6077702
157	0x3e50b24c	0.20380515
158	0x3c5e97bb	0.01358598
159	0xbfa90a60	-1.3206291
160	0x3f0dd262	0.55399144
161	0xbe21924e	-0.15778467
162	0xbfb4710b	-1.4096998
163	0x3f0c9119	0.549089
164	0x3d8f6ca3	0.07003143
165	0xbf5a0765	-0.85167533
166	0xbe663fae	-0.2248523
167	0x3f19d3e6	0.60088956
168	0xbf8a8440	-1.082161
169	0xbecc5278	-0.3990667
170	0xbe1089cf	-0.1411507
171	0x3f0a6c20	0.54071236
172	0xbe0aec8d	-0.135668
173	0xbebd7455	-0.37002817
174	0x3e850059	0.25976828
175	0x3d9011b0	0.070346236
176	0xbd553c62	-0.05205954
177	0xbc53fd45	-0.012938802
178	0xc02cf39d	-2.702369
179	0xbfebfbbd	-1.84362
180	0xbee3c5ef	-0.4448695
181	0x3fc5288f	1.5403003
182	0x3ebce12e	0.36890548
183	0x3e8f4f7c	0.2799033
184	0xc04f4785	-3.2387402
185	0xbf491fee	-0.78564346
186	0xbfa5f170	-1.2964306
187	0xbde6017a	-0.112307504
188	0x3d904de2	0.07046105
189	0x3ea4697b	0.32111725
190	0x3d5fd29d	0.054644216
191	0xbf80e49e	-1.0069768
192	0x3e903c63	0.2817107
193	0x3e4bd8bf	0.19906901
194	0xbdfb59c2	-0.12272979
195	0xbe61c9c9	-0.22049631
196	0x3f86cc62	1.0531123
197	0xbf9535a3	-1.1656994
198	0xbe135cdc	-0.14390892
199	0xbd95a4c0	-0.07306814
200	0xbfe29076	-1.7700336
201	0x3d5fb5c4	0.054616705
202	0x3f2ac547	0.6670727
203	0xbfa656e4	-1.2995267
204	0xbff651fd	-1.9243771
205	0xbe810504	-0.2519914
206	0xbe921b95	-0.28536668
207	0x3fd8fa11	1.6951314
208	0x3dd38115	0.10327355
209	0xbf5b4652	-0.85654175
210	0xbedd2b95	-0.43197313
211	0xbf645669	-0.8919435
212	0x3edf50bb	0.4361628
213	0x3f8d931f	1.1060523
214	0x3d27c6a1	0.04096091
215	0x3e837784	0.2567712
216	0xbefa3b19	-0.48873213
217	0xbeb2afe8	-0.3489983
218	0xbc365bf1	-0.011130319
219	0xbe7623bd	-0.2403707
220	0x3f525b31	0.821704
221	0x3d944b28	0.072408974
222	0x3f1941ea	0.598662
223	0x3d341497	0.04396495
224	0x3e2396e5	0.1597553
225	0xbc96ba3e	-0.018399354
226	0x3e428d32	0.18999174
227	0xbf4b0076	-0.7929758
228	0xbf2d609e	-0.6772555
229	0xbf540aba	-0.8282887
230	0xbf5c3b1e	-0.86027706
231	0xbf05e41a	-0.5230118
232	0xbdef6a76	-0.11690228
233	0xbf107a69	-0.56436783
234	0x3eb0bd97	0.34519646
235	0x3f1a667c	0.6031263
236	0x3ec42e12	0.383164
237	0x3e59478a	0.21218696
238	0xbe89a397	-0.26882622
239	0xbe4f4181	-0.20239832
240	0xbff02ac7	-1.8763055
241	0x3dacca3b	0.0843701
242	0x3de9886c	0.114029735
243	0x3e001c3c	0.1251077
244	0x3e3eca80	0.18631935
245	0x3ceb07f9	0.028690325
246	0x3fbdf0f0	1.4839153
247	0x3ea6585b	0.32489285
248	0xbf302d83	-0.68819445
249	0x3fb937d5	1.4470164
250	0x3e8d63d7	0.27615234
251	0x3f1c622b	0.6108729
252	0xc01ab860	-2.4175034
253	0xbf763881	-0.9617997
254	0xbea3074b	-0.31841502
255	0xbc02090e	-0.007936729

fc2.bias f4 [128]
0	0xbf297f14	-0.6620953
1	0x3d644908	0.05573371
2	0xbbafee86	-0.0053690104
3	0xbe080f7e	-0.1328716
4	0xbe0dc0d1	-0.13843085
5	0xbdc9d900	-0.098558426
6	0xbf0b3536	-0.5437807
7	0xbe7f7a52	-0.24949005
8	0xbf351f4d	-0.70750886
9	0x3e31f745	0.17379482
10	0x3fa831d8	1.3140211
11	0xbdd9f6d2	-0.1064278
12	0xbe997d38	-0.29978347
13	0xbe050875	-0.12991507
14	0x3cb517f1	0.022106143
15	0x3f888d86	1.066819
16	0xbfc56f23	-1.5424541
17	0xbed0a127	-0.4074795
18	0xbee6303d	-0.44958678
19	0xbf0d5c2a	-0.55218756
20	0xbd8618f2	-0.06547727
21	0x3ea48c5f	0.32138345
22	0xbcd554fb	-0.026041498
23	0x3c6b9f92	0.014381306
24	0x3fcb78f2	1.5896285
25	0x3fbe2c86	1.4857337
26	0x3f938ed4	1.1527963
27	0x3e079984	0.13242155
28	0x3ebed335	0.37270513
29	0xbf2a2c59	-0.6647392
30	0x3ef2e105	0.474373
31	0xbd4568ba	-0.04819558
32	0x3f05f6c2	0.5232965
33	0xbf05384a	-0.52039015
34	0xbda42417	-0.08014696
35	0xbdd1a706	-0.10236935
36	0xbe3416c8	-0.17586815
37	0xbd2bb9bd	-0.04192518
38	0xbd04f922	-0.032464154
39	0x3efcdff9	0.49389628
40	0x3fb9c72e	1.451391
41	0xbd65e97f	-0.056130882
42	0x3fce9130	1.6138058
43	0xbd8abd85	-0.06774429
44	0x3eaa2746	0.33233088
45	0xbe012938	-0.1261338
46	0x3ee96975	0.4558827
47	0x3ecc744d	0.3993248
48	0xbd9e82d6	-0.07739799
49	0x3f0f7a22	0.56045735
50	0xbe081b9f	-0.13291787
51	0x3f7a9076	0.9787668
52	0xbed77c28	-0.4208691
53	0xbe1858bb	-0.14877598
54	0xbc7e9a11	-0.015539662
55	0xbee076d7	-0.43840668
56	0xbe699afb	-0.22813027
57	0x3fa23091	1.2671071
58	0x3dbeff50	0.09326041
59	0x3cdd8655	0.027041594
60	0x3ec6cdd3	0.38828906
61	0xbeaa7d91	-0.33298925
62	0x3ecf9398	0.40542293
63	0x3ea5303a	0.32263356
64	0x3e126dbb	0.14299671
65	0xbea18d25	-0.31552997
66	0x3fdb9c22	1.7157023
67	0xbe52c22b	-0.20581882
68	0x3f1ca0d0	0.6118288
69	0xbeaedac8	-0.34151292
70	0x3fa7db6c	1.3113837
71	0xbd57e3e4	-0.052707568
72	0xbdea5ed8	-0.11443871
73	0x3cc600c4	0.024170287
74	0xbdd35b59	-0.103201576
75	0xbe524ee4	-0.20537907
76	0xbe6c0f2c	-0.23052663
77	0xbf5f0b75	-0.8712686
78	0xbeb97c99	-0.36227873
79	0x3f86a6a0	1.05196
80	0x3c2a940c	0.010411274
81	0x3d3b771e	0.045767896
82	0xbda4ec2f	-0.08052861
83	0xbf2098f5	-0.62733394
84	0x3f873d05	1.0565497
85	0xbea4e3ff	-0.32205197
86	0xbe6902af	-0.2275493
87	0x3d9dc28a	0.07703121
88	0xbf270045	-0.65234786
89	0xbcef02c2	-0.02917612
90	0xbf278821	-0.6544209
91	0xba6e9338	-0.0009100917
92	0x3f463b79	0.774345
93	0xbca2f91b	-0.019894173
94	0x3e96cf32	0.29454952
95	0xbe5a22cb	-0.21302335
96	0xbc258164	-0.01010165
97	0x3f58a79f	0.8463077
98	0xbd8d3f9a	-0.06896897
99	0xbf0adf39	-0.5424686
100	0xbf1d1b4e	-0.6136979
101	0x3f7300e5	0.9492324
102	0xbd3af60b	-0.0456448
103	0x3d40c1b9	0.04705975
104	0xbed245f5	-0.41068998
105	0xbd27dd86	-0.040982746
106	0x3ef386fe	0.47563928
107	0x3eb08dfe	0.3448333
108	0x3f25e9a3	0.64809626
109	0xbce0408f	-0.027374534
110	0xbec0a1cc	-0.3762344
111	0xbdda1cc0	-0.10650015
112	0xbeff77ff	-0.49896237
113	0xbd2adabf	-0.04171252
114	0xbda59b57	-0.08086269
115	0x3f71170d	0.941758
116	0x3e731991	0.23740222
117	0xbec238be	-0.37933916
118	0xbda0a474	-0.07843867
119	0x3fb1b183	1.3882297
120	0xbec1f3ce	-0.3788132
121	0xbdb90d86	-0.090357825
122	0xbe5a0000	-0.21289062
123	0xbe6d89ef	-0.23197149
124	0x3c103f88	0.0088042095
125	0xbe9f0cdf	-0.31064507
126	0xbef3ace0	-0.4759283
127	0x3eac333b	0.33632836

fc3.weight f4 [4, 128]
0	0xbf24fa12	-0.64444077
1	0xbf822c8a	-1.0169842
2	0x3ccc42c0	0.024934173
3	0x3f508f57	0.8146872
4	0x3c395ea4	0.011314068
5	0x3d859e77	0.065243654
6	0xbd403942	-0.046929605
7	0xc06f87bb	-3.7426593
8	0xbf8360c9	-1.0263911
9	0xbce399cc	-0.027783297
10	0x3f28ecc5	0.6598628
11	0x3f324e57	0.6965079
12	0x3eccff98	0.40038753
13	0xbd437cc6	-0.047726415
14	0xbfd9ed45	-1.7025534
15	0x3e5ed57b	0.21761124
16	0xbf547298	-0.82987356
17	0xbfc2d97a	-1.5222619
18	0xc0747d92	-3.8201642
19	0xbf5dc475	-0.86627895
20	0x3da5ab1c	0.08089277
21	0xbfbb2059	-1.4619247
22	0x3d2eca2f	0.042673286
23	0x3f3590f6	0.7092432
24	0x3f4edea4	0.8080847
25	0x3f0be9a3	0.54653376
26	0xbf1f0550	-0.6211748
27	0x3fe65ced	1.7997109
28	0x3f6f131b	0.9338853
29	0xbf8a3618	-1.0797758
30	0x3f5e3583	0.868004
31	0xbf13f5d0	-0.57796955
32	0xbfd09b24	-1.6297345
33	0x3e70a558	0.23500574
34	0xc0530302	-3.2970586
35	0x3d54e7d6	0.05197891
36	0xbf99e1ec	-1.2022071
37	0x3d4021eb	0.046907347
38	0x3f0a0725	0.5391715
39	0xc0442f55	-3.065389
40	0xbe334b5e	-0.17509219
41	0xbcb19cd6	-0.02168123
42	0x3f3bf40d	0.73419267
43	0xc00dc0df	-2.214897
44	0x3eafd512	0.34342247
45	0xc01a8c67	-2.4148195
46	0x3ee8614f	0.4538674
47	0x3f6ed447	0.9329266
48	0x3c82a810	0.01594928
49	0xbf545600	-0.82943726
50	0xbeed4923	-0.4634486
51	0x3f33a4c8	0.7017331
52	0x3f93cc97	1.1546811
53	0x3f3eeaf8	0.74577284
54	0xbf7f47c6	-0.9971889
55	0xc005ba38	-2.089491
56	0xbfb5d615	-1.4205958
57	0xbf04194f	-0.5160112
58	0xc00c27e0	-2.1899338
59	0xbfb44230	-1.4082699
60	0xbee2c518	-0.44290996
61	0xbfc173eb	-1.51135
62	0xc06982b4	-3.6486025
63	0x3fbe7319	1.4878875
64	0x4030c39e	2.7619395
65	0x3f6c1aaa	0.92228186
66	0x3f558e27	0.8342003
67	0x3fc957d8	1.5729933
68	0x3fcc54f7	1.5963429
69	0x3fd63c60	1.6737175
70	0x3fd2d9d1	1.6472722
71	0xbcc8b711	-0.024501355
72	0x3bf29d41	0.007404
73	0x3d120cbc	0.035656676
74	0xb95ce3bc	-0.00021065673
75	0x3c4646bb	0.012101824
76	0xbfad1880	-1.3523102
77	0xbfa8b4d2	-1.3180182
78	0xbf3c2dd2	-0.73507416
79	0x3d410dc5	0.047132272
80	0x3d8793b9	0.06619973
81	0xbb98617e	-0.004650294
82	0x3cf5a2c7	0.029984845
83	0x3fb0d2ba	1.3814309
84	0x3f09dfc3	0.5385706
85	0xbecf3dbb	-0.40476784
86	0xbfe361bc	-1.7764201
87	0x3e210701	0.15725328
88	0xc0080e5f	-2.1258771
89	0xbf282017	-0.65673965
90	0x3d981484	0.07425788
91	0x3bfd14f1	0.0077234437
92	0x3e42080e	0.18948385
93	0x3ffd5393	1.979113
94	0x3eff25cd	0.49833527
95	0xbed83372	-0.4222675
96	0x3d5be588	0.053685695
97	0x3ed3c400	0.41360474
98	0xbd9240e5	-0.07141284
99	0xc02f53a7	-2.7394807
100	0xbeef08ab	-0.466863
101	0x3eb8cb1b	0.36092457
102	0xbcd79a24	-0.026318617
103	0x3d938e47	0.072048716
104	0xc03616f4	-2.845151
105	0x3e4d27a7	0.20034657
106	0xbfef5a6c	-1.869947
107	0x3fcc5fb5	1.5966707
108	0x3e9c3de1	0.3051596
109	0xbc53f732	-0.012937354
110	0xc0783304	-3.8781137
111	0x3cea9d5d	0.02863949
112	0xc0657fc7	-3.585924
113	0x3d97e53b	0.07416769
114	0x3cd9fc6d	0.026609624
115	0xc00c1224	-2.1886072
116	0x3f73fcba	0.95307505
117	0x3f2ca07c	0.6743238
118	0x3d232951	0.039834324
119	0x3fb33866	1.4001586
120	0x3fa30509	1.2735912
121	0x3a911602	0.0011069181
122	0xc057e95b	-3.373618
123	0x3eed111e	0.46302122
124	0xbfbf7a17	-1.4959134
125	0xbfbea7d0	-1.4894962
126	0xc04e6711	-3.2250407
127	0x3fee6ddb	1.8627275
128	0xbfb36699	-1.4015685
129	0x3f860046	1.0468833
130	0xbccb04ba	-0.024782527
131	0xc0892ad1	-4.2864766
132	0xbc92be74	-0.01791308
133	0xbd48ded5	-0.049040634
134	0xbfb7b444	-1.4351888
135	0x3ee2f067	0.44324037
136	0x3eec948b	0.4620708
137	0xbea64df7	-0.32481357
138	0x3edd4825	0.43219104
139	0xc0483e97	-3.1288202
140	0x3e0481d5	0.12940152
141	0x3ca1234f	0.019670157
142	0xbf875ba1	-1.0574838
143	0xbf3b7ca8	-0.73237085
144	0xc080b9f9	-4.0227017
145	0x40063be7	2.0974061
146	0x3fba92ed	1.4576088
147	0xbe00b7f9	-0.1257018
148	0x3b7ddcf8	0.0038736444
149	0x3f8aaf78	1.0834799
150	0x3d3c7cce	0.04601746
151	0x3fba21bc	1.4541545
152	0x3f3197d2	0.69372284
153	0x3f02043c	0.5078771
154	0xbf57d84f	-0.84314436
155	0x3fa75cd6	1.3075206
156	0x4008fb06	2.1403213
157	0xbf388f96	-0.72094095
158	0x3f815075	1.0102679
159	0x3f3ff2f6	0.74980104
160	0x3f5dd393	0.8665096
161	0xc00e6619	-2.2249815
162	0xbef72018	-0.48266673
163	0x3d6cba66	0.05779495
164	0xbeedf4d8	-0.46475863
165	0xbd1c9f91	-0.038238112
166	0x3eaa88ef	0.33307597
167	0x3f70b75d	0.9402979
168	0x3f23fdab	0.6405894
169	0x3cdcfc87	0.026975883
170	0x3f440969	0.7657686
171	0xc059c681	-3.4027407
172	0xbd84d8de	-0.06486677
173	0x3daccf9e	0.08438037
174	0xbdccd337	-0.100012235
175	0x3ebbb8ca	0.3666442
176	0x3d4a0943	0.04932524
177	0x3f74670e	0.9546975
178	0xbea6c081	-0.32568744
179	0x3fbbf80b	1.4685072
180	0xc06d91eb	-3.7120311
181	0xc072f7b1	-3.796368
182	0xbca0e6ac	-0.019641243
183	0xbf724f87	-0.946526
184	0x3e8dd14b	0.2769874
185	0xbed351e8	-0.41273427
186	0xc019325e	-2.3936992
187	0xbfc80166	-1.5625427
188	0x3e80ee32	0.2518173
189	0xbf266ea4	-0.65012574
190	0xbee72648	-0.45146394
191	0xc0bb07a2	-5.8446817
192	0x3f06c283	0.5264055
193	0xc0817a6f	-4.0461955
194	0x3f66ec09	0.9020391
195	0xbf8a064a	-1.0783169
196	0xc069691e	-3.6470408
197	0xbfa60717	-1.2970914
198	0x3f080a09	0.5314031
199	0x39d29fb8	0.0004017332
200	0x3eb4a4bd	0.35281935
201	0x3c870eaf	0.016486494
202	0xbcdca7da	-0.026935507
203	0x3d168c0b	0.03675465
204	0x3f587d7f	0.8456649
205	0xbfc49f6b	-1.536115
206	0xbe8a0153	-0.26954135
207	0x3e642ea5	0.22283418
208	0xbc407148	-0.011745758
209	0xbb6e2539	-0.0036338104
210	0xbcb4d1d6	-0.022072714
211	0x3f2df9ac	0.67959094
212	0x3f4cefe7	0.8005356
213	0xc02ccf62	-2.7001576
214	0xc053c868	-3.3091068
215	0xbf1bbca4	-0.6083472
216	0xbff1a69d	-1.8878971
217	0xbe1975fa	-0.1498641
218	0xbee31ed0	-0.44359446
219	0xbcc0a064	-0.02351398
220	0x3f4fde4f	0.8119859
221	0xc00c2dee	-2.1903033
222	0xbf680f51	-0.9064837
223	0xc0848de2	-4.1423197
224	0x3a5d51c0	0.00084426627
225	0x3f848901	1.035431
226	0x3d48481b	0.04889689
227	0x3d9b61c8	0.0758701
228	0xc00dc8ac	-2.215373
229	0xbf77df67	-0.9682526
230	0xbd125a51	-0.035730664
231	0x3ba112d6	0.0049155755
232	0xbf699433	-0.9124176
233	0x3f32e664	0.698828
234	0x3e120f1e	0.14263579
235	0xc000f716	-2.015081
236	0x3f4db42c	0.80353045
237	0x3ccfe183	0.025376087
238	0x3fe458a5	1.7839552
239	0x3ba309eb	0.0049755475
240	0xbf55e81a	-0.83557284
241	0x3d562af4	0.052287057
242	0xbbbcca3b	-0.0057614124
243	0x3f900304	1.125092
244	0xc041f791	-3.0307353
245	0x3f864668	1.0490236
246	0xbc524b29	-0.012835302
247	0x3faba739	1.3410407
248	0xbfa16d88	-1.2611551
249	0xbc7b3547	-0.0153325265
250	0xbfdaa52b	-1.7081655
251	0x3e5e2e24	0.21697289
252	0xbfe9f31f	-1.827732
253	0xbf5796f8	-0.84214735
254	0xbf31424d	-0.6924179
255	0xbe1ed5a7	-0.1551119

fc3.bias f4 [4]
0	0x3f8f475d	1.1193653
1	0x3f962792	1.1730826
2	0x3f8c97fc	1.0983882
3	0x3f6b0af4	0.9181359
