Snake_DQN/snake_dqn_ep1500.pth (torch, 75841 bytes, 6 tensors)

fc1.weight f4 [128, 8]
00000000: 627b 09bf ef1c ad3e dd8f 1dbf 146e 82bb
00000010: 0cce d23d 6786 433f b866 e83c 6a9b 03bf
00000020: 5dde 08c0 8a9b b73e 7731 b33d 9fd5 57be
00000030: f848 48bf 4913 203f 0243 b5bf 0e32 7ebe
00000040: 2cc3 ddbd 6475 c13e 617f 553e d776 8a3c
00000050: 569f 9abe 6ee3 1e3f 567c 923f 1e94 923e
00000060: b3f8 35c0 c2f7 2cc0 e121 323f aa64 1dbe
00000070: 902b 863f c8d7 8b3d 8a34 6cbe c537 77c0
00000080: a2ca d23e 6081 f2bf 198d ad3e dda5 533d
00000090: b4ed a33e 5035 2a3f 088b ad3e 95c6 223e
000000a0: 4f6a f3be c92d 18bf 5c17 44bf fed9 4ebe
000000b0: 186c 0940 3138 6a3f 2b61 12c0 c3dd 983f
000000c0: 035c c8be 5a43 523c cfc9 a93d 9100 0c3f
000000d0: a1db 653f ab75 883f 8b9c 94c0 081f ea3d
000000e0: f9e1 353c 703e a93d 6c25 40bc e5d1 103f
000000f0: 903a 443d a237 babe e7b4 15be 1954 0b40
00000100: 5cb5 433e 22fb d23c e769 9d3e e2fe 7c3e
00000110: 509c 173f 738b 8c3f e728 073f 7a5c 193f
00000120: 8a8e 0cbf 1a33 5e3c b35e d2be ce69 e3be
00000130: 1f18 96bf 7a15 6d3c 5afd 9fbe bf3f 79be
00000140: c3e7 7e3e 4e88 79c0 219b 823e a365 5fbd
00000150: 8082 90bf 394e c2bf 5bbc ce3f 3b63 883f
00000160: 1c06 293e 45bd 3bbe 94cb 253f eebe 3b3e
00000170: ef45 81be f884 dbbf 5b23 8e3e bfca b53f
00000180: d980 54c0 eec7 86be 4aaf 0d3e a1a5 07bf
00000190: d1de c83f 5669 0fbf 75a8 8abf 0d45 20c0
000001a0: 4edd f33d 19c2 ab3c 0dc3 873f 431e de3d
000001b0: 0ec9 aa3e 5b88 a4be fb76 da3e 2e75 75be
000001c0: 7dc4 84be 7d63 c9be 9b7f 583f 6ad3 d9bd
000001d0: a3c5 723f 5113 153f d8f8 123f 651e f5bf
000001e0: 13ae 503e 7237 1f3e 66d0 963e 77d5 cf3e
000001f0: 940b 68be e2ad ed3d ce4f 483e 3cfa 4e3e
00000200: e762 e93e b7f7 dcbd 46b8 2a3f d677 e83e
00000210: 44f2 b1bd 0745 dabf 08ce 89bf 4f63 9f3e
00000220: b8d2 0b3e 5b1c cbbe ecfc 913e 6610 12bf
00000230: 75f9 a23e 96b3 513f b5ea 5f3f e234 613f
00000240: 8cc8 85c0 65d0 213e 2c8d 963e 64ec fcbc
00000250: 0674 f93e 9ac2 b5bf 1f2f 04c0 c418 4cbf
00000260: 669d 84be f9c9 d0bc 51b5 7dbe 7645 833d
00000270: 586d b0be 5de3 0fc0 8d98 ee3e 1281 5d3f
00000280: 8894 e0be abeb 123e c559 433f 4682 2c3e
00000290: ebf9 1dbf ad55 3fbf cb5d 2b3f e0f4 10bf
000002a0: 3711 a53e 68bb e8be 6561 3ebe 3f6a 0a3d
000002b0: 2d68 f03e 4728 61bf fbe5 ef3e ff3c 923c
000002c0: 843b 96be 5bd1 c0bc 3049 48bf 1658 bd3c
000002d0: c564 9f3f 5257 3b3f 92c2 26bf 88f5 893e
000002e0: cd66 2fc0 61d8 e33c e233 503e c33b 463d
000002f0: 1d5a 9f3e 116c 80bf 4614 093f 88e5 9a3f
00000300: b586 403d 8a48 bdbe a4d7 18bf 111e 02bf
00000310: 20fb bb3f af1a 56bf 624c a4bf a22a 863e
00000320: a238 52bf 832f 17bf 08f5 bd3c 6149 8a3e
00000330: c17d f33e 573f 0a3f 6c3e d8be 923a fd3f
00000340: 3dd7 80bc f6f2 61bd 1ff7 713f d1c2 e83d
00000350: 1f55 c0be 10ec fa3f 3593 573e 6294 443d
00000360: fb87 aabe 2159 b6bd ceaa 6dbe 39ba 06bf
00000370: 2814 0440 ea97 ab3f 86e8 07c0 09e0 e43f
00000380: c815 473d 15cf f2be 3f7e 663e 26f4 e9bc
00000390: d14f 16bf 6059 443f 88b2 283f de90 0240
000003a0: 2958 37be 3fe4 803d fa91 92bd 034b 6a3e
000003b0: 1484 193f 50b1 e13e 9e9e 04be 3422 2f3e
000003c0: 5fda 3e3e f939 193d 29e4 a6be 3175 4a3d
000003d0: c028 14c0 e4cc 8d3f 564d 0ebd 08d4 cd3e
000003e0: bcef 2dbf 8aa3 ffbe da8d df3d 593c 8bbe
000003f0: ae25 3cbf 0c81 ed3f 2f71 143e b7c8 2dc0
-0.5370389 0.33811137 -0.6154764 -0.0039804075 0.102932066 0.76376957 0.028369293 -0.5140902
-2.138572 0.35860854 0.08749669 -0.21077584 -0.7823634 0.62529427 -1.4161074 -0.24823782
-0.10828242 0.37784874 0.20849372 0.01690237 -0.3019969 0.6206578 1.1444194 0.2862863
-2.8433044 -2.702622 0.69582945 -0.15370432 1.0482044 0.068282664 -0.23066917 -3.862779
0.41170222 -1.8945732 0.3389671 0.05167185 0.3201729 0.664876 0.33895135 0.15896066
-0.47542045 -0.5944486 -0.76598144 -0.20200345 2.1472225 0.9149199 -2.2871807 1.1942676
-0.391327 0.012833441 0.08290445 0.54688364 0.8978825 1.066091 -4.6441092 0.114317
0.011101239 0.08263862 -0.011727672 0.56570274 0.047907412 -0.3637057 -0.1461979 2.177008
0.19112152 0.025754515 0.3074486 0.24706605 0.5922289 1.0980057 0.5279679 0.59906733
-0.54905 0.013561988 -0.41087875 -0.4441666 -1.1726111 0.014470452 -0.3124798 -0.24340723
0.24893098 -3.8989444 0.2550898 -0.054540288 -1.1289825 -1.5180122 1.6151232 1.0655283
0.16506237 -0.1833392 0.6476376 0.18334553 -0.25248668 -1.7149954 0.2776135 1.4202498
-3.3203642 -0.2632441 0.13836399 -0.52987105 1.5692998 -0.56020105 -1.0832659 -2.5042145
0.11907445 0.020966576 1.06064 0.10845616 0.33356518 -0.3213528 0.426689 -0.23970482
-0.2593116 -0.39333716 0.8456971 -0.10636027 0.9483282 0.582326 0.57410955 -1.9149901
0.20378904 0.15548494 0.2945587 0.40592548 -0.22660667 0.11605431 0.19561693 0.20212644
0.4558327 -0.10789435 0.6668743 0.45403928 -0.086887866 -1.7052315 -1.0766001 0.31130454
0.13654602 -0.3967007 0.28513277 -0.5705627 0.31830946 0.8191465 0.8746751 0.8797132
-4.180731 0.15802152 0.2940458 -0.030874439 0.4872133 -1.4200013 -2.065376 -0.7972529
-0.25901335 -0.025486933 -0.24776198 0.06409733 -0.34458423 -2.2482522 0.46600762 0.8652507
-0.4386332 0.14347713 0.7630885 0.1684657 -0.6170947 -0.74740106 0.6693999 -0.5662365
0.32239696 -0.4545548 -0.1859184 0.03379273 0.4695448 -0.87952083 0.4685515 0.01785135
-0.29342282 -0.023537328 -0.78236675 0.023113292 1.2452627 0.73180115 -0.6514064 0.26945138
-2.7406495 0.027813138 0.20332292 0.048396837 0.31123438 -1.0032979 0.5354656 1.2101297
0.047003467 -0.36969405 -0.5970404 -0.5082713 1.4686012 -0.83634466 -1.283581 0.262044
-0.82117665 -0.5905687 0.023188129 0.2700911 0.4755688 0.540029 -0.42235124 1.9783499
-0.015727634 -0.055163346 0.945177 0.11365283 -0.37564942 1.960329 0.21052249 0.04799307
-0.3330687 -0.08903719 -0.23209688 -0.52627903 2.0637302 1.3405735 -2.123567 1.788087
0.048604757 -0.47423616 0.22509097 -0.028558802 -0.5871554 0.76698875 0.6589742 2.040092
-0.17904724 0.062935345 -0.07156749 0.22880177 0.5996716 0.4408059 -0.12951133 0.17102891
0.1863799 0.037408803 -0.32595947 0.04942817 -2.3149872 1.1078153 -0.034741722 0.4020083
-0.6794393 -0.49929458 0.10915728 -0.2719448 -0.73494995 1.8555007 0.14496301 -2.7153757

fc1.bias f4 [128]
00000000: 2e9a 48be ce07 553f 8e96 c6bf 5862 583e
00000010: e94b b43f 3997 863c 45fb fd3e b414 cabf
00000020: 3902 f3bf a9a2 bf3f 7ce2 593f e934 c43e
00000030: 4f2a 683f b010 5fbf d9f4 81bf e3cd e63f
00000040: e66e e0bf d154 f7be 1984 be3e 50a7 ce3f
00000050: da1e 793f f795 6b3f 254e 5f3f 9d50 803f
00000060: 9464 a4bf 35f7 9c3e 2b68 32bf 1f51 323e
00000070: 63bf 9d3e 045a df3f 4e08 ad3d e246 ab3f
00000080: ee00 d23f a776 b5be 9241 51c0 2c28 ec3f
00000090: 9d38 3bbf 354f 1fbe 4023 2bbf 89c8 e8bf
000000a0: 2bd2 77bd a18b 6f3f 1ce0 0e3f 6ab7 8f3f
000000b0: c279 31bf d41a 9fbd 4f86 643f 5fc6 673e
000000c0: 7f7b 0ebf 184d 1b3f 266d c2bf 7f76 e9bf
000000d0: 88c5 343f 3075 1abf 0a4b babf 76fd 96bf
000000e0: 9e82 863e 6bda 50c0 a9a4 78bd 2440 15bf
000000f0: 08c2 b8be 6e0e 64bf 1ff4 dfbe 514c adbe
00000100: 66a8 7fbf 3fbd a13f 1be4 0d3f a548 f9bc
00000110: 8907 6abf a2d8 833f e97e b53f 12aa 1abf
00000120: cc34 963f 4456 65bf 2962 d4be 6d21 c33e
00000130: 24bc fabf 5073 45c0 a935 c43f 1358 583d
00000140: 44b4 afbe e0c2 f0bf e7ad 99bf 7f8a 803e
00000150: c9a8 7bbf 088a 74bf 5834 b6bd 4e19 8abf
00000160: 0999 ba3f 7a1f c9be 61a2 26be 9ae1 823e
00000170: a123 afbe 7b49 133f 6f56 393f 22b3 4fbf
00000180: fbd6 4a3f 2dff 31be 1799 83bf 6e2d 213f
00000190: ee74 063f 48ce 98bf cebb 77c0 2a98 e83f
000001a0: 4b4f 94bf 2f25 363e a245 e9bf 26aa 0b3f
000001b0: 3832 bb3f 3935 45bf 2410 c8bf 75b7 953f
000001c0: ec5d 18bf 9cfc 0c3f 007e 80bf 7c05 3fbf
000001d0: b2eb 51be 8735 373f e2f2 a53e 7c88 7dbf
000001e0: d470 c0bf 2717 03c0 7960 20bf 5414 01bf
000001f0: 9952 a7bf 6573 87bd 340c bdbf 19cb 4dc0
-0.19590065 0.83215034 -1.5514696 0.21131265 1.4085666 0.01642953 0.49605766 -1.5787568
-1.8985053 1.4971515 0.8511121 0.38321617 0.9068956 -0.8713484 -1.0152847 1.8031582
-1.7533844 -0.48306897 0.37210158 1.614481 0.973127 0.92025703 0.87228614 1.0024601
-1.2843194 0.30657354 -0.696902 0.17413758 0.3081008 1.7449346 0.084488496 1.3381007
1.6406534 -0.35442087 -3.269627 1.844976 -0.7313326 -0.15557559 -0.6685066 -1.8186198
-0.060503166 0.9357243 0.55810714 1.1227849 -0.6932641 -0.07768789 0.8926744 0.22634266
-0.5565719 0.6066451 -1.518956 -1.8239287 0.7061391 -0.60335064 -1.455415 -1.17961
0.26271528 -3.2633312 -0.060703907 -0.58300996 -0.36085534 -0.8908452 -0.43740937 -0.33847287
-0.9986633 1.2635878 0.55426186 -0.030430147 -0.9141775 1.0300486 1.4179355 -0.60415757
1.1734862 -0.89584756 -0.4148114 0.3811144 -1.9588666 -3.085163 1.5328876 0.05281837
-0.3431722 -1.8809471 -1.2006196 0.25105664 -0.9830442 -0.9552312 -0.088967025 -1.0788972
1.4577953 -0.39281827 -0.1627288 0.25562745 -0.3420687 0.57534 0.7239751 -0.8113271
0.79234284 -0.17382498 -1.0281094 0.62959945 0.5252217 -1.1937952 -3.8708377 1.8171437
-1.1586698 0.17787622 -1.8224375 0.545565 1.46247 -0.77034336 -1.5629926 1.1696612
-0.59518313 0.5507295 -1.0038452 -0.74617743 -0.20500067 0.7156605 0.32411867 -0.99036384
-1.5034432 -2.048288 -0.62647206 -0.50421643 -1.3072082 -0.06613807 -1.4769349 -3.215521

fc2.weight f4 [128, 128]
00000000: 6de0 09bc 6666 283f 89eb 2a3f 693e 1bbf
00000010: 6abf 913e 3b74 b83f 4935 c3be 184a 5ebe
00000020: 0b30 8d3f 7e2d 15bf 4ba8 dfbd 2934 61be
00000030: 757c 5c3f 2f36 febd ac9e 4dbf c324 153e
00000040: c9b1 55be 4f5a aebf 8beb 3cbf fb6e e2be
00000050: ee29 b3be 48e5 213d 4a47 41bd 948c 5a3e
00000060: 03c2 bd3f b0ff 753f 8354 13be 88b6 8bbe
00000070: 9ce6 d73c 47c7 a4b8 997a 94bc 6d2a 293f
00000080: 6e0c 01bf fe83 8d3d 17f5 5bbf 6a10 7fbf
00000090: 58b3 a13f 7c12 b3bf a549 9ebe 132b a7bf
000000a0: 85bb 2f3f 2de8 07be 762d 16be 6904 11bf
000000b0: bf98 8cbe 9fa1 b43f 4256 a6bf 89ef 9c3e
000000c0: b754 8d3f 458d 1d3f d854 6b3f 11b7 2e3f
000000d0: f182 973e 0578 3eba cc03 1bbe e95c 253e
000000e0: 3de2 3a3e 0eee 87bf 8041 65be ef4c 24be
000000f0: 1bf8 3cbb 1589 6e3e d15d 56be 44c2 4e3e
00000100: cb7d 043f 16ab c0bd 5707 49be 5dab ebbe
00000110: c8b2 d63d 05a8 543e d780 28bc 3730 203f
00000120: e95b cd3e 4f0c afbe d5b3 0d3e 6c99 dd3d
00000130: 318e 193f 7d26 be3e e56d 573d b45c 46be
00000140: e7f5 a93e ba3f e0bf e5b8 303f 3af2 78be
00000150: 92ef e13d aeb2 90bf 0c64 2fbf a6e5 4e3f
00000160: d5e2 cfbd fea3 e3be 7436 b8bd 8e14 49bd
00000170: e22f 55bd d90c 02bf ccc4 ac3d 7142 3abd
00000180: 277e d2be 37d5 9ebd d695 7e3e 0463 ad3e
00000190: 7cfd 4bbf e6b8 9abd f76d d13e faef 4fbf
000001a0: c6c2 88bf 6c98 283f 0005 2a3f 65c5 89be
000001b0: 1eab 82bf 95ad 6d3e 3e01 3e3e ac1a a9be
000001c0: 32b6 133f cc4f adbf da19 c6bc ef41 b9bd
000001d0: 3ed1 67bf 100c 17c0 a716 6cbf 79b2 57be
000001e0: 8395 abbe 361b 58bd da78 4c3e c284 2dbf
000001f0: 474d 7a3e d474 8f3e 5161 293f 4da5 e7be
00000200: bfcd 31bf 414b 9c3f 9da3 7fbf e06b 263d
00000210: b9e2 1dc0 d5fa 933f f34a e1be 409c 27c0
00000220: d270 e6be 4cac 15bf 72ea 86bf 80fa 3f3d
00000230: 2ddb 5cbf 8cd0 b03d 2822 863e a458 2fbf
00000240: 6136 72bf b56c d83c a6b6 a33f fa31 67bf
00000250: c073 7ebf e33d 0b3f b28e 9bbd 47a6 7d3f
00000260: a943 7dbc 118f c83e 8fd2 d03d 7380 693e
00000270: 0412 25bf e8cc 433e 34e8 773f a440 4abf
00000280: 65d4 093f ec1a 993d 7945 85bf 4df7 d13e
00000290: 0d7c fbbd 51f6 2cbf bbc2 053f e6bb c6be
000002a0: 19cc 1bbf 0a2d f7ba f5e2 8d3d 2da4 213f
000002b0: 14c2 3a3d 6fdf 38bf 2a8d 083e 7ccb 22bd
000002c0: d941 91be d439 1fbe 662b 6cbf 506c e4bf
000002d0: c219 d3be 85b3 b73f 1f4a 773e 2b26 d0bd
000002e0: 4d8e 0dc0 fce6 ebbf 0a4b a9bf 186e 12bf
000002f0: e24d 903d ae5d 0e3e ff2d 27be 51d9 debf
00000300: c0ae f83e 633c 153f ff51 aabd cc84 a1be
00000310: 0b2f 833f f173 75bf e7e9 b3bc ba71 8fbf
00000320: 9f52 f6bf b208 65bd 9cba 033f 1952 b1bf
00000330: 3c81 c2bf 7d3d 2bbf 18f9 11be 2867 f53f
00000340: 285a a63e c55a a3bf fb25 3cbf 040d 4ebf
00000350: ff33 ae3e f16c 253f d14a c8be 0ba0 603e
00000360: 48aa c7be 3bd5 3dbf f15b 36bc 6435 e13d
00000370: cc5d 343f 4b20 26be dd2a 0e3f a289 3dbf
00000380: 1913 71be 3eba 96bc c11f 31bd ab26 e03a
00000390: 4da3 ab3d 0a5e b4bf 1e3b 5cbf d6b5 e63e
000003a0: 9f74 eb3e 6605 e1bd 15a5 a23d 4e9b c73e
000003b0: e505 8f3e 7265 50be 0b92 1fbf e9b1 143c
000003c0: 642f b2bf 75d5 8d3e 8ef0 c0bd 1d8c d43c
000003d0: 8274 afbd 4334 93be dc21 d53f 300b c3bd
000003e0: b964 d8bd f9b3 663f 565d 043e d1aa d93e
000003f0: b0cc f7bf 72d3 8cbf 3f3d 45bf 15b7 593c
-0.008415324 0.6578125 0.6676565 -0.60642105 0.2846635 1.4410471 -0.3812659 -0.21707952
1.1030287 -0.5827254 -0.10920771 -0.21992554 0.86127406 -0.124126785 -0.8032024 0.14564805
-0.20868601 -1.362131 -0.7379691 -0.44225296 -0.34992927 0.0395253 -0.047187127 0.21342689
1.4824833 0.96093273 -0.14387707 -0.27287698 0.02635508 -7.857248e-05 -0.018124865 0.6608036
-0.5040959 0.06909941 -0.8592085 -0.9963442 1.2632856 -1.3990016 -0.3091556 -1.306002
0.6864551 -0.13272162 -0.1466578 -0.56647354 -0.27460286 1.4111823 -1.2995074 0.306515
1.1041478 0.61543685 0.91926336 0.6824809 0.29592088 -0.0007265809 -0.15138167 0.16148724
0.18250366 -1.0619524 -0.22388268 -0.16044973 -0.0028834406 0.2329448 -0.20934226 0.20191294
0.51754445 -0.09407632 -0.19631706 -0.46029177 0.104833186 0.2076722 -0.010284624 0.6257357
0.40109184 -0.34189078 0.13838132 0.108202785 0.5998259 0.3713874 0.052595038 -0.19371301
0.3319542 -1.7519448 0.69032127 -0.24311152 0.110320225 -1.1304529 -0.68512034 0.80819166
-0.10150687 -0.44461054 -0.08994761 -0.049091868 -0.052047618 -0.50800854 0.084359735 -0.04547352
-0.41111872 -0.07755511 0.24861845 0.33864605 -0.7968366 -0.07554798 0.4090421 -0.8122555
-1.068444 0.6585758 0.6641388 -0.26908413 -1.0208471 0.23210748 0.18555161 -0.33028162
0.57699883 -1.3539977 -0.024182249 -0.09045779 -0.90553653 -2.3601112 -0.92222065 -0.21064176
-0.33512506 -0.052760325 0.19967976 -0.677807 0.24443541 0.2801882 0.6616412 -0.45243302
-0.6945457 1.2210466 -0.9985903 0.04063022 -2.466963 1.1560923 -0.44002494 -2.6189117
-0.4500795 -0.5846603 -1.0540297 0.046869755 -0.86271936 0.08633527 0.26197934 -0.6849463
-0.94614226 0.026419023 1.2790115 -0.90310633 -0.9939537 0.54391307 -0.07595576 0.99081844
-0.015458026 0.3917165 0.10196411 0.22802906 -0.64480615 0.19121134 0.9683869 -0.79004884
0.53839713 0.07475838 -1.0411826 0.41008988 -0.1227952 -0.6756335 0.5225026 -0.3881523
-0.60858303 -0.0018858027 0.06928054 0.6314114 0.045595244 -0.7221593 0.133351 -0.03974484
-0.2837055 -0.15549403 -0.9225372 -1.7845554 -0.4123059 1.435166 0.24149369 -0.1016353
-2.2118104 -1.8429866 -1.3226025 -0.5719924 0.07046105 0.13902923 -0.1632614 -1.741007
0.48570824 0.5829527 -0.08316421 -0.31546628 1.0248731 -0.9588004 -0.02196212 -1.1206582
-1.9243964 -0.055916496 0.5145662 -1.3853179 -1.5195689 -0.668907 -0.14255178 1.9172106
0.3249066 -1.2762076 -0.73495454 -0.8048861 0.34024045 0.64619356 -0.3911958 0.21936052
-0.38997102 -0.7415349 -0.011130319 0.109965116 0.7045562 -0.16223256 0.55534154 -0.74038136
-0.23542441 -0.018399354 -0.043243174 0.0017101368 0.083807565 -1.4091198 -0.86027706 0.45060605
0.45987412 -0.10987358 0.07941643 0.38985676 0.27934185 -0.20351198 -0.6233222 0.00907562
-1.3920712 0.27701917 -0.09420882 0.025945717 -0.08567144 -0.2875081 1.6650958 -0.09523618
-0.10566086 0.90118366 0.1292623 0.42513135 -1.9359341 -1.1002028 -0.7704658 0.013288279

fc2.bias f4 [128]
00000000: b814 1abf a0bf a53c 86ee afbb e247 95be
00000010: d1c0 0dbe 00d9 c9bd 96c0 37bf 9a46 d4bd
00000020: 5ac1 d5be 9e87 853d 2ed9 8a3f fa78 edbd
00000030: d17b 1ebe 7508 05be b3a6 fabd a458 803f
00000040: cc5e b5bf ed28 c9be eebb ffbe e036 02bf
00000050: f218 86bd e51b a93e fb54 d5bc 4bd3 d7bd
00000060: 67a7 a83f e629 963f 2858 8a3f 2cab a53e
00000070: a6eb ee3e e36e 4abf 6a93 dc3e f584 94bd
00000080: bd65 bf3e 4f5b a1be 0328 f13b 06a7 d1bd
00000090: a509 c5be bdb9 2bbd 493e 32be 19eb 9f3e
000000a0: 3c1f a83f 7fe9 65bd b369 983f d9db 803e
000000b0: fdf3 0f3f 3079 62bc 2e71 c23e 1d12 883e
000000c0: d682 9ebd 6645 0e3f 9733 08bd 0aa4 4e3f
000000d0: c6c8 aabe f290 7ebe 7eab f43d 1e77 08bf
000000e0: d278 89be dff5 923f 20d3 77bc d778 e53d
000000f0: ce05 1b3f 2df7 96be e113 e13e ecbc f63e
00000100: 6ba9 e83d cb1b 82be 520d af3f b80b 64be
00000110: 63f8 1a3f d0e9 8dbe 96b1 943f e4e3 57bd
00000120: a487 673d c400 c63c 595b d3bd 7cca 49be
00000130: 9fee 64be 1f38 50bf af01 c5be bd7c 5f3f
00000140: 0c94 2a3c 1e77 3b3d 2fec a4bd 99d7 23bf
00000150: 33b9 4c3f 3bb0 48be f5f1 6fbe f348 e43d
00000160: 0b01 f6be 4ac3 92bd f0c4 2cbf 3893 6eba
00000170: 0747 0b3f 1c82 103d de54 a13e e071 57be
00000180: 6481 25bc 49de 223f 9a3f 8dbd 8b83 e2be
00000190: 8151 3fbf 74c7 513f 0bf6 3abd b9c1 403d
000001a0: 0278 d2be b8e2 83be ad70 c03e 581f 913e
000001b0: 8459 023f 8f40 e0bc 8062 f3be c01c dabd
000001c0: 1f29 06bf bfda 2abd 579b a5bd 1e13 463f
000001d0: 4231 2f3e ec50 06bf 74a4 a0bd 6423 8e3f
000001e0: 9e9b bbbe 860d b9bd f4ab 46bd e4cb b3bd
000001f0: 727a 693e d2bd 03bf 0a17 89be 394c ab3e
-0.60187864 0.020232975 -0.0053690104 -0.29156405 -0.13843085 -0.098558426 -0.7177824 -0.10365029
-0.41749078 0.065200076 1.0847528 -0.1159534 -0.1547692 -0.12991507 -0.122388266 1.0027051
-1.4169555 -0.39289036 -0.49948066 -0.5086498 -0.06547727 0.33029094 -0.026041498 -0.10538348
1.3176087 1.1731536 1.0808153 0.32357156 0.4666416 -0.7907545 0.43081218 -0.07251922
0.37382308 -0.31514975 0.007359506 -0.10236935 -0.3848392 -0.04192518 -0.17406572 0.31234053
1.3134532 -0.056130882 1.1907257 0.2516773 0.5623167 -0.013822839 0.37976974 0.2657632
-0.07739799 0.55574644 -0.033252325 0.80719054 -0.33356303 -0.2485998 0.11946772 -0.5330676
-0.2684999 1.1481284 -0.01512602 0.11204689 0.6055573 -0.29485455 0.4396048 0.4819101
0.11360439 -0.2541183 1.367594 -0.22270095 0.6053526 -0.27717447 1.1616695 -0.052707568
0.05652584 0.024170287 -0.103201576 -0.19706148 -0.22356652 -0.81335634 -0.38477847 0.8729971
0.010411274 0.045767896 -0.08052861 -0.6400085 0.7997009 -0.19598477 -0.23432143 0.111467265
-0.4804767 -0.07166155 -0.67488 -0.0009100917 0.54405254 0.035280332 0.3151006 -0.21039534
-0.01010165 0.6362043 -0.06896897 -0.44240984 -0.7473374 0.81944966 -0.0456448 0.04705975
-0.41107184 -0.2575891 0.37585965 0.28344226 0.5091784 -0.027374534 -0.47536087 -0.10650015
-0.52406496 -0.04171252 -0.08086269 0.7737292 0.17108634 -0.52467227 -0.07843867 1.110455
-0.36642164 -0.090357825 -0.04850383 -0.087791234 0.22800615 -0.5146152 -0.2677539 0.3345659

fc3.weight f4 [4, 128]
00000000: cdb0 9a3e 8095 f9be c042 cc3c f862 3c3f
00000010: a45e 393c 779e 853d e8a3 7dbf da0a 11c0
00000020: 4b98 0dbf afb5 073f 1193 ef3e f24b 203f
00000030: 0387 133f c67c 43bd c1e8 b7bf b561 833e
00000040: 71ae ddbe e502 15c0 6b65 02c0 436e 2bbf
00000050: 1cab a53d d9c6 0dc0 2fca 2e3d d12e edbe
00000060: c159 3f3f cc84 0d3f ef69 28bf 1943 893f
00000070: b5ee 293f 7a2d bfbe db6e 813f dba3 95bf
00000080: e0e3 18bf 6604 aabf 8177 17c0 d6e7 543d
00000090: 8ea6 3cbf eb21 403d 0e48 963e fe45 b6bf
000000a0: 318a 14be d69c b1bc 1ded 283f db88 d9ba
000000b0: 178e a43e 58a9 6fbf 9381 103f 7f98 9a3f
000000c0: 10a8 823c a482 b1bf cc35 81be 2e54 2e3f
000000d0: 7011 9f3e bd7e bd3f e0b9 2cbf 4fd5 e7bf
000000e0: aea3 c2bf a3de 53bf 47e2 1bc0 55bd 8fbf
000000f0: ce82 f8be 6ebd 21bf bc61 2cc0 c2cf f53f
00000100: 6434 2440 f2a4 d23e 8d76 6a3f 53e0 473f
00000110: d25a 783f 861c 6a3f 06bc 0040 11b7 c8bc
00000120: 4664 513e bc0c 123d bce3 5cb9 e4f8 633c
00000130: bc92 9fbf 0fab bcbf 38fe 63bf 41cb 0ebe
00000140: b993 873d 7e61 98bb c7a2 f53c b66d d63f
00000150: a7f6 f53e b19c 2fbf 19b1 c4bf 8e59 aa3e
00000160: 868f e7bf 6699 6cbf e5ec 913e f114 fd3b
00000170: 06a7 c6bc 9070 da3f bfec f03e d309 dcbe
00000180: 88e5 5b3d 6180 e13e e540 92bd ee25 dfbf
00000190: a421 853e 1f51 113f 249a d7bc 478e 933d
000001a0: 3321 3cc0 85fa 24be 7181 ecbf b1dd 6f3f
000001b0: cac1 c53d 32f7 53bc d060 3ac0 5d9d ea3c
000001c0: 0c20 48c0 3be5 973d 6dfc d93c 91b0 b1bf
000001d0: 8c72 afbe 15d5 de3d 5129 233d f10e b73f
000001e0: 8864 8a3f 0216 913a 7b1f b0bf b40f a13c
000001f0: ad03 c2bf 7915 03c0 a065 5cc0 db19 b43f
00000200: 1cc0 bfbf 238c e93e ba04 cbbc c7ba 64c0
00000210: 74be 92bc d5de 48bd 5455 f2be ea6b ddbe
00000220: dcea 4c3e 13c7 093f e497 ea3e 005e fdbf
00000230: e45c 20bc 4f23 a13c c0ab b6be bb2b 15bf
00000240: 0724 70c0 1e30 dc3f c0d4 c23e c3e4 51bc
00000250: f8dc 7d3b 332d 413f ce7c 3c3d 0eff 8a3f
00000260: 2b51 283f 84f9 953e ab83 83bf ba6d 323f
00000270: a901 1c40 3e17 b4bf 9a94 dc3e 42e8 be3f
00000280: 150c 6d3e 0902 7ebf 0435 363d 66ba 6c3d
00000290: 2c85 92be 919f 1cbd 7e81 2c3e b019 9e3f
000002a0: 4bb4 033f 87fc dc3c 302e e73e 0cb8 56c0
000002b0: 9c1d 1cbe 1fa8 9f3e 7ab9 d93d 0627 ab3e
000002c0: 4309 4a3d c0e5 c03f d0dc 7f3c bbf3 f43f
000002d0: ea20 b8bf 5378 1bc0 ec4c 35be e25e a9bf
000002e0: cda3 7b3e 7ca5 12bf 599b 56bf 8b39 2cbf
000002f0: a631 093f 8d20 e1bf 1684 02bf 5046 90c0
00000300: 5acd fb3d 9ab7 09c0 cb96 523f c022 76bf
00000310: 211f 44c0 61fc 48c0 0404 de3e b89f d239
00000320: b36f df3d af0e 873c daa7 dcbc 0b8c 163d
00000330: 132b b23f b1b8 ccbf 1e1b 1ebf 1e1e 8b3e
00000340: 4871 40bc 3925 6ebb d6d1 b4bc 8945 113f
00000350: 1d25 fb3e 9a8e 73c0 a96e 32c0 29b8 c0be
00000360: bee9 f5bf ba15 583e f0c8 443f 64a0 c0bc
00000370: b77f 1e3f 59cf f5bf 8abc e2be 0279 1ac0
00000380: c051 5d3a 2c37 403f 1b48 483d 3c43 b3bc
00000390: a913 93bf 6b23 53bf 515a 12bd d612 a13b
000003a0: fc07 51bf 9ef8 723f 76e2 cd3e 4e04 89bf
000003b0: a636 2e3f 83e1 cf3c cceb 883f eb09 a33b
000003c0: 73e1 e5be f42a 563d 3bca bcbb afe4 9f3f
000003d0: 147d e7bf cbdc 563f 294b 52bc bb0f bd3f
000003e0: fefb b4bf 4735 7bbc fd78 ecbf b2fc 393d
000003f0: c5d0 f5bf 3c9a d9bf 2e17 97be be0a 0c3e
0.30213013 -0.48746872 0.024934173 0.73588514 0.011314068 0.065243654 -0.99078226 -2.2662873
-0.55310506 0.530116 0.4679189 0.62615883 0.57627887 -0.047726415 -1.4367906 0.25660482
-0.4329715 -2.3283017 -2.03744 -0.6696512 0.08089277 -2.2152617 0.042673286 -0.4632478
0.7474633 0.55280757 -0.6578664 1.0723602 0.66379863 -0.37339383 1.0111955 -1.169063
-0.5972271 -1.3282592 -2.366669 0.05197891 -0.7369164 0.046907347 0.29351848 -1.424011
-0.14505841 -0.02168123 0.65986806 -0.0016596572 0.32139656 -0.93617773 0.56447715 1.2077788
0.01594928 -1.3867993 -0.25236356 0.680972 0.3106799 1.4804302 -0.6747112 -1.8111972
-1.5206201 -0.8276159 -2.4356859 -1.1229655 -0.48537296 -0.6317967 -2.6934652 1.9204028
2.5656977 0.41141468 0.91587144 0.78076667 0.9701358 0.91449773 2.011476 -0.024501355
0.20448408 0.035656676 -0.00021065673 0.013914321 -1.2466655 -1.4739703 -0.8905978 -0.13944723
0.06619973 -0.004650294 0.029984845 1.6752231 0.48039743 -0.6859847 -1.5366546 0.3327145
-1.8090675 -0.9242157 0.2850105 0.0077234437 -0.024249565 1.7065601 0.47055623 -0.42976245
0.053685695 0.44043258 -0.07141284 -1.743345 0.26002228 0.56764406 -0.026318617 0.072048716
-2.9395263 -0.1611119 -1.8477002 0.9369765 0.09656103 -0.012937354 -2.912159 0.02863949
-3.126956 0.07416769 0.026609624 -1.3882009 -0.3426708 0.10880486 0.039834324 1.4301435
1.081193 0.0011069181 -1.3759607 0.019660808 -1.5157372 -2.0481856 -3.4437027 1.407039
-1.4980502 0.45614728 -0.024782527 -3.5739 -0.01791308 -0.049040634 -0.47330725 -0.43246394
0.20011467 0.5381939 0.45819008 -1.9794312 -0.009787772 0.019670157 -0.3567791 -0.5826985
-3.752199 1.7202184 0.3805294 -0.012810889 0.0038736444 0.75459594 0.04601746 1.0859087
0.6574885 0.29291928 -1.0274557 0.6969868 2.4376013 -1.4069593 0.43082124 1.491463
0.2314914 -0.99221855 0.044484153 0.05779495 -0.28617227 -0.038238112 0.16846272 1.2351589
0.5144698 0.026975883 0.45152426 -3.3549833 -0.1524567 0.31182954 0.1063108 0.3342821
0.04932524 1.5070114 0.015616611 1.9136881 -1.4385045 -2.429219 -0.17705125 -1.3232081
0.24574204 -0.5728376 -0.8383079 -0.67275304 0.5359138 -1.7588059 -0.509828 -4.508583
0.12295027 -2.1518312 0.8226134 -0.96146774 -3.0644 -3.140404 0.4336244 0.0004017332
0.10909977 0.016486494 -0.026935507 0.03675465 1.3919395 -1.5993863 -0.6176013 0.27171415
-0.011745758 -0.0036338104 -0.022072714 0.5674673 0.49051753 -3.8055787 -2.7880042 -0.37640503
-1.9211957 0.21102038 0.76869106 -0.02351398 0.6191363 -1.9203902 -0.4428447 -2.4136357
0.00084426627 0.75084186 0.04889689 -0.021882646 -1.1490375 -0.8247592 -0.035730664 0.0049155755
-0.8165281 0.9491061 0.40211838 -1.0704439 0.68052137 0.025376087 1.069696 0.0049755475
-0.44898567 0.052287057 -0.0057614124 1.2491664 -1.8085046 0.83930653 -0.012835302 1.4770426
-1.4139402 -0.0153325265 -1.8474423 0.045407005 -1.9204336 -1.7000194 -0.29509872 0.13675973

fc3.bias f4 [4]
00000000: dd52 703f d575 613f 95c8 6e3f 0ae9 0a3f
0.9387644 0.8807042 0.93274814 0.5426184
