Snake_DQN/snake_dqn_final.pth (torch, 75829 bytes, 6 tensors)

fc1.weight f4 [128, 8]
00000000: 65e8 ecbe 15a5 83c0 7049 70bf a71e 1f3f
00000010: 57d3 07be 9b52 493f ff7d 083f 3b6b 863f
00000020: 25f4 b2bf d5d6 9a3e 0f94 383e 0e4a 6a3f
00000030: 89f8 0c3f a271 473e 6ca1 f63f 55c5 c23f
00000040: c124 7b3d 325a 8e3e c70c 843d b979 4c3e
00000050: a774 9e3f 92d0 3a3e 7bd6 883f 179a 3cc0
00000060: 9596 92be b568 e53e d26f 05be 46a6 fdbe
00000070: a525 1d3f 8fd3 003c 1f65 663f 71cb 4dbf
00000080: 9b47 84c0 a2ba ddbe dd02 b4be b8c3 813e
00000090: 2800 be3f f925 50bf b760 2c40 ba0d 2840
000000a0: 8e39 7d3e cfd6 68be b534 45be c57a 2bbf
000000b0: 3301 0b3f a3f6 a33f c0cf f63f fd0f f93e
000000c0: 2087 f83d 33ec 32be d2f3 283d 2bbb 2b3e
000000d0: 704c 31be 79ea 05bf 7803 57c0 233b fe3f
000000e0: ca06 b9bd d6c3 f23d f833 423e f310 f73b
000000f0: ecf4 c43e b8e8 b63e 8612 2ac0 1bf9 cc3e
00000100: 23eb f93d 565f 223e 9056 f8bd d57c 2cbf
00000110: cac8 7abf 616a 3fc0 5f08 dcbf 33e1 0ec0
00000120: ba80 f63c df00 aebe f825 073f cd3b 503f
00000130: 08d8 1dbf cb06 363f 40fb 42c0 3052 753f
00000140: fa6f bf3d 6733 0fbf 092c cabe 7280 80bf
00000150: 18f0 c33f ac3c e6bf 86b7 b1bf d17a 77bd
00000160: 659b 13bd 95ec 5ebe bd59 3cbe 149b bbbd
00000170: 435b 983f a11e f13a 219c 793f a35e fdbf
00000180: 8d9c a3bb 6ceb 473e bb2a 2bbe 57c5 b13f
00000190: ceaf 323f 2382 973f d489 88bf 3e0d 643e
000001a0: 9a30 b63d aeeb cbbd 773a 2f3c 8c65 1dbd
000001b0: 716a f1be af52 50bf 3d34 483f 3007 28bf
000001c0: 786c 58bd 4130 fcc0 258e 273e 40d0 3f3e
000001d0: 2bfc a33f 4410 07c0 655d 3c40 c75f 2cbf
000001e0: 1c5e a23e 3ada 053e 0289 c83e a529 0bbd
000001f0: 661b ce3f 74a5 b1c0 2fc9 013f 0128 893f
00000200: 635c 643d 48e6 88bc 14ce 9e3f 5f65 92bd
00000210: 3fb5 c9be 1d3e fe3f 8ba9 8c3d 72a7 a6be
00000220: 669e 80bd b661 62be 1414 ebbe 5eab 783f
00000230: 8f8c 86be 7364 3abe 517d 4a3f 680e a03f
00000240: 7d83 b7bd 6b20 a93c 6e6f 973d 3b92 75be
00000250: d982 4ec0 ac96 c93f 5fb6 a6bf 5ba7 a43e
00000260: 1916 8ebe 8ce1 5fbf 6ab2 7cbf 4a09 423f
00000270: b952 463f 75d7 c83f a347 35bf a41f df3f
00000280: 10bc cf3d f340 d7be 6857 103f 7707 f6be
00000290: cd3b f73e 629c 9c3f 18c1 cbbd f895 7c3f
000002a0: 9788 bbbf fa95 18be ac11 80be d638 4bbe
000002b0: 0320 c73f 591f 3040 5956 0340 73c8 d53f
000002c0: bffd a5be 32c3 553e 9cce 8cbf db55 1abf
000002d0: db49 bf3e 0d9e edbf aa4e 6e3f 597d e1be
000002e0: a187 21be 210a d83d 7021 063e 1630 2f3d
000002f0: 9b5b 83be ea58 893e c74f 7fbd c0b1 9bbe
00000300: b560 14c1 26bd 1abd d385 6f3f 0967 eabd
00000310: 4c0a f03f ef90 d83e 65ec cf3f 4715 07bf
00000320: b89b bebe 2a46 c1bc f019 e7bd ed3c f0bd
00000330: 55d5 893f a275 9b3f 8316 0340 094a 7ebf
00000340: 0e2b 43bf 3187 efbe 937f 123e 1c09 e3bf
00000350: fd65 513f e26a ccbd cc05 c33f cc3f 1e3f
00000360: 5748 0ec0 a688 5d3d 7587 93bf 7272 65bf
00000370: a780 d9bf 262a 39bf e9be dd3e b136 2a3f
00000380: 4ab0 a0c0 3555 bcbc c084 3cbe 85d2 3c3e
00000390: 039d 2640 0e66 3cbd 4044 aebf 8f4f e0be
000003a0: 4aec 30bf 8f82 80be 8747 363f b979 c83e
000003b0: e553 a33f 8071 0f40 8e48 fdbe febc 28bf
000003c0: 1f22 a03e 7a7f 23be 5bde b4bd 8249 033e
000003d0: b6af 983e dc4c 4dbf 4eaf b5bf 9820 85bf
000003e0: 8da3 bf3e 3ba1 08bf eda8 9c3e 3c7d 85bf
000003f0: ea15 1f3f 91f2 943c 7905 d6bf 85fc ce3f
-0.46271053 -4.1139016 -0.93862057 0.62156147 -0.13264214 0.7864167 0.53317255 1.0501474
-1.3980757 0.3024203 0.1802523 0.9151925 0.55066735 0.19476941 1.9268012 1.5216471
0.061314348 0.2780319 0.064477496 0.19968309 1.237935 0.18243626 1.0690454 -2.946905
-0.2863051 0.44806448 -0.13030937 -0.4954092 0.61385566 0.0078629395 0.8999805 -0.8038855
-4.133741 -0.43306452 -0.35158435 0.25344634 1.4843798 -0.8130794 2.693403 2.6258378
0.24728987 -0.22738193 -0.19258387 -0.66984206 0.54298705 1.2809643 1.928215 0.4864501
0.12135148 -0.17472915 0.04124815 0.16770618 -0.17314315 -0.523109 -3.3595867 1.9861797
-0.09034498 0.11853759 0.18965137 0.0075398623 0.3846811 0.35724425 -2.6573806 0.40033802
0.12203052 0.1585668 -0.121258855 -0.6737798 -0.9796263 -2.9908679 -1.7190055 -2.232495
0.030090678 -0.3398504 0.5279231 0.8134125 -0.6165776 0.71104115 -3.046585 0.95828533
0.0934753 -0.5593781 -0.3948672 -1.0039198 1.5307646 -1.7987266 -1.3884132 -0.06041986
-0.036036868 -0.21769936 -0.18393607 -0.09160438 1.1902851 0.0018395969 0.9750386 -1.9794506
-0.0049930275 0.195234 -0.16715519 1.3888348 0.69799507 1.183659 -1.0667062 0.22270676
0.08895989 -0.09957062 0.010695091 -0.03842692 -0.4715152 -0.81376165 0.7820471 -0.6563597
-0.05283782 -7.8808904 0.16362818 0.18731785 1.281133 -2.1103678 2.9432003 -0.67333645
0.31712425 0.13071528 0.3916703 -0.033975262 1.6102111 -5.551447 0.50697607 1.0715333
0.05575217 -0.01671137 1.240664 -0.07148241 -0.39396092 1.9862705 0.06868275 -0.32549626
-0.06280212 -0.22107586 -0.45913756 0.97136486 -0.26279113 -0.18202381 0.7909747 1.2504396
-0.08960626 0.02064534 0.073943004 -0.23981564 -3.2267363 1.5749106 -1.3024405 0.32158932
-0.27751234 -0.8745353 -0.9870974 0.75795424 0.77469975 1.5690752 -0.70812434 1.7431531
0.10143292 -0.4204174 0.5638337 -0.4805257 0.48287812 1.2235224 -0.09948939 0.98666334
-1.4651059 -0.14900962 -0.25013483 -0.198459 1.5556644 2.7519133 2.0521452 1.6701797
-0.32420155 0.20875242 -1.1000552 -0.60287255 0.37361035 -1.8563858 0.9308878 -0.44040945
-0.15774395 0.10548807 0.13098693 0.042770468 -0.25655827 0.2682565 -0.06233194 -0.3040905
-9.27361 -0.037778042 0.93563575 -0.11445434 1.8753142 0.42298076 1.6244017 -0.5276684
-0.3722818 -0.023593027 -0.11284244 -0.11730371 1.0768229 1.2145274 2.048249 -0.9933172
-0.7623757 -0.4678283 0.14306478 -1.7737155 0.81796247 -0.09981324 1.5236144 0.61816096
-2.2231653 0.054085396 -1.1525713 -0.89627755 -1.6992387 -0.7232994 0.43309715 0.664897
-5.0215197 -0.022989849 -0.18410015 0.18439682 2.6033332 -0.045995764 -1.3614578 -0.43810698
-0.6911055 -0.25099608 0.7120289 0.39155367 1.2759978 2.2413025 -0.49469417 -0.6591338
0.31276032 -0.15966597 -0.088314734 0.1282101 0.29821557 -0.80195403 -1.4194124 -1.0400572
0.37429467 -0.5337102 0.3059763 -1.0428843 0.62142813 0.01818207 -1.672042 1.6170813

fc1.bias f4 [128]
00000000: 3e99 233e 0cc7 43be 00ce 0d3f 5559 1ec0
00000010: e090 853f 86dd 3cbf cb8e b93f 5e0c 0340
00000020: c82a 893b cebc 2b3f d7b5 bd3e 6f58 a73f
00000030: d83c abbe 76a8 e23f f22e 0240 e879 0a3f
00000040: 5b78 87bf 0300 adbf bd43 a43f aab6 b8bf
00000050: 9419 37bf 0cd8 70bf 02e6 30bf ddba eb3f
00000060: c86c f83e 16d1 d33f 1b64 48bf 6ab2 013f
00000070: 9ce3 b73f e857 253e 3ac3 de3f 68fc 4d3f
00000080: df22 cf3f 9968 9c3f 1b3e 0a40 fd15 9a3f
00000090: 072e 07c0 89e4 90bf 9589 103f 9f99 9d3f
000000a0: a151 44bf afb8 debf 903e cd3e ef30 75bf
000000b0: 2d52 a63f 6d4d e73c 6508 10c0 b2da 0a3b
000000c0: 1ec1 44bf c787 893f 97ae 08c0 5bc7 b63f
000000d0: ff3d dfbf ef0b 61bc 6ff5 e7bf d5bc 413f
000000e0: b542 d7bc 06af 563f 8c63 58bf 9fe5 6c3f
000000f0: a4a0 81be 0613 b23f 008a 903f 60c6 d43d
00000100: 0461 c13f 673c 0e40 e164 e7bf bf51 b53f
00000110: 8723 c7bf f274 d63e 791d 033f 2d7b bfbf
00000120: 0ef4 6e3f 082d 943e 360b 0ac0 21f9 4bbe
00000130: 57b4 f8bf e81d 2d3f 9243 e63f 9267 05c0
00000140: 5d46 9fbe 37b0 c1bd 7620 bc3e 3923 58bf
00000150: 8341 cfbd 4276 37c0 2d58 aa3f b8d3 a7be
00000160: b1d7 633f c04b 3c3f 9abf 0c40 8e11 2f3f
00000170: dff4 05c0 05ff 79bf e088 ac3f 0afd c83f
00000180: 5b0f 89be bcf4 ee3f 397e ab3e 80f3 b0bf
00000190: 0885 0d3f b776 4f3f f9dc 6dbf dfb8 043f
000001a0: f902 f43f 9280 9d3f 2158 1cc0 2f32 0fc0
000001b0: 874c fe3e 05a0 c53f 7b2a b43f f09c 04c0
000001c0: ccec d73f 43d9 9b3f dba2 3fc0 c713 0c40
000001d0: a02a 9a3f 3d92 373f 4b23 1cc0 b1f2 d5bf
000001e0: 494c 813f a870 00c0 2ee4 c23f 936e a0bf
000001f0: cc32 b5be 6cd9 08bf a84a 78be d85f d13d
0.15976426 -0.19118899 0.55392456 -2.4742024 1.0434837 -0.7377552 1.4496702 2.0476298
0.004186008 0.6708497 0.37052795 1.3073863 -0.33444858 1.770766 2.0341153 0.54092264
-1.0583605 -1.3515629 1.2833172 -1.4430745 -0.71523404 -0.9407966 -0.69100964 1.8416401
0.48520494 1.6548183 -0.7827775 0.50662863 1.4366336 0.16146815 1.7403328 0.80463266
1.6182517 1.2219421 2.1600406 1.203796 -2.1121843 -1.1319743 0.56459934 1.2312506
-0.76687056 -1.7400111 0.40086794 -0.9577779 1.2993828 0.028235162 -2.2505124 0.0021187481
-0.76857173 1.0744561 -2.135656 1.4279588 -1.7440795 -0.013735755 -1.8121775 0.7567876
-0.026276926 0.83860815 -0.84526896 0.92537874 -0.25317872 1.3912055 1.1292114 0.103893995
1.5107732 2.2224367 -1.8077661 1.4165572 -1.5557717 0.41886097 0.51216847 -1.4959465
0.9334115 0.28940606 -2.1569343 -0.19919254 -1.9430035 0.6762376 1.7989371 -2.0844464
-0.3110837 -0.094574384 0.36743516 -0.84428746 -0.10119917 -2.866593 1.3308159 -0.32778716
0.89000994 0.73553085 2.1991944 0.6838616 -2.0930707 -0.97654754 1.3479271 1.5702221
-0.26769528 1.8668437 0.33494738 -1.382431 0.55281115 0.8104052 -0.929153 0.5184459
1.9063407 1.2304862 -2.442879 -2.237438 0.4966776 1.5439459 1.4075464 -2.0720787
1.686914 1.2175678 -2.994315 2.188707 1.2044258 0.71707517 -2.439654 -1.6714689
1.0101405 -2.006876 1.5225885 -1.2533745 -0.35390317 -0.5345676 -0.24247229 0.10223359

fc2.weight f4 [128, 128]
00000000: a46c 2dbe 72db eebe 76ad 603e 90d0 23bf
00000010: e17f 393f 240f b7bb 9429 0c3f eae9 f3be
00000020: 90c8 113e 2d23 1a3e 70b2 17bf 20dd 2a3f
00000030: c9fc 6cbe 59b1 793e 6614 893f 662e d93e
00000040: 48ad 5fbf 5028 c3be 42af bf3d fa4f 1dbf
00000050: 58e5 b33e 3d31 ba3d f30f fabe d6f3 fa3c
00000060: 9ae3 b7bc d9b3 473e 180b d5be b8dc bbbe
00000070: f809 18bf 3574 03bf d99e e0be fea7 f6bd
00000080: 0f3f 62bd acc3 0e3f dcfb 5abe a109 50be
00000090: de1e 043d a883 383e db00 b5bd 7236 49bf
000000a0: e7f7 11bf 2d8b bebe f995 013f 33bf 6cbe
000000b0: 5efc dabe 6be2 803e f6b5 f03e f61f 1a3f
000000c0: fc84 d0be 41a2 b83e 6159 6ebd 00a5 00be
000000d0: f597 8e3e 2359 9ebe 4639 033f a679 393f
000000e0: fa73 1240 30b7 bd3e ff18 1ebf afb6 89be
000000f0: fb1a 65ba b243 cebe 8aa9 f53e 61bc f3bc
00000100: 0641 51be fd2b 403e c7b2 4a3e bc86 c93e
00000110: 92bb e93e f0d2 8e3e cc42 293e ba69 a13e
00000120: 366b b8bc f87c 06be 2cf3 e83e a445 483e
00000130: 4db9 673d 82c3 1bbe 7579 a13e 7774 743e
00000140: 48f6 003d a96b 583f 53cb 203f 291d 18be
00000150: d8f1 a6bc 6805 a93f be96 5fbd d6d8 063f
00000160: 268a 3c3f ad97 f63e dd39 093f 1bba 5abf
00000170: a21b 273f 9432 073d edac 86bc 065c ac3e
00000180: 2eb2 1d3f d842 403f dab1 82be 52d3 423f
00000190: 9df9 c13c 6e75 a43d 76c2 cebe 8677 c33e
000001a0: 4932 d4bd 9f40 0b3f 7cf5 013f 4270 65bd
000001b0: d5ae f7bd 5b12 8c3e baeb e93e e607 8abe
000001c0: a7f9 14be 65fd 7c3f 285a b1be 87d9 39bf
000001d0: ab66 cf3d 3630 523f ee58 5ebf f055 493e
000001e0: f7a0 b43e 3739 07bf f2f5 50bd 5b44 a83f
000001f0: 6e93 2ebf 27ac 973c c82b 653e 744c 5fbf
00000200: 6656 83bd a626 8bbc eaab a8bd 3a49 fa3b
00000210: 0e55 41bc 29bd c9bd abb4 08be ed3f 9dbd
00000220: ff5d 13bc 38f1 a4bd a306 6b3c 7d45 fabd
00000230: 1104 be3a c7c8 5bbd 22dc 89bd dae2 883c
00000240: 710e e5bc c2b1 d9bd b729 b8bd c97d 0c3c
00000250: bd7f 69bd b6cc 4d3d 2724 0e3c 1d43 84bd
00000260: 5c9e 9fbd f521 79bd 539f 45bd 1f05 94bc
00000270: ba74 033d 6569 f2bc 5aad 253d 360b a33c
00000280: e01b 9cbd 3746 83bc 8f69 833d fd47 82bd
00000290: fda3 b93c 6bee 273d 5f22 803c 7aa4 d1bd
000002a0: 5812 d6bd 35c0 d9bd 205d 90bd db13 ecbd
000002b0: eabd f2bc 9d37 babd 2d42 6dbd 50e6 0c3d
000002c0: 662f 46bc 43fd 40bd a21a bcbc 29fa ef3c
000002d0: 674e 943d 3596 803c 4cfd e63b 96de e13c
000002e0: 06eb 183d dc6d 74bb cf97 923d 62eb c03c
000002f0: 866f 0fbd 36e2 2bbd 2c18 fabc 7f06 0bbd
00000300: 835d 78bd e01b 883c 296d e4bc ef97 52bd
00000310: 0c91 683c a0e3 b63c 2c6c 5d3d db7a 823d
00000320: 9917 0d3d da3c cdbd a198 8bbd aa80 0b3d
00000330: 4405 95bc 83f7 e2bd 538d aabd 0374 d63c
00000340: 7647 183c 790f 9a3d cea4 a2bd aa1b 8dbd
00000350: 6d64 013d 7701 c03a 7ae0 c2bd 808c 3e3d
00000360: cbe4 74bd f6d2 f5bd e3a9 533c 5450 d6bd
00000370: 21b5 ae3c e14b 3dbd a142 99bd 29b3 51bd
00000380: 0f7d 763d cf3c debd fadc 91bd 96ae 173d
00000390: 24ec 72bb 9999 b9bc d199 59bc 83b8 b5bc
000003a0: 6f1e 46bd cff5 07be 9c34 3f3d ebfb 9dbc
000003b0: 9847 bbbd c210 44bc e98e 26bb 1d96 83bd
000003c0: 550a 1c3d 373d ed3c 35cc 493d 2024 963c
000003d0: 4817 4a3d dc73 3dbd 623f 6ebd 8921 683b
000003e0: f41d f3bd ae4b d7bd 1ea8 c23c f2c3 093d
000003f0: f736 d9bc c6f2 633c 9fe1 ddbb c209 323c
-0.16935974 -0.46651798 0.2194117 -0.63990116 0.7246075 -0.0055865217 0.54750943 -0.476394
0.14236665 0.15052481 -0.5925665 0.6674366 -0.23143305 0.24384059 1.070935 0.42418212
-0.8737378 -0.38116693 0.093596 -0.6145016 0.35135913 0.09091423 -0.48840293 0.030633848
-0.022447396 0.195022 -0.41610026 -0.36691833 -0.5939021 -0.5134919 -0.4387119 -0.12043761
-0.05523592 0.5576732 -0.21385139 -0.20316173 0.032256 0.18018973 -0.08838054 -0.785987
-0.57018894 -0.37215558 0.50619465 -0.23119812 -0.42770666 0.25172743 0.47013825 0.6020502
-0.4072646 0.3606129 -0.058190707 -0.12562943 0.2785031 -0.3092738 0.5125927 0.72451246
2.2883286 0.37053823 -0.6175689 -0.2689719 -0.0008739677 -0.40286022 0.4798091 -0.029752912
-0.2043496 0.1876678 0.1979476 0.39360607 0.45650917 0.27895308 0.16529387 0.31525975
-0.02251206 -0.1313361 0.45498025 0.19557816 0.0565732 -0.15211299 0.31537977 0.23872553
0.031484872 0.84539276 0.6281025 -0.14854874 -0.020378992 1.3204775 -0.05458712 0.52674615
0.736483 0.48162594 0.5360392 -0.85440224 0.6527654 0.03300722 -0.01643988 0.33663958
0.61600006 0.75101995 -0.25526315 0.761037 0.023678595 0.080302104 -0.40382737 0.38177127
-0.10361154 0.5439548 0.50765204 -0.05601526 -0.120938934 0.27357754 0.45687658 -0.2695915
-0.1454836 0.9882415 -0.34639096 -0.72597545 0.10127004 0.82104814 -0.86854446 0.19661689
0.35279056 -0.5282168 -0.0510158 1.314586 -0.6819371 0.018514706 0.22379982 -0.87226033
-0.064129636 -0.016986202 -0.08235915 0.007638124 -0.011800064 -0.098505326 -0.1335017 -0.076782085
-0.008994578 -0.08053821 0.014344844 -0.12220285 0.0014497061 -0.053658273 -0.0673144 0.016709734
-0.027960988 -0.10629608 -0.089923315 0.008574911 -0.057006586 0.050244056 0.008675612 -0.06458113
-0.077938765 -0.0608234 -0.048247647 -0.018068848 0.03209374 -0.029591272 0.040448524 0.019902807
-0.07622504 -0.016024692 0.06416618 -0.06361387 0.022661204 0.040998857 0.01564139 -0.102364495
-0.104527175 -0.10632364 -0.07049012 -0.11527225 -0.029631574 -0.09092639 -0.05792444 0.03439933
-0.012096262 -0.04711653 -0.022961918 0.02929409 0.072415166 0.015696624 0.0070492383 0.027571958
0.03733351 -0.0037296927 0.071578614 0.02354974 -0.035018466 -0.04196378 -0.030529104 -0.033941742
-0.060636055 0.016614854 -0.027884083 -0.051414426 0.014194738 0.022325337 0.05405824 0.06371089
0.034446333 -0.10021372 -0.06816221 0.03405825 -0.018190987 -0.11082365 -0.08327737 0.026178366
0.009294381 0.075224824 -0.0794159 -0.06890042 0.031589914 0.0014648874 -0.09515472 0.04652071
-0.059788506 -0.12003128 0.012918922 -0.1046454 0.021326603 -0.046214942 -0.074834116 -0.05119625
0.06017786 -0.10851442 -0.07122226 0.037031732 -0.003706702 -0.022656249 -0.013281302 -0.022182709
-0.048368867 -0.13277362 0.04668103 -0.019285163 -0.09144515 -0.011966886 -0.002541477 -0.06425116
0.03809579 0.028959854 0.049267013 0.018327773 0.04933861 -0.04625307 -0.058165915 0.003542038
-0.118709475 -0.10512482 0.023761805 0.033634134 -0.026515467 0.013912862 -0.006771281 0.010866584

fc2.bias f4 [128]
00000000: 716e f03e bca1 083d ac22 263f c357 1540
00000010: 0c5c 993e 8be9 abbe d5e9 643f b100 debd
00000020: 37a4 ce3e 5155 b3be 6f5f 7cbd 031a c53e
00000030: 708e 6abf 60b0 e73d 80c0 42bd 4a3e afbe
00000040: 4b01 babc ebe3 7bbc 2920 833e 0207 08be
00000050: bb51 5c3f ae19 a33f 2e95 b2be 43e6 36bd
00000060: 5082 223c a7b2 223d f2aa de3d e013 d93a
00000070: 38d1 7b3f 13ec 49be 8226 a33d c555 c0bd
00000080: 4fe0 10be 8ff6 37be 3c21 afbd 6c82 b53c
00000090: b140 02bf c979 a23e 1fdd ef3c 0bbc 9e3f
000000a0: 5750 14bd 4eac 53bd 9a59 0fbd 6660 8c3e
000000b0: e599 b03f aedd 2d3f cbbe d93c 41ae 953e
000000c0: 7caf 153f 3711 363f c75c 3bbd 9947 af3e
000000d0: 9899 0d3f e599 543e b878 013f 199b 433f
000000e0: d5cf fd3d 7f08 553e e997 b6bc f66e 2a3d
000000f0: 3c1d aa3e b5cb bbbd d1a4 94bd ce7e c1be
00000100: ba23 913f c60d 893f 23a1 4f3e fc55 88be
00000110: 9409 42bf a511 8cbe d909 0b3e 01f9 dc3e
00000120: 1759 24bd fb5b e1bc 9dac 83bf 78f3 393f
00000130: 055b 2bbf 955b aa3e f8e9 26be 5cc6 00bf
00000140: 2edf c73e a8e2 093f 33e3 37bf 536c c83e
00000150: a6d6 dc3f 31b2 b83e c8fc 0dbd e945 0bbe
00000160: 22a5 a6be bc8f b53f b834 0c3e fda2 043d
00000170: 29f9 2bbf 9308 35bd 3924 52be d71e 9a3e
00000180: fd3f dabe bca4 8f3f b72d babe 2357 aebe
00000190: fd00 9abe d174 a63f 8fc8 d93f 83a8 82bd
000001a0: 0ef3 853f 38eb 14be 9c80 45bd a766 00be
000001b0: aa08 843e 198d 38bf b10f 433d 1f8f 0bbe
000001c0: 5187 363e a6b6 843f eb7e 233f e4a2 bb3f
000001d0: 682e 53bf 9dd8 c6bc 4286 95bd 36dc 893f
000001e0: 90be f4bd 70fe 6e3f fed8 ab3f 5c1a 86be
000001f0: e692 083f f3d2 fbbd 6b2c 023f 70bc 82bc
0.4695926 0.033357367 0.64896655 2.3334816 0.2995304 -0.33576617 0.894193 -0.108399756
0.4035966 -0.3502603 -0.06161445 0.38496408 -0.9162359 0.11312938 -0.047546864 -0.3422721
-0.022705695 -0.015374164 0.25610474 -0.13283923 0.8606221 1.2742212 -0.3487944 -0.04465319
0.009918764 0.039721157 0.10872449 0.0016561709 0.9836612 -0.19718961 0.07966329 -0.09391359
-0.14148067 -0.17965148 -0.08551261 0.022156917 -0.5087996 0.3173354 0.029280243 1.2401136
-0.03620943 -0.051677994 -0.03499756 0.27417296 1.3796965 0.6791638 0.026580235 0.29234508
0.5847089 0.7112002 -0.045742776 0.34234312 0.5531249 0.20761831 0.5057483 0.76408535
0.123931564 0.20804022 -0.022289233 0.041609727 0.3322543 -0.091697134 -0.07257999 -0.37792057
1.1339028 1.0707328 0.20276313 -0.266281 -0.75795865 -0.27357212 0.13577975 0.43158725
-0.040124025 -0.02750968 -1.0287052 0.7263713 -0.6693576 0.33272997 -0.1630019 -0.5030267
0.3903746 0.53861475 -0.71831053 0.39145145 1.7253006 0.3607345 -0.0346649 -0.13600887
-0.3254786 1.4184489 0.13691986 0.032382 -0.67177063 -0.04419763 -0.2052163 0.30101654
-0.42626944 1.1222148 -0.36363003 -0.34050855 -0.3007888 1.30044 1.7014331 -0.06379797
1.04648 -0.14542854 -0.048218355 -0.12539159 0.2578786 -0.720903 0.047622386 -0.13628815
0.17825057 1.036824 0.63865536 1.4659085 -0.82492685 -0.024273211 -0.07300998 1.0770328
-0.119504094 0.9335699 1.3425596 -0.26191986 0.5334915 -0.12296095 0.50849026 -0.015958995

fc3.weight f4 [4, 128]
00000000: db5a be3e ee6d 75bc da7a c13e 434e 8b3f
00000010: a4ed 933f a222 c23f 98fa c83e 8992 ab3d
00000020: 85f4 1bc0 4682 103f b7df 02c0 a824 0140
00000030: e5bc f4bf b579 68bf a61b 3dbc 8fb8 9bbc
00000040: 5b4a f8bd a963 863d f348 cd3f 2e6b 29bf
00000050: a788 323f 3897 0c3f 966f 14c0 e89d f2ba
00000060: 38fc a6bc 5d10 313d a760 cdbe b9d8 50bd
00000070: f68c b93e a153 13c0 3cc5 3540 cfef ea3c
00000080: 615b e3bf 7e0a 88be 2e15 48bc ea41 813c
00000090: 2014 2dbf 641f b3be c0cc c0bf 03cc c43e
000000a0: fb4d 8abc f3cc 373d cb11 443d 34f4 41c0
000000b0: 983e e73d 5450 073f 029e 4ebd 717c cbbe
000000c0: 5b4a 043f 41df 7f3f 8b9d a83d bd02 fbbe
000000d0: 9477 07c0 9f6d 0bc0 ebe4 debf c09d a0bf
000000e0: 4f3c a43f a906 36c0 e4b6 423d 97c2 6bbf
000000f0: 8a2c 893f b8ac 4e3e e876 f0bf 2d6f 253e
00000100: 50f9 313f 6995 d73e 2862 47c0 d85b 27c0
00000110: d865 ec3f e65a e7bf 1cb7 09bf fad7 d23e
00000120: 8a09 b0bc 8494 ab3c e153 1ebf db65 b7be
00000130: 493e e13e 8a65 eb3f 2d2f 35bf 9028 3abf
00000140: a158 753e 00cd 1a3e 8e5a 743f 9bc1 543e
00000150: 0b65 523f 9c02 6f3f e667 fbbb 5eb6 593f
00000160: 426d 853f c4d6 073f 1638 35be b60f 203d
00000170: 12ef 1ec0 00df 22bd ebca 2bc0 ca4b 0ebf
00000180: 8f27 1140 4b53 3a3f b159 cbbf 4310 273f
00000190: 2f02 913f b3dc 9a3e f3db ba3e afc6 8ebf
000001a0: f83b 073e 1d06 3abf f764 35c0 e468 2bbb
000001b0: 8521 ba3f e207 47bf 4459 46c0 e830 9f3b
000001c0: 748a eabf 85ea 64be 4405 043f 459b d93e
000001d0: dd2c 5bbe 4b32 65bc f21f ca3c 44b3 403f
000001e0: c6d4 673d 4027 9a3d d029 cd3e 12dd a23e
000001f0: 410f 00bf 9d29 61bb 5142 b43e 1ccd aebc
00000200: d450 9f3e 7770 bc3b f62f e63e 0234 5f3f
00000210: 42ab 4540 28f1 923f 4b72 d83e cc36 0dbd
00000220: 6a1e 223f 5dec 16c0 71dc d53e 742f 3dc0
00000230: c7e1 f2bf 56d7 fe3e f147 023c 9949 9bbf
00000240: 3563 0c3f 2400 093d 7011 8fbf 8d0a b63e
00000250: 9b46 a1be cf0c 1f3e 9243 0ec0 0d47 243d
00000260: 4846 b6bd a239 183b b549 f9be 0364 d7bc
00000270: dc1c 3c3f c4d3 57bf 58a1 38c0 fe4c a3bc
00000280: 6f53 ffbe 6f17 0640 0965 123d 3aee 6dbc
00000290: fb04 89bf 16c9 353f f616 d23f 79dd 133f
000002a0: 91d5 ecbc 2115 da3c d8a2 0abd 1f62 573f
000002b0: e0f4 743e 933d 4c3f 916c cc3c 5128 14bf
000002c0: 1242 ec3e dcb4 aa3e 6acf 4dbd 54d3 45bf
000002d0: 9a96 4a3e 005b 0c3d 71c3 b9bf b571 49bf
000002e0: fe97 283f adfe 9dbe 8fc4 9b3d 29ca db3f
000002f0: 2521 763f 3d11 c1bf b26c 553f 6b31 5dc0
00000300: 045d 3f3e c331 a83d 4b91 d83f 153c 29bf
00000310: 386d 823f 56cb 9c3f 2887 5d3f 742b 5b3f
00000320: 2c9e ae3d 6612 03bd 6575 15c0 44ed 623e
00000330: e915 c53e 29c2 e03e b3c8 063e 5011 68c0
00000340: 0aa5 993f 9b1d d63f a5cf 843f da48 14c0
00000350: 07c7 a33e 2f58 bbbf eb94 de3c 18ba 4cc0
00000360: 2607 5f3f 6bc4 0e3f 4d5d 5ebf 0e2e 5fbd
00000370: 8125 18c0 d948 653d 3bb2 4840 ebb4 f43e
00000380: 6676 00bf 1799 313c b571 afc0 1a0f 4c3f
00000390: 79cd a8c0 4713 b63d 12f8 1b3f 7073 083f
000003a0: 3ee6 453f 757d 6cbf 9f26 05c0 5090 453d
000003b0: f428 35c0 e5b3 4abf 5b25 bebf 387e 9f3c
000003c0: 9365 75bf 7a1f 243f 7d83 803f 0b9f 363f
000003d0: dbc2 33bf 1a26 94bd f510 e9bc 6ffb 763d
000003e0: 40b7 e43b 595b 193f 0b46 be3e 60f6 a4c0
000003f0: e38e 8e3f 6804 563d 8e30 02bf 7a3c 92bc
0.37178692 -0.014979823 0.3778904 1.0883259 1.1556897 1.5166819 0.39253688 0.08377559
-2.4367993 0.5644878 -2.0449045 2.0178623 -1.9120146 -0.9081071 -0.011542236 -0.019008903
-0.12123557 0.065619774 1.6037887 -0.6617917 0.69739765 0.5491824 -2.3193107 -0.0018510194
-0.02038394 0.043228496 -0.40112802 -0.050987933 0.36240357 -2.3019793 2.8401632 0.028678803
-1.7762262 -0.26570505 -0.012212081 0.0157785 -0.67608833 -0.34984887 -1.5062485 0.384369
-0.016882887 0.04487319 0.04786853 -3.03053 0.11291236 0.52856946 -0.050443657 -0.3974338
0.5167596 0.99950033 0.08233174 -0.49025527 -2.1166735 -2.1785657 -1.741361 -1.2548141
1.2830905 -2.8441565 0.0475377 -0.92093796 1.0716717 0.20183074 -1.8786287 0.16155691
0.69521046 0.42106178 -3.115366 -2.6149807 1.846858 -1.8074615 -0.5379503 0.41180402
-0.021488924 0.020944841 -0.6184674 -0.35819897 0.43992832 1.8390362 -0.7077511 -0.72718143
0.2395959 0.15117264 0.95450675 0.2077698 0.8218543 0.93363357 -0.007672298 0.85043895
1.0423968 0.5306208 -0.17697176 0.039077483 -2.4833417 -0.03976345 -2.6842601 -0.55584395
2.2680395 0.72783345 -1.5886747 0.6525919 1.1328791 0.30246505 0.36495933 -1.1154383
0.1320647 -0.7266558 -2.8342874 -0.002615505 1.4541479 -0.77746403 -3.0991983 0.004858125
-1.8323503 -0.22355087 0.51570535 0.42501274 -0.21403833 -0.013989042 0.024673436 0.7527354
0.0565994 0.075270176 0.40070963 0.31809288 -0.50023276 -0.003435708 0.35206845 -0.021338038
0.31116354 0.0057507115 0.44958466 0.8718873 3.0885777 1.1479845 0.422747 -0.034476086
0.6332766 -2.3581765 0.41769746 -2.9560213 -1.8975152 0.49773663 0.0079517225 -1.2131835
0.5483888 0.0334474 -1.1177197 0.35554925 -0.3149918 0.1553223 -2.2228742 0.04010682
-0.08900124 0.0023227711 -0.48689047 -0.026292806 0.73481536 -0.84307504 -2.8848476 -0.019934174
-0.49868342 2.0951803 0.035740886 -0.01452213 -1.0704645 0.7100996 1.6413257 0.57759815
-0.02891043 0.026621403 -0.033846706 0.84134096 0.23921537 0.79781455 0.024954112 -0.5787402
0.46144158 0.3334111 -0.050246634 -0.77275586 0.19784012 0.034266472 -1.4512769 -0.7868913
0.6585692 -0.30858365 0.0760585 1.7171069 0.96144325 -1.5083386 0.8336898 -3.4561412
0.18687826 0.08212616 1.691934 -0.661073 1.0189581 1.2249553 0.8653436 0.8561318
0.08526263 -0.031999968 -2.3352902 0.22160822 0.3849328 0.43898132 0.13162498 -3.6260567
1.2003491 1.6727785 1.0375868 -2.3169465 0.31987783 -1.4636286 0.027170619 -3.1988583
0.8712028 0.5576846 -0.86861116 -0.05448728 -2.377289 0.055977676 3.1358783 0.4779428
-0.5018066 0.010839722 -5.4826303 0.79710543 -5.275082 0.088903956 0.609254 0.53301144
0.77304447 -0.9237893 -2.0804822 0.04823333 -2.8306246 -0.7918075 -1.485515 0.019469365
-0.95858115 0.6411053 1.0040127 0.7133643 -0.702192 -0.0723383 -0.028450469 0.06029838
0.006979853 0.5990501 0.37162814 -5.155075 1.1137356 0.052250296 -0.5085534 -0.017851103

fc3.bias f4 [4]
00000000: edc4 853f c4cd 823f 5e13 983f 97c2 943f
1.0450722 1.0219045 1.188091 1.1621884
