Snake_DQN/snake_dqn_ep2500.pth (torch, 75841 bytes, 6 tensors)

fc1.weight f4 [128, 8]
000000 5a 72 02 bf f7 41 38 c0 39 86 69 bf 38 bb 34 3e
       -0.50955737 -2.8790262 -0.9122043 0.17649543
000010 51 53 63 be 1e 0e b1 3f 0c 19 0e 3e 97 07 b1 3f
       -0.22199751 1.3832433 0.13876742 1.3830441
000020 c2 18 be bf 3a e5 06 3e a1 96 f4 3d af 14 89 3f
       -1.4851305 0.1317338 0.11942793 1.0709437
000030 90 2c 70 bd 81 b1 ec be 76 ff 03 40 c3 22 d4 3f
       -0.058636248 -0.46229175 2.062467 1.6573108
000040 f1 90 b0 3c cb df 45 3e 15 b7 4e be 07 eb 83 3d
       0.021553488 0.19323651 -0.20187028 0.06441312
000050 e7 59 89 3f d2 c9 98 3e 0d 77 8e 3f cb 4e 2d c0
       1.0730561 0.29841477 1.1130081 -2.7079341
000060 2c b5 d0 be d0 bf d3 3e 73 bd 91 be b6 81 b2 be
       -0.40763223 0.4135728 -0.2846485 -0.34864587
000070 ee b3 f0 3e b6 36 31 3e c8 99 4f 3f 77 84 f8 be
       0.47012275 0.17306027 0.81094027 -0.48538563
000080 7f 5f 7c c0 11 a9 44 be 19 d4 82 bc 0e 39 1a 3e
       -3.9433286 -0.19205119 -0.015970277 0.15060827
000090 b1 ba ae 3f 80 bb 54 bf 0a 77 19 40 d7 f7 2c 40
       1.3650724 -0.830986 2.3978906 2.702627
0000a0 a9 63 71 3e 47 24 7c be d2 5e 5b be 09 3d ef be
       0.23573174 -0.24623214 -0.2142289 -0.46726254
0000b0 e8 e2 05 3f 37 03 b3 3f b4 b3 eb 3f 4e b6 a7 3b
       0.52299356 1.3985356 1.8414216 0.005118168
0000c0 64 69 81 3d da 0e a2 bd da 37 7e 3c d0 5a 96 3e
       0.0631893 -0.07912989 0.015516246 0.2936616
0000d0 b5 2b a8 be 08 cc d7 be 17 b9 63 c0 eb 0c dd 3f
       -0.32845846 -0.4214785 -3.558172 1.7269567
0000e0 3f ce 05 bd 57 66 65 3d b8 1c 88 3e c9 42 36 3d
       -0.032667395 0.056005802 0.2658441 0.044497285
0000f0 3b 3e ad 3e a3 76 cc 3e 25 3b 23 c0 d4 1d ba 3e
       0.3383654 0.39934263 -2.550485 0.36350882
000100 9b 91 49 3e 29 d4 5a 3c 62 d4 26 be d0 ba 1c bf
       0.1968445 0.013356247 -0.16291955 -0.61222553
000110 c1 1c bd bf 13 80 dd bf 64 15 0c c0 1f 1e f4 bf
       -1.47744 -1.730471 -2.1888056 -1.9071692
000120 30 fb 92 be c8 c2 74 be f9 28 ff 3e 6b 0c 7d 3f
       -0.28707266 -0.23902428 0.49835947 0.98847073
000130 3b 27 67 bd 99 76 54 3f 2d 45 e4 bf 21 68 54 3f
       -0.056433897 0.82993466 -1.7833611 0.8297139
000140 74 c4 bd bc 6d f6 b2 be 1f f5 ac be f5 f1 5a bf
       -0.023164965 -0.34953633 -0.33780763 -0.8552545
000150 03 80 5e 3f f2 96 d7 bf 69 8b 64 bf e2 2f bd be
       0.8691408 -1.684294 -0.89275223 -0.36950594
000160 b1 dd 28 bd 90 91 66 be f5 27 88 be 19 ad 20 3d
       -0.041227046 -0.22516465 -0.26592985 0.03922758
000170 bb c8 7c 3f dd 1f 3a 3e 7f a9 e9 3e e6 54 93 bf
       0.9874379 0.18176217 0.45637128 -1.1510284
000180 ae 09 c1 bd 94 99 42 3e b9 66 5f bd 73 de aa 3f
       -0.094256744 0.19003898 -0.054541323 1.3349136
000190 6a b6 51 3f 15 23 67 3f 7e 2c 91 bf 9a 03 0b 3f
       0.81918967 0.90287906 -1.1341703 0.5430237
0001a0 5a 4a c4 3c 8b 03 5a bd f8 41 c0 3d 13 73 83 bd
       0.023961235 -0.053226035 0.093875825 -0.06418433
0001b0 9d ba 04 bf ce 8e eb be e7 9f 42 3f 58 d5 17 bf
       -0.5184725 -0.4600739 0.7602524 -0.5930991
0001c0 e8 99 69 bd b0 b1 a9 c0 d6 ec 2b bd 2f cc f5 3d
       -0.057031542 -5.3029404 -0.04197391 0.120018356
0001d0 c8 11 83 3f 29 db bb bf 52 f5 2a 40 1b 37 2b bf
       1.0239801 -1.4676257 2.6712232 -0.6688096
0001e0 8a a6 82 3e d6 40 d2 3d 12 ab 84 3e f1 5b 0b be
       0.25517684 0.10266273 0.25911766 -0.13609292
0001f0 ee a0 a9 3f 29 bf a9 c0 2a 8f 03 3f e6 c2 85 3f
       1.3252237 -5.304585 0.51390326 1.0450103
000200 32 da 78 3d fa fd d1 bd ce 6c 86 3f 02 e0 60 be
       0.060754962 -0.1025352 1.0501955 -0.21960452
000210 f1 d0 05 be c4 c2 ee 3f 9e fe 05 be 5e bd 8c 3e
       -0.13067986 1.8653188 -0.1308541 0.27488226
000220 30 3a 02 bc 8b af 4e 3c 45 a5 ac bd 17 5c 6c 3f
       -0.007948443 0.012615095 -0.0842996 0.9232802
000230 e4 a2 ae be 1c 14 d6 3e d0 05 18 3e 28 e4 ce 3f
       -0.3410865 0.41812217 0.14845967 1.6163378
000240 52 71 9f bd c9 72 45 bd c7 5a 22 3e 69 93 15 be
       -0.07785286 -0.04820517 0.15854941 -0.14607014
000250 d1 11 1b c0 c9 09 b0 3f d2 e2 87 bf 5b b0 09 3f
       -2.4229624 1.3752986 -1.0616095 0.5378472
000260 33 8a b2 be da 72 43 bf d2 86 66 bf 70 d5 65 3f
       -0.34871063 -0.76347125 -0.9004947 0.89778805
000270 97 65 52 3f 7f 37 99 3f f4 0e 2e 39 ed 27 99 3f
       0.82186264 1.1970061 0.00016599504 1.1965309
000280 48 89 fa 3d 59 9a b5 be 2b 74 03 3f d2 aa 07 bf
       0.122332156 -0.3546932 0.51349133 -0.52995026
000290 67 89 3f 3f 62 76 32 3f 6b c3 1f be d5 3e 68 3f
       0.74819034 0.6971189 -0.1560189 0.90720874
0002a0 fc 0d 89 bf ed ea d8 be 1e 7f 7a 3d b4 31 c5 be
       -1.0707393 -0.42366734 0.061156385 -0.38514483
0002b0 cf 1a 72 3f 50 5f 21 40 6a c6 dd 3f d4 4c b2 3f
       0.94572157 2.5214424 1.7326176 1.3929696
0002c0 a5 fb f0 be a3 44 ba 3e aa 9f 94 bf 9b 0f e1 be
       -0.4706699 0.3638049 -1.1611226 -0.4395722
0002d0 b6 08 01 be 0e 46 a5 bf ce 19 e8 3e 7c be df 3d
       -0.12600979 -1.2912004 0.45332187 0.10925004
0002e0 db 47 10 be 23 75 69 3e a2 d9 b1 3d 15 c0 04 3e
       -0.1408991 0.2279859 0.08684088 0.12963898
0002f0 f1 ed 61 be 62 63 9c 3e 12 44 3c 3d d1 f3 62 be
       -0.22063424 0.30544573 0.045963354 -0.22163321
000300 94 fa 08 c1 71 fd 75 bd ca 3e 34 3f bf 74 ab be
       -8.561176 -0.060056154 0.7040831 -0.33487508
000310 6c 72 b6 3f 3f 8d e4 3e 5c 47 b3 3f 00 1a 29 bf
       1.4253669 0.44639012 1.4006152 -0.660553
000320 20 27 c8 be ac 2d d9 3c 6b a5 18 bc 50 fb c0 bd
       -0.3909235 0.026511036 -0.0093167825 -0.09422934
000330 2c 2f 89 3f c1 dc aa 3f ac ca e8 3f d4 92 11 bf
       1.0717521 1.3348619 1.818685 -0.56864667
000340 f1 a4 2c bf ad 86 1e be f5 62 b1 3e 09 84 c4 bf
       -0.6743918 -0.15481062 0.3464581 -1.5352794
000350 10 85 4f 3f d5 a1 9b be 68 44 a2 3f eb 46 1b 3f
       0.8106241 -0.30396906 1.2677126 0.6065509
000360 1a 29 1e c0 de 7a ef 3d 25 69 9b bf a7 10 e7 be
       -2.4712586 0.11693357 -1.2141463 -0.45129892
000370 4e 24 e4 bf 22 40 aa be 7a 00 4f 3f 6a b8 f2 3e
       -1.7823579 -0.33252054 0.808601 0.47406322
000380 cb 7c 67 c0 08 24 7f bd 42 57 06 be a7 b7 9b 3e
       -3.6169918 -0.06229022 -0.13119224 0.30413553
000390 c4 43 0e 40 e7 a0 09 3e 0a d7 86 bf fb 92 13 bf
       2.222886 0.13440286 -1.0534375 -0.5764615
0003a0 e1 06 37 be d2 88 c4 be 6d 4b 4d 3f 5e ec 06 3f
       -0.17873718 -0.38385636 0.80193216 0.5270442
0003b0 27 2b 21 3f bc 13 95 3f aa ef 42 bf 26 a9 10 3d
       0.6295647 1.1646647 -0.7614695 0.035317563
0003c0 33 0f 36 3e ba bd aa bd 47 59 8a be 85 e3 7b bd
       0.17779236 -0.08336969 -0.27021238 -0.061496276
0003d0 89 92 8e 3e 01 b9 03 bf 1a c3 aa bf 89 df 97 bf
       0.27846172 -0.5145417 -1.334079 -1.1865093
0003e0 36 7c d2 3e 24 4c f2 be 8e 2a a3 3e 2f a0 44 bf
       0.4111039 -0.47323716 0.31868404 -0.7680692
0003f0 a0 26 15 3f 7d 6d f2 be b6 70 e3 bf 38 ef cd 3f
       0.5826206 -0.47349158 -1.7768772 1.6088629

fc1.bias f4 [128]
000000 91 8c 0d be 61 3c 83 bd 41 57 cb 3e c1 eb 0b c0
       -0.13823153 -0.06408001 0.39715007 -2.1862643
000010 46 a9 73 3f a6 fd 1f bf e6 c8 a6 3f d5 ba f0 3f
       0.95180166 -0.6249641 1.3030059 1.8807017
000020 ce c5 73 be 0a c3 82 3f 15 33 16 3f 88 66 9d 3f
       -0.23805925 1.0215771 0.58671695 1.2296915
000030 d0 ff bb be 4c 6b cf 3f 46 8d e1 3f f9 ef b1 3e
       -0.36718607 1.620462 1.7621238 0.34753397
000040 f6 f5 7c bf 8e a6 94 bf 4c 4b 94 3f 10 e4 9e bf
       -0.98812807 -1.1613328 1.1585479 -1.2413349
000050 f5 08 e3 be f1 9e 71 bf f2 0c ef be 8d 86 e1 3f
       -0.4434277 -0.9438315 -0.46689564 1.7619187
000060 17 62 97 3d 31 d2 c6 3f e3 e3 bc be 1e 44 00 3f
       0.07391756 1.5532895 -0.36892614 0.5010394
000070 59 ff 87 3f 05 07 2c be 91 91 bf 3f 99 5f 14 3f
       1.0624801 -0.16799553 1.4966298 0.5795837
000080 63 7e 93 3f 27 34 8a 3f 94 42 fe 3f 58 07 80 3f
       1.1522945 1.0797166 1.9864068 1.0002241
000090 04 1a ea bf 55 13 70 bf ed 7e b7 3e 10 44 aa 3f
       -1.8289189 -0.937795 0.35839024 1.3302021
0000a0 d2 d3 98 be c6 ab cd bf 10 86 a4 3e 49 32 87 bf
       -0.29849106 -1.6068046 0.32133532 -1.0562221
0000b0 28 02 9f 3f b5 46 1a 3e ba 39 f0 bf 4e 92 53 3c
       1.2422533 0.15066035 -1.8767617 0.0129133
0000c0 70 b0 05 bf 12 69 a5 3f 58 02 0a c0 62 08 5d 3f
       -0.5222235 1.292269 -2.156393 0.86340916
0000d0 e0 e9 c4 bf 8c 59 b0 be c4 69 d0 bf a0 3f 0a 3f
       -1.5383873 -0.3444332 -1.6282277 0.54003334
0000e0 1b 3d 37 3f 18 1c 59 3f b7 d7 6f bf ef 04 0c 3f
       0.71577615 0.8480849 -0.9368853 0.5469503
0000f0 a4 a0 81 be af ed ae 3f f6 9b 87 3f 69 e4 95 3e
       -0.25317872 1.3666285 1.059447 0.29275826
000100 a0 1f c6 3f 79 2c 08 40 79 00 d6 bf 08 a5 ac 3f
       1.5478401 2.1277144 -1.6718894 1.3487864
000110 06 af ae bf a5 cc c0 3e b8 61 6b 3f 8b c8 ba bf
       -1.3647163 0.3765613 0.9194598 -1.4592451
000120 24 ad 73 3f 15 71 aa 3e ad 8a ef bf c3 b3 44 be
       0.95186067 0.332894 -1.8714195 -0.19209199
000130 dd a0 d5 bf c4 93 1e 3f 44 3c d3 3f ed e1 0b c0
       -1.6689717 0.6194422 1.6502767 -2.1856644
000140 5d 46 9f be ad 0d a5 3e c8 4e 13 3f 65 71 3e bf
       -0.3110837 0.32236996 0.57542086 -0.74391776
000150 83 41 cf bd 9c 64 3a c0 98 5a c6 3f a4 97 99 be
       -0.10119917 -2.9123907 1.5496397 -0.29998505
000160 9d 23 0c 3f b5 ce 8a 3f c3 1e 02 40 83 f2 02 3f
       0.5474184 1.0844332 2.0331275 0.51151294
000170 ba 30 f2 bf 7d b5 44 bf a4 55 ac 3f 3b d5 a4 3f
       -1.892112 -0.7683943 1.3463635 1.2877573
000180 ec 6f 76 3a bc 1d d5 3f 61 08 a1 3e 93 a0 69 bf
       0.0009400833 1.6649699 0.31451705 -0.9126064
000190 29 a6 08 3f 27 df 17 3f 11 ae 78 bf 25 54 b5 3e
       0.5337854 0.5932488 -0.97140604 0.3541576
0001a0 d3 83 f5 3f be 22 56 3f 13 c1 09 c0 aa b6 eb bf
       1.9180855 0.8364676 -2.1524093 -1.841512
0001b0 d9 a9 3d 3f 29 37 af 3f 0b fa 9e 3f c0 cd d1 bf
       0.7408729 1.3688709 1.2420057 -1.6390915
0001c0 be 6b ce 3f e0 32 ad 3f 71 36 2f c0 d2 62 09 40
       1.612663 1.3531151 -2.7376978 2.1466565
0001d0 49 d7 84 3f a1 cf 65 3f 1c d2 01 c0 b2 c6 c1 bf
       1.03782 0.8976994 -2.028449 -1.5138762
0001e0 73 83 73 3f d4 d2 f3 bf 19 d2 9a 3f 52 29 a0 bf
       0.9512245 -1.9048715 1.2095367 -1.251261
0001f0 bc b2 da be ad e5 3c bf 55 25 ec be 31 c8 93 3d
       -0.42714489 -0.7378796 -0.46122232 0.07215918

fc2.weight f4 [128, 128]
000000 55 0c a9 be f9 1e 02 bf ba d3 17 3e e5 ab 97 bf
       -0.3301722 -0.5082851 0.14826861 -1.1849333
000010 f9 2f 9c 3d 74 7f 38 be a2 a1 d5 3e b5 36 9b be
       0.076263376 -0.1801737 0.4172488 -0.30315176
000020 9b 9e 40 3f e1 f2 00 3f 16 e8 ef be f6 fb 03 3f
       0.7524201 0.50370604 -0.46856755 0.51556337
000030 44 06 99 3d ad 57 64 3e 98 a8 59 3f d9 6e 16 3f
       0.07471898 0.2229907 0.8502288 0.5876289
000040 15 25 90 bf 82 34 fa ba a7 1c 66 3e 39 3d 38 be
       -1.1261317 -0.0019089135 0.22471868 -0.17992105
000050 12 39 b2 be 65 71 5e be f8 6b 96 be 22 e6 54 3d
       -0.34809166 -0.21722944 -0.2937925 0.051977284
000060 10 a7 1c bf 2c 9c 5a 3d cb 9a 51 3e 7d dd 87 be
       -0.6119242 0.053371593 0.20469205 -0.2653617
000070 02 e3 c5 bd e0 0a 2a bf 86 5f b2 be 80 fd 22 be
       -0.09662439 -0.66422844 -0.34838504 -0.15917015
000080 18 2b 96 3c 6b 55 b4 3e 16 55 a7 3d ce 09 82 be
       0.018331096 0.3522142 0.08170526 -0.25398105
000090 d1 c7 4c 3e 58 a5 75 be 47 6f 87 3d 97 d5 52 be
       0.19998099 -0.23988855 0.06613021 -0.2058929
0000a0 2b e4 87 be b9 26 ab bd 3c 03 43 3e f1 25 28 bf
       -0.26541266 -0.08356995 0.19044203 -0.65682894
0000b0 29 59 32 be 9f 36 0b 3f ac d5 f0 3e 31 bc a2 3e
       -0.17416824 0.5438022 0.4703802 0.31784204
0000c0 6c cc 6d bf 75 03 b5 3e d1 04 2d 3e 86 7f 8d be
       -0.9289005 0.353542 0.16896369 -0.27636355
0000d0 6d a9 de bd b2 67 85 be a4 8d 93 3e e7 f8 37 3f
       -0.10872159 -0.26055676 0.28819 0.7186417
0000e0 94 74 f0 3f 25 1b ba 3e 4c a7 06 bd 1c 85 a1 be
       1.8785577 0.36348835 -0.03287439 -0.31546867
0000f0 fb 1a 65 ba 01 04 71 3e 28 01 03 3f 64 eb 90 3d
       -0.0008739677 0.23536684 0.5117364 0.07076147
000100 8f 30 81 3c 15 d5 21 3e 6b 8c f4 3e 75 b0 71 3e
       0.015770225 0.1580394 0.4776338 0.2360247
000110 77 dc 0c 3e b9 cd 21 3e ad cf 1b 3e 63 37 f4 3d
       0.13755976 0.15801133 0.15215941 0.11924627
000120 fe fd 88 3d 76 fd fc be 4d 62 03 bf e0 fd 1e 3e
       0.0668907 -0.49412125 -0.5132187 0.15526533
000130 c4 07 04 be ff fd 83 be 00 bc 5e 3e f3 9e 2b be
       -0.12893587 -0.2577972 0.21751404 -0.16759853
000140 48 f6 00 3d d0 d5 70 3e 4c 96 48 3f bd 28 13 bd
       0.031484872 0.23519063 0.78354335 -0.035927523
000150 d8 f1 a6 bc bc c3 f8 3d c3 84 49 3c ae 95 60 3e
       -0.020378992 0.12146708 0.012299719 0.21932098
000160 6e 43 0c 3f 81 61 ac 3e 61 93 00 3f b7 ca fc be
       0.5479039 0.3366814 0.5022488 -0.4937341
000170 78 65 7b 3e d5 fc a2 bd f9 07 d1 3d 44 f2 72 3e
       0.24550426 -0.0795838 0.10206599 0.2372523
000180 36 39 1d 3d 46 aa 1d 3e 1f d4 3e be 01 51 a4 3e
       0.03838464 0.15396985 -0.18635605 0.3209305
000190 57 7c 86 3d 2f 7d da be 7b 57 28 be 9c ab 0a 3f
       0.06566685 -0.42673633 -0.16439621 0.54168105
0001a0 83 8f fb 3d 76 30 a2 3e 29 0e 16 3f 24 db 2e be
       0.12283232 0.31677598 0.58615357 -0.17075783
0001b0 f1 43 92 bd 63 86 8e 3e 21 2e dc 3e ca 2d 35 bf
       -0.07141865 0.27836904 0.43003944 -0.70772994
0001c0 72 5a 05 be 9a 21 78 3f 25 7f 94 3f 25 ab f6 be
       -0.13022783 0.9692627 1.1601301 -0.48177448
0001d0 b2 1a d7 3c e5 d8 0d 3f 4c 71 1e bf a1 08 2c be
       0.026257847 0.5540908 -0.6189163 -0.16800167
0001e0 83 29 dd 3d 55 84 d0 be 71 5b c2 be 27 c1 8a 3f
       0.10798933 -0.4072596 -0.3796039 1.0840195
0001f0 c5 7b 3f bf 01 a4 65 be a5 5d a5 be 6a 35 52 bf
       -0.7479823 -0.22425844 -0.32298008 -0.82112753
000200 66 56 83 bd a6 26 8b bc ea ab a8 bd 3a 49 fa 3b
       -0.064129636 -0.016986202 -0.08235915 0.007638124
000210 0e 55 41 bc 29 bd c9 bd ab b4 08 be ed 3f 9d bd
       -0.011800064 -0.098505326 -0.1335017 -0.076782085
000220 ff 5d 13 bc 38 f1 a4 bd a3 06 6b 3c 7d 45 fa bd
       -0.008994578 -0.08053821 0.014344844 -0.12220285
000230 11 04 be 3a c7 c8 5b bd 22 dc 89 bd da e2 88 3c
       0.0014497061 -0.053658273 -0.0673144 0.016709734
000240 71 0e e5 bc c2 b1 d9 bd b7 29 b8 bd c9 7d 0c 3c
       -0.027960988 -0.10629608 -0.089923315 0.008574911
000250 bd 7f 69 bd b6 cc 4d 3d 27 24 0e 3c 1d 43 84 bd
       -0.057006586 0.050244056 0.008675612 -0.06458113
000260 5c 9e 9f bd f5 21 79 bd 53 9f 45 bd 1f 05 94 bc
       -0.077938765 -0.0608234 -0.048247647 -0.018068848
000270 ba 74 03 3d 65 69 f2 bc 5a ad 25 3d 36 0b a3 3c
       0.03209374 -0.029591272 0.040448524 0.019902807
000280 e0 1b 9c bd 37 46 83 bc 8f 69 83 3d fd 47 82 bd
       -0.07622504 -0.016024692 0.06416618 -0.06361387
000290 fd a3 b9 3c 6b ee 27 3d 5f 22 80 3c 7a a4 d1 bd
       0.022661204 0.040998857 0.01564139 -0.102364495
0002a0 58 12 d6 bd 35 c0 d9 bd 20 5d 90 bd db 13 ec bd
       -0.104527175 -0.10632364 -0.07049012 -0.11527225
0002b0 ea bd f2 bc 9d 37 ba bd 2d 42 6d bd 50 e6 0c 3d
       -0.029631574 -0.09092639 -0.05792444 0.03439933
0002c0 66 2f 46 bc 43 fd 40 bd a2 1a bc bc 29 fa ef 3c
       -0.012096262 -0.04711653 -0.022961918 0.02929409
0002d0 67 4e 94 3d 35 96 80 3c 4c fd e6 3b 96 de e1 3c
       0.072415166 0.015696624 0.0070492383 0.027571958
0002e0 06 eb 18 3d dc 6d 74 bb cf 97 92 3d 62 eb c0 3c
       0.03733351 -0.0037296927 0.071578614 0.02354974
0002f0 86 6f 0f bd 36 e2 2b bd 2c 18 fa bc 7f 06 0b bd
       -0.035018466 -0.04196378 -0.030529104 -0.033941742
000300 83 5d 78 bd e0 1b 88 3c 29 6d e4 bc ef 97 52 bd
       -0.060636055 0.016614854 -0.027884083 -0.051414426
000310 0c 91 68 3c a0 e3 b6 3c 2c 6c 5d 3d db 7a 82 3d
       0.014194738 0.022325337 0.05405824 0.06371089
000320 99 17 0d 3d da 3c cd bd a1 98 8b bd aa 80 0b 3d
       0.034446333 -0.10021372 -0.06816221 0.03405825
000330 44 05 95 bc 83 f7 e2 bd 53 8d aa bd 03 74 d6 3c
       -0.018190987 -0.11082365 -0.08327737 0.026178366
000340 76 47 18 3c 79 0f 9a 3d ce a4 a2 bd aa 1b 8d bd
       0.009294381 0.075224824 -0.0794159 -0.06890042
000350 6d 64 01 3d 77 01 c0 3a 7a e0 c2 bd 80 8c 3e 3d
       0.031589914 0.0014648874 -0.09515472 0.04652071
000360 cb e4 74 bd f6 d2 f5 bd e3 a9 53 3c 54 50 d6 bd
       -0.059788506 -0.12003128 0.012918922 -0.1046454
000370 21 b5 ae 3c e1 4b 3d bd a1 42 99 bd 29 b3 51 bd
       0.021326603 -0.046214942 -0.074834116 -0.05119625
000380 0f 7d 76 3d cf 3c de bd fa dc 91 bd 96 ae 17 3d
       0.06017786 -0.10851442 -0.07122226 0.037031732
000390 24 ec 72 bb 99 99 b9 bc d1 99 59 bc 83 b8 b5 bc
       -0.003706702 -0.022656249 -0.013281302 -0.022182709
0003a0 6f 1e 46 bd cf f5 07 be 9c 34 3f 3d eb fb 9d bc
       -0.048368867 -0.13277362 0.04668103 -0.019285163
0003b0 98 47 bb bd c2 10 44 bc e9 8e 26 bb 1d 96 83 bd
       -0.09144515 -0.011966886 -0.002541477 -0.06425116
0003c0 55 0a 1c 3d 37 3d ed 3c 35 cc 49 3d 20 24 96 3c
       0.03809579 0.028959854 0.049267013 0.018327773
0003d0 48 17 4a 3d dc 73 3d bd 62 3f 6e bd 89 21 68 3b
       0.04933861 -0.04625307 -0.058165915 0.003542038
0003e0 f4 1d f3 bd ae 4b d7 bd 1e a8 c2 3c f2 c3 09 3d
       -0.118709475 -0.10512482 0.023761805 0.033634134
0003f0 f7 36 d9 bc c6 f2 63 3c 9f e1 dd bb c2 09 32 3c
       -0.026515467 0.013912862 -0.006771281 0.010866584

fc2.bias f4 [128]
000000 a6 d2 ec 3e bc a1 08 3d 5f 14 07 3f af a3 0a 40
       0.46254462 0.033357367 0.5276546 2.1662405
000010 78 84 88 3e 7d fc 9b be 79 fe 2f 3f b1 00 de bd
       0.26663566 -0.3046607 0.6874767 -0.108399756
000020 7d ce b6 3e 1e 3f 29 be c4 be 4a 3c 5e 8e 3d 3e
       0.35704413 -0.16527984 0.012374584 0.1851134
000030 b3 db 51 bf b6 1d 6b bd 80 c0 42 bd b7 f1 6d be
       -0.8197586 -0.05740138 -0.047546864 -0.23236738
000040 54 a8 9b bd eb e3 7b bc 85 28 9b 3e 06 34 94 bc
       -0.076004654 -0.015374164 0.3030435 -0.018091213
000050 98 ec 60 3f de 30 9a 3f b4 b7 dd be 43 e6 36 bd
       0.87861013 1.2046163 -0.43304217 -0.04465319
000060 50 82 22 3c a7 b2 22 3d 59 23 74 3e e0 13 d9 3a
       0.009918764 0.039721157 0.23841609 0.0016561709
000070 27 63 53 3f 55 02 69 be da 1a 3c be c5 55 c0 bd
       0.8257317 -0.22754796 -0.18369618 -0.09391359
000080 b6 9b b1 3d 64 e6 33 3c 3c 21 af bd 6c 82 b5 3c
       0.08672278 0.010980222 -0.08551261 0.022156917
000090 b0 ae c9 be a5 5b 95 3e fd da 96 3d 88 90 8a 3f
       -0.39391088 0.29171482 0.073659874 1.0825357
0000a0 57 50 14 bd 4e ac 53 bd 9a 59 0f bd e6 c2 01 3f
       -0.03620943 -0.051677994 -0.03499756 0.50688016
0000b0 ee 05 9f 3f 69 34 41 3f cb be d9 3c 8c d0 aa 3e
       1.2423685 0.75470597 0.026580235 0.33362234
0000c0 a7 b2 d0 3e 01 aa 3a 3f c7 5c 3b bd f4 a2 ae 3e
       0.407613 0.72915655 -0.045742776 0.34108698
0000d0 8d 35 f0 3e 16 82 0d 3e 86 ce c5 3e 3a bb 41 3f
       0.46915856 0.13819155 0.38634127 0.7567631
0000e0 6c a1 70 3d 53 27 f6 bc e9 97 b6 bc 0e eb 2f 3d
       0.058747694 -0.030048048 -0.022289233 0.042948775
0000f0 d5 94 99 3e cd 85 10 3d d1 a4 94 bd 2f f7 16 be
       0.29996362 0.035283852 -0.07257999 -0.1474273
000100 88 36 67 3f 81 ea 5a 3f 5a a6 f8 3e c9 ab 7c be
       0.90317583 0.85514075 0.48564416 -0.24674906
000110 d6 23 1d bf cd 8d 6d be 0e 8d 44 3e 69 6d e7 3e
       -0.61382806 -0.23198624 0.19194433 0.4520066
000120 17 59 24 bd fb 5b e1 bc 99 7c 87 bf 5d 7e 2f 3f
       -0.040124025 -0.02750968 -1.0584899 0.6855219
000130 75 aa f6 be fd f6 ba 3e 9d 4c bc bd cf da e9 be
       -0.48176923 0.36516562 -0.091943 -0.4567475
000140 48 59 03 3f b7 d9 05 3f 60 ca 24 bf 69 6e cd 3e
       0.5130811 0.5228533 -0.643713 0.401233
000150 8b 77 d2 3f 6b 2f 0d 3f c8 fc 0d bd a3 4f 8f bd
       1.6442732 0.5515048 -0.0346649 -0.069976114
000160 c8 73 cb be 83 b1 a3 3f 3f 19 c0 3d fd a2 04 3d
       -0.39736772 1.2788547 0.09379815 0.032382
000170 97 da 13 bf 93 08 35 bd e6 29 37 be 12 f0 a1 3e
       -0.57755417 -0.04419763 -0.17887077 0.31628472
000180 94 91 9f be 68 ff 83 3f a4 cf 67 be 8f 1c d0 be
       -0.31165755 1.0312319 -0.22637802 -0.40646788
000190 f3 53 ac bd 6f b6 a3 3f 9b 88 cb 3f c5 b5 af 3c
       -0.084144495 1.2790049 1.5901064 0.02144898
0001a0 ee bd 5b 3f 4a a6 65 bd 6c 2b a4 bd a7 66 00 be
       0.85836685 -0.05606679 -0.080160946 -0.12539159
0001b0 3a 9f 39 3e 49 03 10 bf 39 34 69 3c 1f 8f 0b be
       0.18127146 -0.5625501 0.014233642 -0.13628815
0001c0 54 c2 a8 3d f5 f2 61 3f 2b c8 29 3f a5 68 b6 3f
       0.0824019 0.8826135 0.6632106 1.4250685
0001d0 37 f8 2d bf 9d d8 c6 bc 42 86 95 bd 98 58 6e 3f
       -0.6795687 -0.024273211 -0.07300998 0.93103933
0001e0 d7 f1 d3 bd 5d 8c 4a 3f 4f 47 92 3f b6 19 b4 be
       -0.10348862 0.7912043 1.1428012 -0.35175866
0001f0 36 1a 11 3f f3 d2 fb bd ae 7c 1c 3f 70 bc 82 bc
       0.5668062 -0.12296095 0.61127746 -0.015958995

fc3.weight f4 [4, 128]
000000 ba f5 a8 3e ee 6d 75 bc 89 8b fd 3e 69 f4 8e 3f
       0.32999974 -0.014979823 0.4952052 1.1168338
000010 35 a8 c8 3f e4 b0 12 40 fa e1 6d 3e 89 92 ab 3d
       1.5676333 2.2920465 0.23230734 0.08377559
000020 8f e5 8e bf 42 0e dc 3e 6a 02 f8 bf 71 47 4d 3f
       -1.1163806 0.42979628 -1.9375737 0.80187136
000030 c7 42 da bf 5c 60 43 bf a6 1b 3d bc 6f 73 97 bd
       -1.7051629 -0.7631891 -0.011542236 -0.07395064
000040 5f e5 34 3e a9 63 86 3d 99 62 b8 3f 4e e6 38 bf
       0.17665623 0.065619774 1.440509 -0.7222642
000050 6c 1e c5 3e d7 5c 0f 3f b2 a4 df bf e8 9d f2 ba
       0.38499773 0.5600104 -1.7472136 -0.0018510194
000060 38 fc a6 bc 5d 10 31 3d f0 e8 f6 be b9 d8 50 bd
       -0.02038394 0.043228496 -0.48224592 -0.050987933
000070 0e d8 2c 3e 3c 97 14 c0 a2 fb 05 40 cf ef ea 3c
       0.16879293 -2.3217306 2.0934834 0.028678803
000080 82 ea 15 c0 f8 a3 8b 3e 2e 15 48 bc ea 41 81 3c
       -2.3424382 0.27273536 -0.012212081 0.0157785
000090 37 45 bc bf 26 12 bb be 8b 53 99 bd 3a 74 c9 3e
       -1.4708623 -0.36537284 -0.07486638 0.39346486
0000a0 fb 4d 8a bc f3 cc 37 3d cb 11 44 3d 8e 13 39 c0
       -0.016882887 0.04487319 0.04786853 -2.8918185
0000b0 8d ce 1f 3e bd 58 04 3f 02 9e 4e bd f0 19 be be
       0.15606137 0.51697904 -0.050443657 -0.37129164
0000c0 df eb 92 3e c5 03 5f 3f 8b 9d a8 3d a8 37 03 bf
       0.2869558 0.87115127 0.08233174 -0.512568
0000d0 9d 9c cc bf 68 77 ff bf 1b 34 be bf 65 21 9c bf
       -1.5985295 -1.9958315 -1.4859651 -1.2197691
0000e0 d7 5f 58 3e 64 65 13 c0 e4 b6 42 3d 28 4a aa bf
       0.2113031 -2.3030634 0.0475377 -1.3303881
0000f0 1c 7e 3e 3f 86 47 3e 3e e8 76 f0 bf e1 ef 8a bf
       0.7441118 0.18581972 -1.8786287 -1.0854455
000100 8c 0d 1a 3f a1 94 01 3f 97 bc 45 c0 d5 bd ea bf
       0.6017692 0.50617415 -3.0896356 -1.8339182
000110 23 c3 ed 3f a3 7a bc bf 9c 3e 4a bf fb f3 91 bd
       1.8575176 -1.4724926 -0.79001784 -0.07126614
000120 8a 09 b0 bc 84 94 ab 3c cb a8 e5 bf 5d 0d a6 be
       -0.021488924 0.020944841 -1.7942137 -0.3243207
000130 f7 5f 1b 3f 79 50 c7 3f 13 4f 5b bf 5d 32 39 bf
       0.60693306 1.5571433 -0.8566753 -0.72342473
000140 3b da 09 3f 0c 7e 80 bd ff 95 f9 3e 6b 0c e2 3d
       0.5384862 -0.062740415 0.4874725 0.11037525
000150 64 9e 2a 3f 5a 2d 75 3f e6 67 fb bb 12 d0 5e 3f
       0.66647935 0.95772326 -0.007672298 0.8703624
000160 77 c3 0a 3f bc 2c eb 3e f0 80 cb bf b6 0f 20 3d
       0.54204506 0.45932567 -1.5898724 0.039077483
000170 71 65 91 bf 00 df 22 bd 96 de 5a c0 75 cd 8b be
       -1.1359082 -0.03976345 -3.4198356 -0.2730519
000180 ee 46 b0 3f f0 29 34 3f a9 ed 26 bf 83 9a 2a 3f
       1.3771646 0.7037649 -0.6520639 0.66642016
000190 de 8e 7e 3f 3a 63 a9 3e 8b fa d8 3e 59 3a 25 bf
       0.9943675 0.33083516 0.4237865 -0.64542156
0001a0 6c fd 5f 3e ff a0 3b bf 20 13 20 c0 e4 68 2b bb
       0.21874017 -0.73292536 -2.5011673 -0.002615505
0001b0 11 e0 bc 3f 62 6a 55 bf 36 bc 0e c0 e8 30 9f 3b
       1.475588 -0.8336545 -2.2302375 0.004858125
0001c0 8d 4b 33 c0 0f 6e 24 be 24 c4 b2 3e c8 49 c1 3e
       -2.8014863 -0.16057609 0.34915268 0.37751603
0001d0 41 53 bc be 4b 32 65 bc f2 1f ca 3c 11 d4 e2 3e
       -0.36782268 -0.013989042 0.024673436 0.4430242
0001e0 e1 b5 c2 bc 09 5f 27 3d 89 19 f9 3e 85 0d 42 3f
       -0.023768367 0.040862117 0.48652294 0.7580188
0001f0 2f 45 a6 be 9d 29 61 bb 7b 03 8c 3e 1c cd ae bc
       -0.32474658 -0.003435708 0.27346405 -0.021338038
000200 f0 e7 83 3e 77 70 bc 3b 1f 47 27 3f 43 d7 62 3f
       0.25762892 0.0057507115 0.653429 0.88609713
000210 11 7b 10 40 25 a5 31 3f 42 b5 c1 3e cc 36 0d bd
       2.2575114 0.69392616 0.378336 -0.034476086
000220 53 b9 31 bc 92 33 e6 bf ff 9e e5 be d1 1d 08 c0
       -0.010847407 -1.7984488 -0.44847867 -2.1268198
000230 5c 16 76 bf ee d1 91 3e f1 47 02 3c d8 07 f7 bf
       -0.9612787 0.28480476 0.0079517225 -1.9299269
000240 60 5d 42 3f 24 00 09 3d c5 00 4b bf 16 d4 74 bf
       0.7592373 0.0334474 -0.7929805 -0.9563612
000250 2d 4f 4f bf 2c dc 42 3e 4e 33 08 c0 0d 47 24 3d
       -0.8098019 0.19029301 -2.1281314 0.04010682
000260 48 46 b6 bd a2 39 18 3b 9d 05 04 bf 03 64 d7 bc
       -0.08900124 0.0023227711 -0.51571065 -0.026292806
000270 92 40 06 3f 37 dc f4 bf fe c6 d0 bf fe 4c a3 bc
       0.52442276 -1.9129704 -1.6310728 -0.019934174
000280 b0 12 c3 3e 26 ed 82 3f 09 65 12 3d 3a ee 6d bc
       0.38100195 1.0228622 0.035740886 -0.01452213
000290 b9 5e 8f bf 14 fe e1 3e 80 43 bf 3f 9f c1 28 3f
       -1.1200782 0.4413916 1.4942474 0.6592044
0002a0 91 d5 ec bc 21 15 da 3c d8 a2 0a bd 79 4f d8 3e
       -0.02891043 0.026621403 -0.033846706 0.42248133
0002b0 c6 1b a3 3e a2 5f 32 3f 91 6c cc 3c 83 2f 14 bf
       0.31857127 0.69677174 0.024954112 -0.57885
0002c0 18 36 91 bd d2 3f 51 3e 6a cf 4d bd cd 27 29 bf
       -0.07090396 0.20434502 -0.050246634 -0.66076356
0002d0 f1 92 ad 3e e0 40 5c 3e b3 20 c0 bf 78 82 5d bf
       0.3390117 0.21509123 -1.5009979 -0.86527205
0002e0 15 0c 9d 3f 98 e6 69 3d 8f c4 9b 3d 90 d1 10 40
       1.2269312 0.057104677 0.0760585 2.2627907
0002f0 df dc 36 3f b5 cc 08 bf b2 6c 55 3f a3 02 31 c0
       0.7143077 -0.5343736 0.8336898 -2.765786
000300 c3 0b 7d 3d c0 ad 11 3e 33 46 d9 3f af 98 2f bf
       0.061778795 0.14226437 1.6974548 -0.6859235
000310 1a 35 8c 3f f1 bc 32 3e 50 b7 57 be 81 62 76 3f
       1.0953705 0.17454888 -0.21066022 0.96244055
000320 2c 9e ae 3d 66 12 03 bd 00 ac a9 bf b3 33 f6 3d
       0.08526263 -0.031999968 -1.3255615 0.120215796
000330 39 a3 0f be 54 de 0c 3f 06 99 93 3e a2 06 01 c0
       -0.14027108 0.55026746 0.28827685 -2.0160298
000340 ee bc 94 3f 79 48 9a 3f 55 dd 16 3f c2 32 26 bf
       1.1620157 1.2053367 0.58931476 -0.649212
000350 b9 0b e0 3e 35 5a 49 be eb 94 de 3c 37 74 f1 bf
       0.43758944 -0.19663318 0.027170619 -1.8863591
000360 de 35 a4 bd c1 bb 12 3f dd ff 6e bf 0e 2e 5f bd
       -0.08018087 0.5731774 -0.93359166 -0.05448728
000370 cb 90 d2 bf d9 48 65 3d f9 a7 0f 40 59 79 2b 3d
       -1.6450437 0.055977676 2.2446272 0.041863773
000380 cf 44 47 bf ba 1f 82 3e 10 19 b0 c0 b7 73 40 3f
       -0.7783937 0.2541483 -5.5030594 0.75176567
000390 30 e8 a8 c0 1b ce 45 3d 25 18 1b 3f 8a 69 a0 3e
       -5.278343 0.04829226 0.60583717 0.3133052
0003a0 6e 3d 29 3f 51 41 2e bf ce 6f e0 bf 50 90 45 3d
       0.6610936 -0.68068415 -1.753412 0.04823333
0003b0 06 4e d7 bf 52 0b 25 bf 73 3a a7 bf 38 7e 9f 3c
       -1.6820686 -0.644704 -1.3064712 0.019469365
0003c0 6d 3a 55 bf 24 ba f3 3e 1e 5a 52 3f 19 a5 17 3f
       -0.83292276 0.47602952 0.8216876 0.59236294
0003d0 40 ef 96 be 1a 26 94 bd f5 10 e9 bc d6 51 dc 3d
       -0.29479408 -0.0723383 -0.028450469 0.107577965
0003e0 a9 fa c7 bc d3 45 09 3f 62 d9 04 3f 69 75 94 c0
       -0.024411516 0.5362217 0.518942 -4.6393323
0003f0 83 b1 96 3e 68 04 56 3d 28 a4 18 bf 7a 3c 92 bc
       0.29432306 0.052250296 -0.5962548 -0.017851103

fc3.bias f4 [4]
000000 29 f8 71 3f 6f 5c 75 3f 7e b2 88 3f 33 b0 86 3f
       0.9451929 0.9584417 1.0679471 1.0522522
